…
E0909 13:09:20.288328  1998 upgrade_proto.cpp:575] Attempting to upgrade input file specified using deprecated V0LayerParameter: distribute/python/../../senti/model4_boost_deploy.prototxt
I0909 13:09:20.288465  1998 upgrade_proto.cpp:582] Successfully upgraded file specified using deprecated V0LayerParameter
E0909 13:09:20.288473  1998 upgrade_proto.cpp:585] Note that future Caffe releases will not support V0NetParameter; use ./build/tools/upgrade_net_proto_text.bin to upgrade this and any other network proto files to the new format.
I0909 13:09:20.288619  1998 net.cpp:38] Initializing net from parameters: 
layers {
  bottom: "data"
  top: "conv1"
  name: "conv1"
  type: CONVOLUTION
  blobs_lr: 1
  blobs_lr: 2
  weight_decay: 1
  weight_decay: 0
  convolution_param {
    num_output: 96
    kernel_size: 11
    stride: 4
    weight_filler {
      type: "gaussian"
      std: 0.01
    }
    bias_filler {
      type: "constant"
      value: 0
    }
  }
}
layers {
  bottom: "conv1"
  top: "conv1"
  name: "relu1"
  type: RELU
}
layers {
  bottom: "conv1"
  top: "pool1"
  name: "pool1"
  type: POOLING
  pooling_param {
    pool: MAX
    kernel_size: 3
    stride: 2
  }
}
layers {
  bottom: "pool1"
  top: "norm1"
  name: "norm1"
  type: LRN
  lrn_param {
    local_size: 5
    alpha: 0.0001
    beta: 0.75
  }
}
layers {
  bottom: "norm1"
  top: "conv2"
  name: "conv2"
  type: CONVOLUTION
  blobs_lr: 1
  blobs_lr: 2
  weight_decay: 1
  weight_decay: 0
  convolution_param {
    num_output: 256
    pad: 2
    kernel_size: 5
    group: 2
    weight_filler {
      type: "gaussian"
      std: 0.01
    }
    bias_filler {
      type: "constant"
      value: 1
    }
  }
}
layers {
  bottom: "conv2"
  top: "conv2"
  name: "relu2"
  type: RELU
}
layers {
  bottom: "conv2"
  top: "pool2"
  name: "pool2"
  type: POOLING
  pooling_param {
    pool: MAX
    kernel_size: 3
    stride: 2
  }
}
layers {
  bottom: "pool2"
  top: "fc7"
  name: "fc7"
  type: INNER_PRODUCT
  blobs_lr: 1
  blobs_lr: 2
  weight_decay: 1
  weight_decay: 0
  inner_product_param {
    num_output: 512
    weight_filler {
      type: "gaussian"
      std: 0.005
    }
    bias_filler {
      type: "constant"
      value: 1
    }
  }
}
layers {
  bottom: "fc7"
  top: "fc7"
  name: "relu7"
  type: RELU
}
layers {
  bottom: "fc7"
  top: "fc7"
  name: "drop7"
  type: DROPOUT
  dropout_param {
    dropout_ratio: 0.5
  }
}
layers {
  bottom: "fc7"
  top: "fc8"
  name: "fc8"
  type: INNER_PRODUCT
  blobs_lr: 1
  blobs_lr: 2
  weight_decay: 1
  weight_decay: 0
  inner_product_param {
    num_output: 512
    weight_filler {
      type: "gaussian"
      std: 0.005
    }
    bias_filler {
      type: "constant"
      value: 1
    }
  }
}
layers {
  bottom: "fc8"
  top: "fc8"
  name: "relu8"
  type: RELU
}
layers {
  bottom: "fc8"
  top: "fc8"
  name: "drop8"
  type: DROPOUT
  dropout_param {
    dropout_ratio: 0.5
  }
}
layers {
  bottom: "fc8"
  top: "fc9"
  name: "fc9"
  type: INNER_PRODUCT
  blobs_lr: 1
  blobs_lr: 2
  weight_decay: 1
  weight_decay: 0
  inner_product_param {
    num_output: 24
    weight_filler {
      type: "gaussian"
      std: 0.01
    }
    bias_filler {
      type: "constant"
      value: 0
    }
  }
}
layers {
  bottom: "fc9"
  top: "fc10"
  name: "fc10"
  type: INNER_PRODUCT
  blobs_lr: 1
  blobs_lr: 2
  weight_decay: 1
  weight_decay: 0
  inner_product_param {
    num_output: 2
    weight_filler {
      type: "gaussian"
      std: 0.01
    }
    bias_filler {
      type: "constant"
      value: 0
    }
  }
}
layers {
  bottom: "fc10"
  top: "prob"
  name: "prob"
  type: SOFTMAX
}
input: "data"
input_dim: 10
input_dim: 3
input_dim: 227
input_dim: 227
I0909 13:09:20.288671  1998 net.cpp:292] Input 0 -> data
I0909 13:09:20.288697  1998 net.cpp:66] Creating Layer conv1
I0909 13:09:20.288703  1998 net.cpp:329] conv1 <- data
I0909 13:09:20.288712  1998 net.cpp:290] conv1 -> conv1
I0909 13:09:20.290091  1998 net.cpp:83] Top shape: 10 96 55 55 (2904000)
I0909 13:09:20.290112  1998 net.cpp:125] conv1 needs backward computation.
I0909 13:09:20.290130  1998 net.cpp:66] Creating Layer relu1
I0909 13:09:20.290137  1998 net.cpp:329] relu1 <- conv1
I0909 13:09:20.290143  1998 net.cpp:280] relu1 -> conv1 (in-place)
I0909 13:09:20.290153  1998 net.cpp:83] Top shape: 10 96 55 55 (2904000)
I0909 13:09:20.290158  1998 net.cpp:125] relu1 needs backward computation.
I0909 13:09:20.290165  1998 net.cpp:66] Creating Layer pool1
I0909 13:09:20.290170  1998 net.cpp:329] pool1 <- conv1
I0909 13:09:20.290177  1998 net.cpp:290] pool1 -> pool1
I0909 13:09:20.290189  1998 net.cpp:83] Top shape: 10 96 27 27 (699840)
I0909 13:09:20.290194  1998 net.cpp:125] pool1 needs backward computation.
I0909 13:09:20.290201  1998 net.cpp:66] Creating Layer norm1
I0909 13:09:20.290206  1998 net.cpp:329] norm1 <- pool1
I0909 13:09:20.290213  1998 net.cpp:290] norm1 -> norm1
I0909 13:09:20.290223  1998 net.cpp:83] Top shape: 10 96 27 27 (699840)
I0909 13:09:20.290230  1998 net.cpp:125] norm1 needs backward computation.
I0909 13:09:20.290236  1998 net.cpp:66] Creating Layer conv2
I0909 13:09:20.290242  1998 net.cpp:329] conv2 <- norm1
I0909 13:09:20.290249  1998 net.cpp:290] conv2 -> conv2
I0909 13:09:20.299338  1998 net.cpp:83] Top shape: 10 256 27 27 (1866240)
I0909 13:09:20.299353  1998 net.cpp:125] conv2 needs backward computation.
I0909 13:09:20.299360  1998 net.cpp:66] Creating Layer relu2
I0909 13:09:20.299366  1998 net.cpp:329] relu2 <- conv2
I0909 13:09:20.299372  1998 net.cpp:280] relu2 -> conv2 (in-place)
I0909 13:09:20.299381  1998 net.cpp:83] Top shape: 10 256 27 27 (1866240)
I0909 13:09:20.299386  1998 net.cpp:125] relu2 needs backward computation.
I0909 13:09:20.299392  1998 net.cpp:66] Creating Layer pool2
I0909 13:09:20.299397  1998 net.cpp:329] pool2 <- conv2
I0909 13:09:20.299404  1998 net.cpp:290] pool2 -> pool2
I0909 13:09:20.299412  1998 net.cpp:83] Top shape: 10 256 13 13 (432640)
I0909 13:09:20.299418  1998 net.cpp:125] pool2 needs backward computation.
I0909 13:09:20.299425  1998 net.cpp:66] Creating Layer fc7
I0909 13:09:20.299430  1998 net.cpp:329] fc7 <- pool2
I0909 13:09:20.299438  1998 net.cpp:290] fc7 -> fc7
I0909 13:09:20.936529  1998 net.cpp:83] Top shape: 10 512 1 1 (5120)
I0909 13:09:20.936575  1998 net.cpp:125] fc7 needs backward computation.
I0909 13:09:20.936588  1998 net.cpp:66] Creating Layer relu7
I0909 13:09:20.936594  1998 net.cpp:329] relu7 <- fc7
I0909 13:09:20.936602  1998 net.cpp:280] relu7 -> fc7 (in-place)
I0909 13:09:20.936612  1998 net.cpp:83] Top shape: 10 512 1 1 (5120)
I0909 13:09:20.936619  1998 net.cpp:125] relu7 needs backward computation.
I0909 13:09:20.936625  1998 net.cpp:66] Creating Layer drop7
I0909 13:09:20.936631  1998 net.cpp:329] drop7 <- fc7
I0909 13:09:20.936638  1998 net.cpp:280] drop7 -> fc7 (in-place)
I0909 13:09:20.936650  1998 net.cpp:83] Top shape: 10 512 1 1 (5120)
I0909 13:09:20.936655  1998 net.cpp:125] drop7 needs backward computation.
I0909 13:09:20.936664  1998 net.cpp:66] Creating Layer fc8
I0909 13:09:20.936669  1998 net.cpp:329] fc8 <- fc7
I0909 13:09:20.936678  1998 net.cpp:290] fc8 -> fc8
I0909 13:09:20.944442  1998 net.cpp:83] Top shape: 10 512 1 1 (5120)
I0909 13:09:20.944454  1998 net.cpp:125] fc8 needs backward computation.
I0909 13:09:20.944461  1998 net.cpp:66] Creating Layer relu8
I0909 13:09:20.944468  1998 net.cpp:329] relu8 <- fc8
I0909 13:09:20.944475  1998 net.cpp:280] relu8 -> fc8 (in-place)
I0909 13:09:20.944483  1998 net.cpp:83] Top shape: 10 512 1 1 (5120)
I0909 13:09:20.944489  1998 net.cpp:125] relu8 needs backward computation.
I0909 13:09:20.944494  1998 net.cpp:66] Creating Layer drop8
I0909 13:09:20.944500  1998 net.cpp:329] drop8 <- fc8
I0909 13:09:20.944506  1998 net.cpp:280] drop8 -> fc8 (in-place)
I0909 13:09:20.944514  1998 net.cpp:83] Top shape: 10 512 1 1 (5120)
I0909 13:09:20.944519  1998 net.cpp:125] drop8 needs backward computation.
I0909 13:09:20.944526  1998 net.cpp:66] Creating Layer fc9
I0909 13:09:20.944531  1998 net.cpp:329] fc9 <- fc8
I0909 13:09:20.944540  1998 net.cpp:290] fc9 -> fc9
I0909 13:09:20.944911  1998 net.cpp:83] Top shape: 10 24 1 1 (240)
I0909 13:09:20.944933  1998 net.cpp:125] fc9 needs backward computation.
I0909 13:09:20.944942  1998 net.cpp:66] Creating Layer fc10
I0909 13:09:20.944948  1998 net.cpp:329] fc10 <- fc9
I0909 13:09:20.944955  1998 net.cpp:290] fc10 -> fc10
I0909 13:09:20.944968  1998 net.cpp:83] Top shape: 10 2 1 1 (20)
I0909 13:09:20.944977  1998 net.cpp:125] fc10 needs backward computation.
I0909 13:09:20.944983  1998 net.cpp:66] Creating Layer prob
I0909 13:09:20.944989  1998 net.cpp:329] prob <- fc10
I0909 13:09:20.944996  1998 net.cpp:290] prob -> prob
I0909 13:09:20.945006  1998 net.cpp:83] Top shape: 10 2 1 1 (20)
I0909 13:09:20.945013  1998 net.cpp:125] prob needs backward computation.
I0909 13:09:20.945018  1998 net.cpp:156] This network produces output prob
I0909 13:09:20.945029  1998 net.cpp:402] Collecting Learning Rate and Weight Decay.
I0909 13:09:20.945036  1998 net.cpp:167] Network initialization done.
I0909 13:09:20.945041  1998 net.cpp:168] Memory required for data: 6183480
Classifying 232 inputs.
Done in 138.90 s.
WARNING: Logging before InitGoogleLogging() is written to STDERR
E0909 13:11:41.489476  2199 upgrade_proto.cpp:575] Attempting to upgrade input file specified using deprecated V0LayerParameter: distribute/python/../../senti/model4_boost_deploy.prototxt
I0909 13:11:41.489648  2199 upgrade_proto.cpp:582] Successfully upgraded file specified using deprecated V0LayerParameter
E0909 13:11:41.489660  2199 upgrade_proto.cpp:585] Note that future Caffe releases will not support V0NetParameter; use ./build/tools/upgrade_net_proto_text.bin to upgrade this and any other network proto files to the new format.
I0909 13:11:41.489807  2199 net.cpp:38] Initializing net from parameters: 
layers {
  bottom: "data"
  top: "conv1"
  name: "conv1"
  type: CONVOLUTION
  blobs_lr: 1
  blobs_lr: 2
  weight_decay: 1
  weight_decay: 0
  convolution_param {
    num_output: 96
    kernel_size: 11
    stride: 4
    weight_filler {
      type: "gaussian"
      std: 0.01
    }
    bias_filler {
      type: "constant"
      value: 0
    }
  }
}
layers {
  bottom: "conv1"
  top: "conv1"
  name: "relu1"
  type: RELU
}
layers {
  bottom: "conv1"
  top: "pool1"
  name: "pool1"
  type: POOLING
  pooling_param {
    pool: MAX
    kernel_size: 3
    stride: 2
  }
}
layers {
  bottom: "pool1"
  top: "norm1"
  name: "norm1"
  type: LRN
  lrn_param {
    local_size: 5
    alpha: 0.0001
    beta: 0.75
  }
}
layers {
  bottom: "norm1"
  top: "conv2"
  name: "conv2"
  type: CONVOLUTION
  blobs_lr: 1
  blobs_lr: 2
  weight_decay: 1
  weight_decay: 0
  convolution_param {
    num_output: 256
    pad: 2
    kernel_size: 5
    group: 2
    weight_filler {
      type: "gaussian"
      std: 0.01
    }
    bias_filler {
      type: "constant"
      value: 1
    }
  }
}
layers {
  bottom: "conv2"
  top: "conv2"
  name: "relu2"
  type: RELU
}
layers {
  bottom: "conv2"
  top: "pool2"
  name: "pool2"
  type: POOLING
  pooling_param {
    pool: MAX
    kernel_size: 3
    stride: 2
  }
}
layers {
  bottom: "pool2"
  top: "fc7"
  name: "fc7"
  type: INNER_PRODUCT
  blobs_lr: 1
  blobs_lr: 2
  weight_decay: 1
  weight_decay: 0
  inner_product_param {
    num_output: 512
    weight_filler {
      type: "gaussian"
      std: 0.005
    }
    bias_filler {
      type: "constant"
      value: 1
    }
  }
}
layers {
  bottom: "fc7"
  top: "fc7"
  name: "relu7"
  type: RELU
}
layers {
  bottom: "fc7"
  top: "fc7"
  name: "drop7"
  type: DROPOUT
  dropout_param {
    dropout_ratio: 0.5
  }
}
layers {
  bottom: "fc7"
  top: "fc8"
  name: "fc8"
  type: INNER_PRODUCT
  blobs_lr: 1
  blobs_lr: 2
  weight_decay: 1
  weight_decay: 0
  inner_product_param {
    num_output: 512
    weight_filler {
      type: "gaussian"
      std: 0.005
    }
    bias_filler {
      type: "constant"
      value: 1
    }
  }
}
layers {
  bottom: "fc8"
  top: "fc8"
  name: "relu8"
  type: RELU
}
layers {
  bottom: "fc8"
  top: "fc8"
  name: "drop8"
  type: DROPOUT
  dropout_param {
    dropout_ratio: 0.5
  }
}
layers {
  bottom: "fc8"
  top: "fc9"
  name: "fc9"
  type: INNER_PRODUCT
  blobs_lr: 1
  blobs_lr: 2
  weight_decay: 1
  weight_decay: 0
  inner_product_param {
    num_output: 24
    weight_filler {
      type: "gaussian"
      std: 0.01
    }
    bias_filler {
      type: "constant"
      value: 0
    }
  }
}
layers {
  bottom: "fc9"
  top: "fc10"
  name: "fc10"
  type: INNER_PRODUCT
  blobs_lr: 1
  blobs_lr: 2
  weight_decay: 1
  weight_decay: 0
  inner_product_param {
    num_output: 2
    weight_filler {
      type: "gaussian"
      std: 0.01
    }
    bias_filler {
      type: "constant"
      value: 0
    }
  }
}
layers {
  bottom: "fc10"
  top: "prob"
  name: "prob"
  type: SOFTMAX
}
input: "data"
input_dim: 10
input_dim: 3
input_dim: 227
input_dim: 227
I0909 13:11:41.489872  2199 net.cpp:292] Input 0 -> data
I0909 13:11:41.489900  2199 net.cpp:66] Creating Layer conv1
I0909 13:11:41.489908  2199 net.cpp:329] conv1 <- data
I0909 13:11:41.489917  2199 net.cpp:290] conv1 -> conv1
I0909 13:11:41.491261  2199 net.cpp:83] Top shape: 10 96 55 55 (2904000)
I0909 13:11:41.491281  2199 net.cpp:125] conv1 needs backward computation.
I0909 13:11:41.491291  2199 net.cpp:66] Creating Layer relu1
I0909 13:11:41.491297  2199 net.cpp:329] relu1 <- conv1
I0909 13:11:41.491304  2199 net.cpp:280] relu1 -> conv1 (in-place)
I0909 13:11:41.491314  2199 net.cpp:83] Top shape: 10 96 55 55 (2904000)
I0909 13:11:41.491320  2199 net.cpp:125] relu1 needs backward computation.
I0909 13:11:41.491328  2199 net.cpp:66] Creating Layer pool1
I0909 13:11:41.491334  2199 net.cpp:329] pool1 <- conv1
I0909 13:11:41.491343  2199 net.cpp:290] pool1 -> pool1
I0909 13:11:41.491353  2199 net.cpp:83] Top shape: 10 96 27 27 (699840)
I0909 13:11:41.491360  2199 net.cpp:125] pool1 needs backward computation.
I0909 13:11:41.491368  2199 net.cpp:66] Creating Layer norm1
I0909 13:11:41.491374  2199 net.cpp:329] norm1 <- pool1
I0909 13:11:41.491381  2199 net.cpp:290] norm1 -> norm1
I0909 13:11:41.491391  2199 net.cpp:83] Top shape: 10 96 27 27 (699840)
I0909 13:11:41.491397  2199 net.cpp:125] norm1 needs backward computation.
I0909 13:11:41.491405  2199 net.cpp:66] Creating Layer conv2
I0909 13:11:41.491412  2199 net.cpp:329] conv2 <- norm1
I0909 13:11:41.491420  2199 net.cpp:290] conv2 -> conv2
I0909 13:11:41.500313  2199 net.cpp:83] Top shape: 10 256 27 27 (1866240)
I0909 13:11:41.500337  2199 net.cpp:125] conv2 needs backward computation.
I0909 13:11:41.500345  2199 net.cpp:66] Creating Layer relu2
I0909 13:11:41.500352  2199 net.cpp:329] relu2 <- conv2
I0909 13:11:41.500360  2199 net.cpp:280] relu2 -> conv2 (in-place)
I0909 13:11:41.500368  2199 net.cpp:83] Top shape: 10 256 27 27 (1866240)
I0909 13:11:41.500375  2199 net.cpp:125] relu2 needs backward computation.
I0909 13:11:41.500382  2199 net.cpp:66] Creating Layer pool2
I0909 13:11:41.500396  2199 net.cpp:329] pool2 <- conv2
I0909 13:11:41.500402  2199 net.cpp:290] pool2 -> pool2
I0909 13:11:41.500411  2199 net.cpp:83] Top shape: 10 256 13 13 (432640)
I0909 13:11:41.500417  2199 net.cpp:125] pool2 needs backward computation.
I0909 13:11:41.500426  2199 net.cpp:66] Creating Layer fc7
I0909 13:11:41.500432  2199 net.cpp:329] fc7 <- pool2
I0909 13:11:41.500439  2199 net.cpp:290] fc7 -> fc7
I0909 13:11:42.146947  2199 net.cpp:83] Top shape: 10 512 1 1 (5120)
I0909 13:11:42.146991  2199 net.cpp:125] fc7 needs backward computation.
I0909 13:11:42.147004  2199 net.cpp:66] Creating Layer relu7
I0909 13:11:42.147013  2199 net.cpp:329] relu7 <- fc7
I0909 13:11:42.147022  2199 net.cpp:280] relu7 -> fc7 (in-place)
I0909 13:11:42.147032  2199 net.cpp:83] Top shape: 10 512 1 1 (5120)
I0909 13:11:42.147039  2199 net.cpp:125] relu7 needs backward computation.
I0909 13:11:42.147047  2199 net.cpp:66] Creating Layer drop7
I0909 13:11:42.147053  2199 net.cpp:329] drop7 <- fc7
I0909 13:11:42.147063  2199 net.cpp:280] drop7 -> fc7 (in-place)
I0909 13:11:42.147073  2199 net.cpp:83] Top shape: 10 512 1 1 (5120)
I0909 13:11:42.147080  2199 net.cpp:125] drop7 needs backward computation.
I0909 13:11:42.147089  2199 net.cpp:66] Creating Layer fc8
I0909 13:11:42.147096  2199 net.cpp:329] fc8 <- fc7
I0909 13:11:42.147114  2199 net.cpp:290] fc8 -> fc8
I0909 13:11:42.154903  2199 net.cpp:83] Top shape: 10 512 1 1 (5120)
I0909 13:11:42.154918  2199 net.cpp:125] fc8 needs backward computation.
I0909 13:11:42.154927  2199 net.cpp:66] Creating Layer relu8
I0909 13:11:42.154933  2199 net.cpp:329] relu8 <- fc8
I0909 13:11:42.154940  2199 net.cpp:280] relu8 -> fc8 (in-place)
I0909 13:11:42.154950  2199 net.cpp:83] Top shape: 10 512 1 1 (5120)
I0909 13:11:42.154956  2199 net.cpp:125] relu8 needs backward computation.
I0909 13:11:42.154964  2199 net.cpp:66] Creating Layer drop8
I0909 13:11:42.154970  2199 net.cpp:329] drop8 <- fc8
I0909 13:11:42.154978  2199 net.cpp:280] drop8 -> fc8 (in-place)
I0909 13:11:42.154985  2199 net.cpp:83] Top shape: 10 512 1 1 (5120)
I0909 13:11:42.154991  2199 net.cpp:125] drop8 needs backward computation.
I0909 13:11:42.155000  2199 net.cpp:66] Creating Layer fc9
I0909 13:11:42.155006  2199 net.cpp:329] fc9 <- fc8
I0909 13:11:42.155015  2199 net.cpp:290] fc9 -> fc9
I0909 13:11:42.155388  2199 net.cpp:83] Top shape: 10 24 1 1 (240)
I0909 13:11:42.155401  2199 net.cpp:125] fc9 needs backward computation.
I0909 13:11:42.155411  2199 net.cpp:66] Creating Layer fc10
I0909 13:11:42.155417  2199 net.cpp:329] fc10 <- fc9
I0909 13:11:42.155426  2199 net.cpp:290] fc10 -> fc10
I0909 13:11:42.155439  2199 net.cpp:83] Top shape: 10 2 1 1 (20)
I0909 13:11:42.155448  2199 net.cpp:125] fc10 needs backward computation.
I0909 13:11:42.155455  2199 net.cpp:66] Creating Layer prob
I0909 13:11:42.155462  2199 net.cpp:329] prob <- fc10
I0909 13:11:42.155469  2199 net.cpp:290] prob -> prob
I0909 13:11:42.155479  2199 net.cpp:83] Top shape: 10 2 1 1 (20)
I0909 13:11:42.155488  2199 net.cpp:125] prob needs backward computation.
I0909 13:11:42.155493  2199 net.cpp:156] This network produces output prob
I0909 13:11:42.155505  2199 net.cpp:402] Collecting Learning Rate and Weight Decay.
I0909 13:11:42.155514  2199 net.cpp:167] Network initialization done.
I0909 13:11:42.155520  2199 net.cpp:168] Memory required for data: 6183480
Classifying 541 inputs.
Done in 359.63 s.
WARNING: Logging before InitGoogleLogging() is written to STDERR
E0909 13:18:21.657548  2451 upgrade_proto.cpp:575] Attempting to upgrade input file specified using deprecated V0LayerParameter: distribute/python/../../senti/model4_boost_deploy.prototxt
I0909 13:18:21.657714  2451 upgrade_proto.cpp:582] Successfully upgraded file specified using deprecated V0LayerParameter
E0909 13:18:21.657724  2451 upgrade_proto.cpp:585] Note that future Caffe releases will not support V0NetParameter; use ./build/tools/upgrade_net_proto_text.bin to upgrade this and any other network proto files to the new format.
I0909 13:18:21.657870  2451 net.cpp:38] Initializing net from parameters: 
layers {
  bottom: "data"
  top: "conv1"
  name: "conv1"
  type: CONVOLUTION
  blobs_lr: 1
  blobs_lr: 2
  weight_decay: 1
  weight_decay: 0
  convolution_param {
    num_output: 96
    kernel_size: 11
    stride: 4
    weight_filler {
      type: "gaussian"
      std: 0.01
    }
    bias_filler {
      type: "constant"
      value: 0
    }
  }
}
layers {
  bottom: "conv1"
  top: "conv1"
  name: "relu1"
  type: RELU
}
layers {
  bottom: "conv1"
  top: "pool1"
  name: "pool1"
  type: POOLING
  pooling_param {
    pool: MAX
    kernel_size: 3
    stride: 2
  }
}
layers {
  bottom: "pool1"
  top: "norm1"
  name: "norm1"
  type: LRN
  lrn_param {
    local_size: 5
    alpha: 0.0001
    beta: 0.75
  }
}
layers {
  bottom: "norm1"
  top: "conv2"
  name: "conv2"
  type: CONVOLUTION
  blobs_lr: 1
  blobs_lr: 2
  weight_decay: 1
  weight_decay: 0
  convolution_param {
    num_output: 256
    pad: 2
    kernel_size: 5
    group: 2
    weight_filler {
      type: "gaussian"
      std: 0.01
    }
    bias_filler {
      type: "constant"
      value: 1
    }
  }
}
layers {
  bottom: "conv2"
  top: "conv2"
  name: "relu2"
  type: RELU
}
layers {
  bottom: "conv2"
  top: "pool2"
  name: "pool2"
  type: POOLING
  pooling_param {
    pool: MAX
    kernel_size: 3
    stride: 2
  }
}
layers {
  bottom: "pool2"
  top: "fc7"
  name: "fc7"
  type: INNER_PRODUCT
  blobs_lr: 1
  blobs_lr: 2
  weight_decay: 1
  weight_decay: 0
  inner_product_param {
    num_output: 512
    weight_filler {
      type: "gaussian"
      std: 0.005
    }
    bias_filler {
      type: "constant"
      value: 1
    }
  }
}
layers {
  bottom: "fc7"
  top: "fc7"
  name: "relu7"
  type: RELU
}
layers {
  bottom: "fc7"
  top: "fc7"
  name: "drop7"
  type: DROPOUT
  dropout_param {
    dropout_ratio: 0.5
  }
}
layers {
  bottom: "fc7"
  top: "fc8"
  name: "fc8"
  type: INNER_PRODUCT
  blobs_lr: 1
  blobs_lr: 2
  weight_decay: 1
  weight_decay: 0
  inner_product_param {
    num_output: 512
    weight_filler {
      type: "gaussian"
      std: 0.005
    }
    bias_filler {
      type: "constant"
      value: 1
    }
  }
}
layers {
  bottom: "fc8"
  top: "fc8"
  name: "relu8"
  type: RELU
}
layers {
  bottom: "fc8"
  top: "fc8"
  name: "drop8"
  type: DROPOUT
  dropout_param {
    dropout_ratio: 0.5
  }
}
layers {
  bottom: "fc8"
  top: "fc9"
  name: "fc9"
  type: INNER_PRODUCT
  blobs_lr: 1
  blobs_lr: 2
  weight_decay: 1
  weight_decay: 0
  inner_product_param {
    num_output: 24
    weight_filler {
      type: "gaussian"
      std: 0.01
    }
    bias_filler {
      type: "constant"
      value: 0
    }
  }
}
layers {
  bottom: "fc9"
  top: "fc10"
  name: "fc10"
  type: INNER_PRODUCT
  blobs_lr: 1
  blobs_lr: 2
  weight_decay: 1
  weight_decay: 0
  inner_product_param {
    num_output: 2
    weight_filler {
      type: "gaussian"
      std: 0.01
    }
    bias_filler {
      type: "constant"
      value: 0
    }
  }
}
layers {
  bottom: "fc10"
  top: "prob"
  name: "prob"
  type: SOFTMAX
}
input: "data"
input_dim: 10
input_dim: 3
input_dim: 227
input_dim: 227
I0909 13:18:21.657927  2451 net.cpp:292] Input 0 -> data
I0909 13:18:21.657953  2451 net.cpp:66] Creating Layer conv1
I0909 13:18:21.657960  2451 net.cpp:329] conv1 <- data
I0909 13:18:21.657969  2451 net.cpp:290] conv1 -> conv1
I0909 13:18:21.666332  2451 net.cpp:83] Top shape: 10 96 55 55 (2904000)
I0909 13:18:21.666358  2451 net.cpp:125] conv1 needs backward computation.
I0909 13:18:21.666368  2451 net.cpp:66] Creating Layer relu1
I0909 13:18:21.666375  2451 net.cpp:329] relu1 <- conv1
I0909 13:18:21.666383  2451 net.cpp:280] relu1 -> conv1 (in-place)
I0909 13:18:21.666393  2451 net.cpp:83] Top shape: 10 96 55 55 (2904000)
I0909 13:18:21.666399  2451 net.cpp:125] relu1 needs backward computation.
I0909 13:18:21.666406  2451 net.cpp:66] Creating Layer pool1
I0909 13:18:21.666412  2451 net.cpp:329] pool1 <- conv1
I0909 13:18:21.666419  2451 net.cpp:290] pool1 -> pool1
I0909 13:18:21.666430  2451 net.cpp:83] Top shape: 10 96 27 27 (699840)
I0909 13:18:21.666437  2451 net.cpp:125] pool1 needs backward computation.
I0909 13:18:21.666445  2451 net.cpp:66] Creating Layer norm1
I0909 13:18:21.666450  2451 net.cpp:329] norm1 <- pool1
I0909 13:18:21.666457  2451 net.cpp:290] norm1 -> norm1
I0909 13:18:21.666467  2451 net.cpp:83] Top shape: 10 96 27 27 (699840)
I0909 13:18:21.666473  2451 net.cpp:125] norm1 needs backward computation.
I0909 13:18:21.666481  2451 net.cpp:66] Creating Layer conv2
I0909 13:18:21.666488  2451 net.cpp:329] conv2 <- norm1
I0909 13:18:21.666496  2451 net.cpp:290] conv2 -> conv2
I0909 13:18:21.675444  2451 net.cpp:83] Top shape: 10 256 27 27 (1866240)
I0909 13:18:21.675462  2451 net.cpp:125] conv2 needs backward computation.
I0909 13:18:21.675477  2451 net.cpp:66] Creating Layer relu2
I0909 13:18:21.675483  2451 net.cpp:329] relu2 <- conv2
I0909 13:18:21.675490  2451 net.cpp:280] relu2 -> conv2 (in-place)
I0909 13:18:21.675498  2451 net.cpp:83] Top shape: 10 256 27 27 (1866240)
I0909 13:18:21.675504  2451 net.cpp:125] relu2 needs backward computation.
I0909 13:18:21.675511  2451 net.cpp:66] Creating Layer pool2
I0909 13:18:21.675524  2451 net.cpp:329] pool2 <- conv2
I0909 13:18:21.675531  2451 net.cpp:290] pool2 -> pool2
I0909 13:18:21.675540  2451 net.cpp:83] Top shape: 10 256 13 13 (432640)
I0909 13:18:21.675546  2451 net.cpp:125] pool2 needs backward computation.
I0909 13:18:21.675554  2451 net.cpp:66] Creating Layer fc7
I0909 13:18:21.675565  2451 net.cpp:329] fc7 <- pool2
I0909 13:18:21.675573  2451 net.cpp:290] fc7 -> fc7
I0909 13:18:22.313563  2451 net.cpp:83] Top shape: 10 512 1 1 (5120)
I0909 13:18:22.313623  2451 net.cpp:125] fc7 needs backward computation.
I0909 13:18:22.314251  2451 net.cpp:66] Creating Layer relu7
I0909 13:18:22.314292  2451 net.cpp:329] relu7 <- fc7
I0909 13:18:22.314301  2451 net.cpp:280] relu7 -> fc7 (in-place)
I0909 13:18:22.314312  2451 net.cpp:83] Top shape: 10 512 1 1 (5120)
I0909 13:18:22.314319  2451 net.cpp:125] relu7 needs backward computation.
I0909 13:18:22.314327  2451 net.cpp:66] Creating Layer drop7
I0909 13:18:22.314334  2451 net.cpp:329] drop7 <- fc7
I0909 13:18:22.314344  2451 net.cpp:280] drop7 -> fc7 (in-place)
I0909 13:18:22.314357  2451 net.cpp:83] Top shape: 10 512 1 1 (5120)
I0909 13:18:22.314363  2451 net.cpp:125] drop7 needs backward computation.
I0909 13:18:22.314373  2451 net.cpp:66] Creating Layer fc8
I0909 13:18:22.314378  2451 net.cpp:329] fc8 <- fc7
I0909 13:18:22.314388  2451 net.cpp:290] fc8 -> fc8
I0909 13:18:22.322180  2451 net.cpp:83] Top shape: 10 512 1 1 (5120)
I0909 13:18:22.322196  2451 net.cpp:125] fc8 needs backward computation.
I0909 13:18:22.322203  2451 net.cpp:66] Creating Layer relu8
I0909 13:18:22.322209  2451 net.cpp:329] relu8 <- fc8
I0909 13:18:22.322216  2451 net.cpp:280] relu8 -> fc8 (in-place)
I0909 13:18:22.322227  2451 net.cpp:83] Top shape: 10 512 1 1 (5120)
I0909 13:18:22.322232  2451 net.cpp:125] relu8 needs backward computation.
I0909 13:18:22.322239  2451 net.cpp:66] Creating Layer drop8
I0909 13:18:22.322247  2451 net.cpp:329] drop8 <- fc8
I0909 13:18:22.322253  2451 net.cpp:280] drop8 -> fc8 (in-place)
I0909 13:18:22.322260  2451 net.cpp:83] Top shape: 10 512 1 1 (5120)
I0909 13:18:22.322268  2451 net.cpp:125] drop8 needs backward computation.
I0909 13:18:22.322275  2451 net.cpp:66] Creating Layer fc9
I0909 13:18:22.322281  2451 net.cpp:329] fc9 <- fc8
I0909 13:18:22.322290  2451 net.cpp:290] fc9 -> fc9
I0909 13:18:22.322664  2451 net.cpp:83] Top shape: 10 24 1 1 (240)
I0909 13:18:22.322679  2451 net.cpp:125] fc9 needs backward computation.
I0909 13:18:22.322687  2451 net.cpp:66] Creating Layer fc10
I0909 13:18:22.322695  2451 net.cpp:329] fc10 <- fc9
I0909 13:18:22.322701  2451 net.cpp:290] fc10 -> fc10
I0909 13:18:22.322715  2451 net.cpp:83] Top shape: 10 2 1 1 (20)
I0909 13:18:22.322724  2451 net.cpp:125] fc10 needs backward computation.
I0909 13:18:22.322732  2451 net.cpp:66] Creating Layer prob
I0909 13:18:22.322738  2451 net.cpp:329] prob <- fc10
I0909 13:18:22.322746  2451 net.cpp:290] prob -> prob
I0909 13:18:22.322756  2451 net.cpp:83] Top shape: 10 2 1 1 (20)
I0909 13:18:22.322764  2451 net.cpp:125] prob needs backward computation.
I0909 13:18:22.322770  2451 net.cpp:156] This network produces output prob
I0909 13:18:22.322782  2451 net.cpp:402] Collecting Learning Rate and Weight Decay.
I0909 13:18:22.322790  2451 net.cpp:167] Network initialization done.
I0909 13:18:22.322796  2451 net.cpp:168] Memory required for data: 6183480
Classifying 78 inputs.
Done in 48.66 s.
WARNING: Logging before InitGoogleLogging() is written to STDERR
E0909 13:19:16.437808  2525 upgrade_proto.cpp:575] Attempting to upgrade input file specified using deprecated V0LayerParameter: distribute/python/../../senti/model4_boost_deploy.prototxt
I0909 13:19:16.437954  2525 upgrade_proto.cpp:582] Successfully upgraded file specified using deprecated V0LayerParameter
E0909 13:19:16.437964  2525 upgrade_proto.cpp:585] Note that future Caffe releases will not support V0NetParameter; use ./build/tools/upgrade_net_proto_text.bin to upgrade this and any other network proto files to the new format.
I0909 13:19:16.438113  2525 net.cpp:38] Initializing net from parameters: 
layers {
  bottom: "data"
  top: "conv1"
  name: "conv1"
  type: CONVOLUTION
  blobs_lr: 1
  blobs_lr: 2
  weight_decay: 1
  weight_decay: 0
  convolution_param {
    num_output: 96
    kernel_size: 11
    stride: 4
    weight_filler {
      type: "gaussian"
      std: 0.01
    }
    bias_filler {
      type: "constant"
      value: 0
    }
  }
}
layers {
  bottom: "conv1"
  top: "conv1"
  name: "relu1"
  type: RELU
}
layers {
  bottom: "conv1"
  top: "pool1"
  name: "pool1"
  type: POOLING
  pooling_param {
    pool: MAX
    kernel_size: 3
    stride: 2
  }
}
layers {
  bottom: "pool1"
  top: "norm1"
  name: "norm1"
  type: LRN
  lrn_param {
    local_size: 5
    alpha: 0.0001
    beta: 0.75
  }
}
layers {
  bottom: "norm1"
  top: "conv2"
  name: "conv2"
  type: CONVOLUTION
  blobs_lr: 1
  blobs_lr: 2
  weight_decay: 1
  weight_decay: 0
  convolution_param {
    num_output: 256
    pad: 2
    kernel_size: 5
    group: 2
    weight_filler {
      type: "gaussian"
      std: 0.01
    }
    bias_filler {
      type: "constant"
      value: 1
    }
  }
}
layers {
  bottom: "conv2"
  top: "conv2"
  name: "relu2"
  type: RELU
}
layers {
  bottom: "conv2"
  top: "pool2"
  name: "pool2"
  type: POOLING
  pooling_param {
    pool: MAX
    kernel_size: 3
    stride: 2
  }
}
layers {
  bottom: "pool2"
  top: "fc7"
  name: "fc7"
  type: INNER_PRODUCT
  blobs_lr: 1
  blobs_lr: 2
  weight_decay: 1
  weight_decay: 0
  inner_product_param {
    num_output: 512
    weight_filler {
      type: "gaussian"
      std: 0.005
    }
    bias_filler {
      type: "constant"
      value: 1
    }
  }
}
layers {
  bottom: "fc7"
  top: "fc7"
  name: "relu7"
  type: RELU
}
layers {
  bottom: "fc7"
  top: "fc7"
  name: "drop7"
  type: DROPOUT
  dropout_param {
    dropout_ratio: 0.5
  }
}
layers {
  bottom: "fc7"
  top: "fc8"
  name: "fc8"
  type: INNER_PRODUCT
  blobs_lr: 1
  blobs_lr: 2
  weight_decay: 1
  weight_decay: 0
  inner_product_param {
    num_output: 512
    weight_filler {
      type: "gaussian"
      std: 0.005
    }
    bias_filler {
      type: "constant"
      value: 1
    }
  }
}
layers {
  bottom: "fc8"
  top: "fc8"
  name: "relu8"
  type: RELU
}
layers {
  bottom: "fc8"
  top: "fc8"
  name: "drop8"
  type: DROPOUT
  dropout_param {
    dropout_ratio: 0.5
  }
}
layers {
  bottom: "fc8"
  top: "fc9"
  name: "fc9"
  type: INNER_PRODUCT
  blobs_lr: 1
  blobs_lr: 2
  weight_decay: 1
  weight_decay: 0
  inner_product_param {
    num_output: 24
    weight_filler {
      type: "gaussian"
      std: 0.01
    }
    bias_filler {
      type: "constant"
      value: 0
    }
  }
}
layers {
  bottom: "fc9"
  top: "fc10"
  name: "fc10"
  type: INNER_PRODUCT
  blobs_lr: 1
  blobs_lr: 2
  weight_decay: 1
  weight_decay: 0
  inner_product_param {
    num_output: 2
    weight_filler {
      type: "gaussian"
      std: 0.01
    }
    bias_filler {
      type: "constant"
      value: 0
    }
  }
}
layers {
  bottom: "fc10"
  top: "prob"
  name: "prob"
  type: SOFTMAX
}
input: "data"
input_dim: 10
input_dim: 3
input_dim: 227
input_dim: 227
I0909 13:19:16.438175  2525 net.cpp:292] Input 0 -> data
I0909 13:19:16.438202  2525 net.cpp:66] Creating Layer conv1
I0909 13:19:16.438210  2525 net.cpp:329] conv1 <- data
I0909 13:19:16.438218  2525 net.cpp:290] conv1 -> conv1
I0909 13:19:16.439584  2525 net.cpp:83] Top shape: 10 96 55 55 (2904000)
I0909 13:19:16.439602  2525 net.cpp:125] conv1 needs backward computation.
I0909 13:19:16.439612  2525 net.cpp:66] Creating Layer relu1
I0909 13:19:16.439620  2525 net.cpp:329] relu1 <- conv1
I0909 13:19:16.439626  2525 net.cpp:280] relu1 -> conv1 (in-place)
I0909 13:19:16.439636  2525 net.cpp:83] Top shape: 10 96 55 55 (2904000)
I0909 13:19:16.439642  2525 net.cpp:125] relu1 needs backward computation.
I0909 13:19:16.439651  2525 net.cpp:66] Creating Layer pool1
I0909 13:19:16.439656  2525 net.cpp:329] pool1 <- conv1
I0909 13:19:16.439663  2525 net.cpp:290] pool1 -> pool1
I0909 13:19:16.439676  2525 net.cpp:83] Top shape: 10 96 27 27 (699840)
I0909 13:19:16.439682  2525 net.cpp:125] pool1 needs backward computation.
I0909 13:19:16.439689  2525 net.cpp:66] Creating Layer norm1
I0909 13:19:16.439697  2525 net.cpp:329] norm1 <- pool1
I0909 13:19:16.439703  2525 net.cpp:290] norm1 -> norm1
I0909 13:19:16.439714  2525 net.cpp:83] Top shape: 10 96 27 27 (699840)
I0909 13:19:16.439720  2525 net.cpp:125] norm1 needs backward computation.
I0909 13:19:16.439733  2525 net.cpp:66] Creating Layer conv2
I0909 13:19:16.439740  2525 net.cpp:329] conv2 <- norm1
I0909 13:19:16.439749  2525 net.cpp:290] conv2 -> conv2
I0909 13:19:16.448866  2525 net.cpp:83] Top shape: 10 256 27 27 (1866240)
I0909 13:19:16.448884  2525 net.cpp:125] conv2 needs backward computation.
I0909 13:19:16.448892  2525 net.cpp:66] Creating Layer relu2
I0909 13:19:16.448899  2525 net.cpp:329] relu2 <- conv2
I0909 13:19:16.448906  2525 net.cpp:280] relu2 -> conv2 (in-place)
I0909 13:19:16.448915  2525 net.cpp:83] Top shape: 10 256 27 27 (1866240)
I0909 13:19:16.448920  2525 net.cpp:125] relu2 needs backward computation.
I0909 13:19:16.448927  2525 net.cpp:66] Creating Layer pool2
I0909 13:19:16.448933  2525 net.cpp:329] pool2 <- conv2
I0909 13:19:16.448940  2525 net.cpp:290] pool2 -> pool2
I0909 13:19:16.448950  2525 net.cpp:83] Top shape: 10 256 13 13 (432640)
I0909 13:19:16.448956  2525 net.cpp:125] pool2 needs backward computation.
I0909 13:19:16.448963  2525 net.cpp:66] Creating Layer fc7
I0909 13:19:16.448969  2525 net.cpp:329] fc7 <- pool2
I0909 13:19:16.448977  2525 net.cpp:290] fc7 -> fc7
I0909 13:19:17.088624  2525 net.cpp:83] Top shape: 10 512 1 1 (5120)
I0909 13:19:17.088680  2525 net.cpp:125] fc7 needs backward computation.
I0909 13:19:17.088696  2525 net.cpp:66] Creating Layer relu7
I0909 13:19:17.088706  2525 net.cpp:329] relu7 <- fc7
I0909 13:19:17.088714  2525 net.cpp:280] relu7 -> fc7 (in-place)
I0909 13:19:17.088726  2525 net.cpp:83] Top shape: 10 512 1 1 (5120)
I0909 13:19:17.088732  2525 net.cpp:125] relu7 needs backward computation.
I0909 13:19:17.088747  2525 net.cpp:66] Creating Layer drop7
I0909 13:19:17.088753  2525 net.cpp:329] drop7 <- fc7
I0909 13:19:17.088762  2525 net.cpp:280] drop7 -> fc7 (in-place)
I0909 13:19:17.088773  2525 net.cpp:83] Top shape: 10 512 1 1 (5120)
I0909 13:19:17.088780  2525 net.cpp:125] drop7 needs backward computation.
I0909 13:19:17.088789  2525 net.cpp:66] Creating Layer fc8
I0909 13:19:17.088795  2525 net.cpp:329] fc8 <- fc7
I0909 13:19:17.088805  2525 net.cpp:290] fc8 -> fc8
I0909 13:19:17.096597  2525 net.cpp:83] Top shape: 10 512 1 1 (5120)
I0909 13:19:17.096611  2525 net.cpp:125] fc8 needs backward computation.
I0909 13:19:17.096619  2525 net.cpp:66] Creating Layer relu8
I0909 13:19:17.096626  2525 net.cpp:329] relu8 <- fc8
I0909 13:19:17.096632  2525 net.cpp:280] relu8 -> fc8 (in-place)
I0909 13:19:17.096642  2525 net.cpp:83] Top shape: 10 512 1 1 (5120)
I0909 13:19:17.096648  2525 net.cpp:125] relu8 needs backward computation.
I0909 13:19:17.096655  2525 net.cpp:66] Creating Layer drop8
I0909 13:19:17.096662  2525 net.cpp:329] drop8 <- fc8
I0909 13:19:17.096668  2525 net.cpp:280] drop8 -> fc8 (in-place)
I0909 13:19:17.096676  2525 net.cpp:83] Top shape: 10 512 1 1 (5120)
I0909 13:19:17.096683  2525 net.cpp:125] drop8 needs backward computation.
I0909 13:19:17.096690  2525 net.cpp:66] Creating Layer fc9
I0909 13:19:17.096696  2525 net.cpp:329] fc9 <- fc8
I0909 13:19:17.096707  2525 net.cpp:290] fc9 -> fc9
I0909 13:19:17.097081  2525 net.cpp:83] Top shape: 10 24 1 1 (240)
I0909 13:19:17.097095  2525 net.cpp:125] fc9 needs backward computation.
I0909 13:19:17.097105  2525 net.cpp:66] Creating Layer fc10
I0909 13:19:17.097110  2525 net.cpp:329] fc10 <- fc9
I0909 13:19:17.097118  2525 net.cpp:290] fc10 -> fc10
I0909 13:19:17.097131  2525 net.cpp:83] Top shape: 10 2 1 1 (20)
I0909 13:19:17.097141  2525 net.cpp:125] fc10 needs backward computation.
I0909 13:19:17.097148  2525 net.cpp:66] Creating Layer prob
I0909 13:19:17.097154  2525 net.cpp:329] prob <- fc10
I0909 13:19:17.097162  2525 net.cpp:290] prob -> prob
I0909 13:19:17.097172  2525 net.cpp:83] Top shape: 10 2 1 1 (20)
I0909 13:19:17.097179  2525 net.cpp:125] prob needs backward computation.
I0909 13:19:17.097185  2525 net.cpp:156] This network produces output prob
I0909 13:19:17.097196  2525 net.cpp:402] Collecting Learning Rate and Weight Decay.
I0909 13:19:17.097205  2525 net.cpp:167] Network initialization done.
I0909 13:19:17.097211  2525 net.cpp:168] Memory required for data: 6183480
Classifying 238 inputs.
Done in 141.53 s.
WARNING: Logging before InitGoogleLogging() is written to STDERR
E0909 13:21:44.883002  2534 upgrade_proto.cpp:575] Attempting to upgrade input file specified using deprecated V0LayerParameter: distribute/python/../../senti/model4_boost_deploy.prototxt
I0909 13:21:44.883148  2534 upgrade_proto.cpp:582] Successfully upgraded file specified using deprecated V0LayerParameter
E0909 13:21:44.883158  2534 upgrade_proto.cpp:585] Note that future Caffe releases will not support V0NetParameter; use ./build/tools/upgrade_net_proto_text.bin to upgrade this and any other network proto files to the new format.
I0909 13:21:44.883308  2534 net.cpp:38] Initializing net from parameters: 
layers {
  bottom: "data"
  top: "conv1"
  name: "conv1"
  type: CONVOLUTION
  blobs_lr: 1
  blobs_lr: 2
  weight_decay: 1
  weight_decay: 0
  convolution_param {
    num_output: 96
    kernel_size: 11
    stride: 4
    weight_filler {
      type: "gaussian"
      std: 0.01
    }
    bias_filler {
      type: "constant"
      value: 0
    }
  }
}
layers {
  bottom: "conv1"
  top: "conv1"
  name: "relu1"
  type: RELU
}
layers {
  bottom: "conv1"
  top: "pool1"
  name: "pool1"
  type: POOLING
  pooling_param {
    pool: MAX
    kernel_size: 3
    stride: 2
  }
}
layers {
  bottom: "pool1"
  top: "norm1"
  name: "norm1"
  type: LRN
  lrn_param {
    local_size: 5
    alpha: 0.0001
    beta: 0.75
  }
}
layers {
  bottom: "norm1"
  top: "conv2"
  name: "conv2"
  type: CONVOLUTION
  blobs_lr: 1
  blobs_lr: 2
  weight_decay: 1
  weight_decay: 0
  convolution_param {
    num_output: 256
    pad: 2
    kernel_size: 5
    group: 2
    weight_filler {
      type: "gaussian"
      std: 0.01
    }
    bias_filler {
      type: "constant"
      value: 1
    }
  }
}
layers {
  bottom: "conv2"
  top: "conv2"
  name: "relu2"
  type: RELU
}
layers {
  bottom: "conv2"
  top: "pool2"
  name: "pool2"
  type: POOLING
  pooling_param {
    pool: MAX
    kernel_size: 3
    stride: 2
  }
}
layers {
  bottom: "pool2"
  top: "fc7"
  name: "fc7"
  type: INNER_PRODUCT
  blobs_lr: 1
  blobs_lr: 2
  weight_decay: 1
  weight_decay: 0
  inner_product_param {
    num_output: 512
    weight_filler {
      type: "gaussian"
      std: 0.005
    }
    bias_filler {
      type: "constant"
      value: 1
    }
  }
}
layers {
  bottom: "fc7"
  top: "fc7"
  name: "relu7"
  type: RELU
}
layers {
  bottom: "fc7"
  top: "fc7"
  name: "drop7"
  type: DROPOUT
  dropout_param {
    dropout_ratio: 0.5
  }
}
layers {
  bottom: "fc7"
  top: "fc8"
  name: "fc8"
  type: INNER_PRODUCT
  blobs_lr: 1
  blobs_lr: 2
  weight_decay: 1
  weight_decay: 0
  inner_product_param {
    num_output: 512
    weight_filler {
      type: "gaussian"
      std: 0.005
    }
    bias_filler {
      type: "constant"
      value: 1
    }
  }
}
layers {
  bottom: "fc8"
  top: "fc8"
  name: "relu8"
  type: RELU
}
layers {
  bottom: "fc8"
  top: "fc8"
  name: "drop8"
  type: DROPOUT
  dropout_param {
    dropout_ratio: 0.5
  }
}
layers {
  bottom: "fc8"
  top: "fc9"
  name: "fc9"
  type: INNER_PRODUCT
  blobs_lr: 1
  blobs_lr: 2
  weight_decay: 1
  weight_decay: 0
  inner_product_param {
    num_output: 24
    weight_filler {
      type: "gaussian"
      std: 0.01
    }
    bias_filler {
      type: "constant"
      value: 0
    }
  }
}
layers {
  bottom: "fc9"
  top: "fc10"
  name: "fc10"
  type: INNER_PRODUCT
  blobs_lr: 1
  blobs_lr: 2
  weight_decay: 1
  weight_decay: 0
  inner_product_param {
    num_output: 2
    weight_filler {
      type: "gaussian"
      std: 0.01
    }
    bias_filler {
      type: "constant"
      value: 0
    }
  }
}
layers {
  bottom: "fc10"
  top: "prob"
  name: "prob"
  type: SOFTMAX
}
input: "data"
input_dim: 10
input_dim: 3
input_dim: 227
input_dim: 227
I0909 13:21:44.883363  2534 net.cpp:292] Input 0 -> data
I0909 13:21:44.883388  2534 net.cpp:66] Creating Layer conv1
I0909 13:21:44.883396  2534 net.cpp:329] conv1 <- data
I0909 13:21:44.883405  2534 net.cpp:290] conv1 -> conv1
I0909 13:21:44.884770  2534 net.cpp:83] Top shape: 10 96 55 55 (2904000)
I0909 13:21:44.884799  2534 net.cpp:125] conv1 needs backward computation.
I0909 13:21:44.884809  2534 net.cpp:66] Creating Layer relu1
I0909 13:21:44.884816  2534 net.cpp:329] relu1 <- conv1
I0909 13:21:44.884824  2534 net.cpp:280] relu1 -> conv1 (in-place)
I0909 13:21:44.884834  2534 net.cpp:83] Top shape: 10 96 55 55 (2904000)
I0909 13:21:44.884840  2534 net.cpp:125] relu1 needs backward computation.
I0909 13:21:44.884848  2534 net.cpp:66] Creating Layer pool1
I0909 13:21:44.884855  2534 net.cpp:329] pool1 <- conv1
I0909 13:21:44.884861  2534 net.cpp:290] pool1 -> pool1
I0909 13:21:44.884873  2534 net.cpp:83] Top shape: 10 96 27 27 (699840)
I0909 13:21:44.884881  2534 net.cpp:125] pool1 needs backward computation.
I0909 13:21:44.884887  2534 net.cpp:66] Creating Layer norm1
I0909 13:21:44.884893  2534 net.cpp:329] norm1 <- pool1
I0909 13:21:44.884901  2534 net.cpp:290] norm1 -> norm1
I0909 13:21:44.884912  2534 net.cpp:83] Top shape: 10 96 27 27 (699840)
I0909 13:21:44.884918  2534 net.cpp:125] norm1 needs backward computation.
I0909 13:21:44.884927  2534 net.cpp:66] Creating Layer conv2
I0909 13:21:44.884932  2534 net.cpp:329] conv2 <- norm1
I0909 13:21:44.884940  2534 net.cpp:290] conv2 -> conv2
I0909 13:21:44.894093  2534 net.cpp:83] Top shape: 10 256 27 27 (1866240)
I0909 13:21:44.894111  2534 net.cpp:125] conv2 needs backward computation.
I0909 13:21:44.894119  2534 net.cpp:66] Creating Layer relu2
I0909 13:21:44.894126  2534 net.cpp:329] relu2 <- conv2
I0909 13:21:44.894134  2534 net.cpp:280] relu2 -> conv2 (in-place)
I0909 13:21:44.894141  2534 net.cpp:83] Top shape: 10 256 27 27 (1866240)
I0909 13:21:44.894148  2534 net.cpp:125] relu2 needs backward computation.
I0909 13:21:44.894155  2534 net.cpp:66] Creating Layer pool2
I0909 13:21:44.894160  2534 net.cpp:329] pool2 <- conv2
I0909 13:21:44.894168  2534 net.cpp:290] pool2 -> pool2
I0909 13:21:44.894177  2534 net.cpp:83] Top shape: 10 256 13 13 (432640)
I0909 13:21:44.894183  2534 net.cpp:125] pool2 needs backward computation.
I0909 13:21:44.894191  2534 net.cpp:66] Creating Layer fc7
I0909 13:21:44.894197  2534 net.cpp:329] fc7 <- pool2
I0909 13:21:44.894206  2534 net.cpp:290] fc7 -> fc7
I0909 13:21:45.536487  2534 net.cpp:83] Top shape: 10 512 1 1 (5120)
I0909 13:21:45.536536  2534 net.cpp:125] fc7 needs backward computation.
I0909 13:21:45.536550  2534 net.cpp:66] Creating Layer relu7
I0909 13:21:45.536558  2534 net.cpp:329] relu7 <- fc7
I0909 13:21:45.536567  2534 net.cpp:280] relu7 -> fc7 (in-place)
I0909 13:21:45.536577  2534 net.cpp:83] Top shape: 10 512 1 1 (5120)
I0909 13:21:45.536583  2534 net.cpp:125] relu7 needs backward computation.
I0909 13:21:45.536592  2534 net.cpp:66] Creating Layer drop7
I0909 13:21:45.536598  2534 net.cpp:329] drop7 <- fc7
I0909 13:21:45.536607  2534 net.cpp:280] drop7 -> fc7 (in-place)
I0909 13:21:45.536618  2534 net.cpp:83] Top shape: 10 512 1 1 (5120)
I0909 13:21:45.536625  2534 net.cpp:125] drop7 needs backward computation.
I0909 13:21:45.536634  2534 net.cpp:66] Creating Layer fc8
I0909 13:21:45.536640  2534 net.cpp:329] fc8 <- fc7
I0909 13:21:45.536650  2534 net.cpp:290] fc8 -> fc8
I0909 13:21:45.544253  2534 net.cpp:83] Top shape: 10 512 1 1 (5120)
I0909 13:21:45.544267  2534 net.cpp:125] fc8 needs backward computation.
I0909 13:21:45.544275  2534 net.cpp:66] Creating Layer relu8
I0909 13:21:45.544281  2534 net.cpp:329] relu8 <- fc8
I0909 13:21:45.544288  2534 net.cpp:280] relu8 -> fc8 (in-place)
I0909 13:21:45.544297  2534 net.cpp:83] Top shape: 10 512 1 1 (5120)
I0909 13:21:45.544303  2534 net.cpp:125] relu8 needs backward computation.
I0909 13:21:45.544311  2534 net.cpp:66] Creating Layer drop8
I0909 13:21:45.544317  2534 net.cpp:329] drop8 <- fc8
I0909 13:21:45.544323  2534 net.cpp:280] drop8 -> fc8 (in-place)
I0909 13:21:45.544330  2534 net.cpp:83] Top shape: 10 512 1 1 (5120)
I0909 13:21:45.544337  2534 net.cpp:125] drop8 needs backward computation.
I0909 13:21:45.544344  2534 net.cpp:66] Creating Layer fc9
I0909 13:21:45.544350  2534 net.cpp:329] fc9 <- fc8
I0909 13:21:45.544368  2534 net.cpp:290] fc9 -> fc9
I0909 13:21:45.544731  2534 net.cpp:83] Top shape: 10 24 1 1 (240)
I0909 13:21:45.544744  2534 net.cpp:125] fc9 needs backward computation.
I0909 13:21:45.544754  2534 net.cpp:66] Creating Layer fc10
I0909 13:21:45.544759  2534 net.cpp:329] fc10 <- fc9
I0909 13:21:45.544766  2534 net.cpp:290] fc10 -> fc10
I0909 13:21:45.544780  2534 net.cpp:83] Top shape: 10 2 1 1 (20)
I0909 13:21:45.544788  2534 net.cpp:125] fc10 needs backward computation.
I0909 13:21:45.544796  2534 net.cpp:66] Creating Layer prob
I0909 13:21:45.544802  2534 net.cpp:329] prob <- fc10
I0909 13:21:45.544809  2534 net.cpp:290] prob -> prob
I0909 13:21:45.544819  2534 net.cpp:83] Top shape: 10 2 1 1 (20)
I0909 13:21:45.544827  2534 net.cpp:125] prob needs backward computation.
I0909 13:21:45.544832  2534 net.cpp:156] This network produces output prob
I0909 13:21:45.544843  2534 net.cpp:402] Collecting Learning Rate and Weight Decay.
I0909 13:21:45.544852  2534 net.cpp:167] Network initialization done.
I0909 13:21:45.544857  2534 net.cpp:168] Memory required for data: 6183480
Classifying 352 inputs.
Done in 224.69 s.
WARNING: Logging before InitGoogleLogging() is written to STDERR
E0909 13:25:55.701241  2587 upgrade_proto.cpp:575] Attempting to upgrade input file specified using deprecated V0LayerParameter: distribute/python/../../senti/model4_boost_deploy.prototxt
I0909 13:25:55.701416  2587 upgrade_proto.cpp:582] Successfully upgraded file specified using deprecated V0LayerParameter
E0909 13:25:55.701426  2587 upgrade_proto.cpp:585] Note that future Caffe releases will not support V0NetParameter; use ./build/tools/upgrade_net_proto_text.bin to upgrade this and any other network proto files to the new format.
I0909 13:25:55.701606  2587 net.cpp:38] Initializing net from parameters: 
layers {
  bottom: "data"
  top: "conv1"
  name: "conv1"
  type: CONVOLUTION
  blobs_lr: 1
  blobs_lr: 2
  weight_decay: 1
  weight_decay: 0
  convolution_param {
    num_output: 96
    kernel_size: 11
    stride: 4
    weight_filler {
      type: "gaussian"
      std: 0.01
    }
    bias_filler {
      type: "constant"
      value: 0
    }
  }
}
layers {
  bottom: "conv1"
  top: "conv1"
  name: "relu1"
  type: RELU
}
layers {
  bottom: "conv1"
  top: "pool1"
  name: "pool1"
  type: POOLING
  pooling_param {
    pool: MAX
    kernel_size: 3
    stride: 2
  }
}
layers {
  bottom: "pool1"
  top: "norm1"
  name: "norm1"
  type: LRN
  lrn_param {
    local_size: 5
    alpha: 0.0001
    beta: 0.75
  }
}
layers {
  bottom: "norm1"
  top: "conv2"
  name: "conv2"
  type: CONVOLUTION
  blobs_lr: 1
  blobs_lr: 2
  weight_decay: 1
  weight_decay: 0
  convolution_param {
    num_output: 256
    pad: 2
    kernel_size: 5
    group: 2
    weight_filler {
      type: "gaussian"
      std: 0.01
    }
    bias_filler {
      type: "constant"
      value: 1
    }
  }
}
layers {
  bottom: "conv2"
  top: "conv2"
  name: "relu2"
  type: RELU
}
layers {
  bottom: "conv2"
  top: "pool2"
  name: "pool2"
  type: POOLING
  pooling_param {
    pool: MAX
    kernel_size: 3
    stride: 2
  }
}
layers {
  bottom: "pool2"
  top: "fc7"
  name: "fc7"
  type: INNER_PRODUCT
  blobs_lr: 1
  blobs_lr: 2
  weight_decay: 1
  weight_decay: 0
  inner_product_param {
    num_output: 512
    weight_filler {
      type: "gaussian"
      std: 0.005
    }
    bias_filler {
      type: "constant"
      value: 1
    }
  }
}
layers {
  bottom: "fc7"
  top: "fc7"
  name: "relu7"
  type: RELU
}
layers {
  bottom: "fc7"
  top: "fc7"
  name: "drop7"
  type: DROPOUT
  dropout_param {
    dropout_ratio: 0.5
  }
}
layers {
  bottom: "fc7"
  top: "fc8"
  name: "fc8"
  type: INNER_PRODUCT
  blobs_lr: 1
  blobs_lr: 2
  weight_decay: 1
  weight_decay: 0
  inner_product_param {
    num_output: 512
    weight_filler {
      type: "gaussian"
      std: 0.005
    }
    bias_filler {
      type: "constant"
      value: 1
    }
  }
}
layers {
  bottom: "fc8"
  top: "fc8"
  name: "relu8"
  type: RELU
}
layers {
  bottom: "fc8"
  top: "fc8"
  name: "drop8"
  type: DROPOUT
  dropout_param {
    dropout_ratio: 0.5
  }
}
layers {
  bottom: "fc8"
  top: "fc9"
  name: "fc9"
  type: INNER_PRODUCT
  blobs_lr: 1
  blobs_lr: 2
  weight_decay: 1
  weight_decay: 0
  inner_product_param {
    num_output: 24
    weight_filler {
      type: "gaussian"
      std: 0.01
    }
    bias_filler {
      type: "constant"
      value: 0
    }
  }
}
layers {
  bottom: "fc9"
  top: "fc10"
  name: "fc10"
  type: INNER_PRODUCT
  blobs_lr: 1
  blobs_lr: 2
  weight_decay: 1
  weight_decay: 0
  inner_product_param {
    num_output: 2
    weight_filler {
      type: "gaussian"
      std: 0.01
    }
    bias_filler {
      type: "constant"
      value: 0
    }
  }
}
layers {
  bottom: "fc10"
  top: "prob"
  name: "prob"
  type: SOFTMAX
}
input: "data"
input_dim: 10
input_dim: 3
input_dim: 227
input_dim: 227
I0909 13:25:55.701669  2587 net.cpp:292] Input 0 -> data
I0909 13:25:55.701697  2587 net.cpp:66] Creating Layer conv1
I0909 13:25:55.701704  2587 net.cpp:329] conv1 <- data
I0909 13:25:55.701714  2587 net.cpp:290] conv1 -> conv1
I0909 13:25:55.710232  2587 net.cpp:83] Top shape: 10 96 55 55 (2904000)
I0909 13:25:55.710258  2587 net.cpp:125] conv1 needs backward computation.
I0909 13:25:55.710268  2587 net.cpp:66] Creating Layer relu1
I0909 13:25:55.710275  2587 net.cpp:329] relu1 <- conv1
I0909 13:25:55.710283  2587 net.cpp:280] relu1 -> conv1 (in-place)
I0909 13:25:55.710293  2587 net.cpp:83] Top shape: 10 96 55 55 (2904000)
I0909 13:25:55.710299  2587 net.cpp:125] relu1 needs backward computation.
I0909 13:25:55.710306  2587 net.cpp:66] Creating Layer pool1
I0909 13:25:55.710312  2587 net.cpp:329] pool1 <- conv1
I0909 13:25:55.710320  2587 net.cpp:290] pool1 -> pool1
I0909 13:25:55.710331  2587 net.cpp:83] Top shape: 10 96 27 27 (699840)
I0909 13:25:55.710338  2587 net.cpp:125] pool1 needs backward computation.
I0909 13:25:55.710345  2587 net.cpp:66] Creating Layer norm1
I0909 13:25:55.710351  2587 net.cpp:329] norm1 <- pool1
I0909 13:25:55.710360  2587 net.cpp:290] norm1 -> norm1
I0909 13:25:55.710369  2587 net.cpp:83] Top shape: 10 96 27 27 (699840)
I0909 13:25:55.710376  2587 net.cpp:125] norm1 needs backward computation.
I0909 13:25:55.710384  2587 net.cpp:66] Creating Layer conv2
I0909 13:25:55.710391  2587 net.cpp:329] conv2 <- norm1
I0909 13:25:55.710398  2587 net.cpp:290] conv2 -> conv2
I0909 13:25:55.719521  2587 net.cpp:83] Top shape: 10 256 27 27 (1866240)
I0909 13:25:55.719547  2587 net.cpp:125] conv2 needs backward computation.
I0909 13:25:55.719555  2587 net.cpp:66] Creating Layer relu2
I0909 13:25:55.719563  2587 net.cpp:329] relu2 <- conv2
I0909 13:25:55.719570  2587 net.cpp:280] relu2 -> conv2 (in-place)
I0909 13:25:55.719578  2587 net.cpp:83] Top shape: 10 256 27 27 (1866240)
I0909 13:25:55.719593  2587 net.cpp:125] relu2 needs backward computation.
I0909 13:25:55.719599  2587 net.cpp:66] Creating Layer pool2
I0909 13:25:55.719605  2587 net.cpp:329] pool2 <- conv2
I0909 13:25:55.719614  2587 net.cpp:290] pool2 -> pool2
I0909 13:25:55.719621  2587 net.cpp:83] Top shape: 10 256 13 13 (432640)
I0909 13:25:55.719629  2587 net.cpp:125] pool2 needs backward computation.
I0909 13:25:55.719636  2587 net.cpp:66] Creating Layer fc7
I0909 13:25:55.719642  2587 net.cpp:329] fc7 <- pool2
I0909 13:25:55.719650  2587 net.cpp:290] fc7 -> fc7
I0909 13:25:56.361449  2587 net.cpp:83] Top shape: 10 512 1 1 (5120)
I0909 13:25:56.361498  2587 net.cpp:125] fc7 needs backward computation.
I0909 13:25:56.361516  2587 net.cpp:66] Creating Layer relu7
I0909 13:25:56.361526  2587 net.cpp:329] relu7 <- fc7
I0909 13:25:56.361534  2587 net.cpp:280] relu7 -> fc7 (in-place)
I0909 13:25:56.361546  2587 net.cpp:83] Top shape: 10 512 1 1 (5120)
I0909 13:25:56.361552  2587 net.cpp:125] relu7 needs backward computation.
I0909 13:25:56.361559  2587 net.cpp:66] Creating Layer drop7
I0909 13:25:56.361567  2587 net.cpp:329] drop7 <- fc7
I0909 13:25:56.361574  2587 net.cpp:280] drop7 -> fc7 (in-place)
I0909 13:25:56.361587  2587 net.cpp:83] Top shape: 10 512 1 1 (5120)
I0909 13:25:56.361593  2587 net.cpp:125] drop7 needs backward computation.
I0909 13:25:56.361603  2587 net.cpp:66] Creating Layer fc8
I0909 13:25:56.361618  2587 net.cpp:329] fc8 <- fc7
I0909 13:25:56.361631  2587 net.cpp:290] fc8 -> fc8
I0909 13:25:56.369405  2587 net.cpp:83] Top shape: 10 512 1 1 (5120)
I0909 13:25:56.369417  2587 net.cpp:125] fc8 needs backward computation.
I0909 13:25:56.369426  2587 net.cpp:66] Creating Layer relu8
I0909 13:25:56.369431  2587 net.cpp:329] relu8 <- fc8
I0909 13:25:56.369441  2587 net.cpp:280] relu8 -> fc8 (in-place)
I0909 13:25:56.369448  2587 net.cpp:83] Top shape: 10 512 1 1 (5120)
I0909 13:25:56.369454  2587 net.cpp:125] relu8 needs backward computation.
I0909 13:25:56.369462  2587 net.cpp:66] Creating Layer drop8
I0909 13:25:56.369468  2587 net.cpp:329] drop8 <- fc8
I0909 13:25:56.369475  2587 net.cpp:280] drop8 -> fc8 (in-place)
I0909 13:25:56.369482  2587 net.cpp:83] Top shape: 10 512 1 1 (5120)
I0909 13:25:56.369488  2587 net.cpp:125] drop8 needs backward computation.
I0909 13:25:56.369496  2587 net.cpp:66] Creating Layer fc9
I0909 13:25:56.369503  2587 net.cpp:329] fc9 <- fc8
I0909 13:25:56.369519  2587 net.cpp:290] fc9 -> fc9
I0909 13:25:56.369895  2587 net.cpp:83] Top shape: 10 24 1 1 (240)
I0909 13:25:56.369909  2587 net.cpp:125] fc9 needs backward computation.
I0909 13:25:56.369917  2587 net.cpp:66] Creating Layer fc10
I0909 13:25:56.369925  2587 net.cpp:329] fc10 <- fc9
I0909 13:25:56.369932  2587 net.cpp:290] fc10 -> fc10
I0909 13:25:56.369946  2587 net.cpp:83] Top shape: 10 2 1 1 (20)
I0909 13:25:56.369956  2587 net.cpp:125] fc10 needs backward computation.
I0909 13:25:56.369962  2587 net.cpp:66] Creating Layer prob
I0909 13:25:56.369968  2587 net.cpp:329] prob <- fc10
I0909 13:25:56.369977  2587 net.cpp:290] prob -> prob
I0909 13:25:56.369987  2587 net.cpp:83] Top shape: 10 2 1 1 (20)
I0909 13:25:56.369994  2587 net.cpp:125] prob needs backward computation.
I0909 13:25:56.370000  2587 net.cpp:156] This network produces output prob
I0909 13:25:56.370012  2587 net.cpp:402] Collecting Learning Rate and Weight Decay.
I0909 13:25:56.370021  2587 net.cpp:167] Network initialization done.
I0909 13:25:56.370026  2587 net.cpp:168] Memory required for data: 6183480
Classifying 22 inputs.
Done in 14.26 s.
WARNING: Logging before InitGoogleLogging() is written to STDERR
E0909 13:26:14.464550  2626 upgrade_proto.cpp:575] Attempting to upgrade input file specified using deprecated V0LayerParameter: distribute/python/../../senti/model4_boost_deploy.prototxt
I0909 13:26:14.464709  2626 upgrade_proto.cpp:582] Successfully upgraded file specified using deprecated V0LayerParameter
E0909 13:26:14.464720  2626 upgrade_proto.cpp:585] Note that future Caffe releases will not support V0NetParameter; use ./build/tools/upgrade_net_proto_text.bin to upgrade this and any other network proto files to the new format.
I0909 13:26:14.464874  2626 net.cpp:38] Initializing net from parameters: 
layers {
  bottom: "data"
  top: "conv1"
  name: "conv1"
  type: CONVOLUTION
  blobs_lr: 1
  blobs_lr: 2
  weight_decay: 1
  weight_decay: 0
  convolution_param {
    num_output: 96
    kernel_size: 11
    stride: 4
    weight_filler {
      type: "gaussian"
      std: 0.01
    }
    bias_filler {
      type: "constant"
      value: 0
    }
  }
}
layers {
  bottom: "conv1"
  top: "conv1"
  name: "relu1"
  type: RELU
}
layers {
  bottom: "conv1"
  top: "pool1"
  name: "pool1"
  type: POOLING
  pooling_param {
    pool: MAX
    kernel_size: 3
    stride: 2
  }
}
layers {
  bottom: "pool1"
  top: "norm1"
  name: "norm1"
  type: LRN
  lrn_param {
    local_size: 5
    alpha: 0.0001
    beta: 0.75
  }
}
layers {
  bottom: "norm1"
  top: "conv2"
  name: "conv2"
  type: CONVOLUTION
  blobs_lr: 1
  blobs_lr: 2
  weight_decay: 1
  weight_decay: 0
  convolution_param {
    num_output: 256
    pad: 2
    kernel_size: 5
    group: 2
    weight_filler {
      type: "gaussian"
      std: 0.01
    }
    bias_filler {
      type: "constant"
      value: 1
    }
  }
}
layers {
  bottom: "conv2"
  top: "conv2"
  name: "relu2"
  type: RELU
}
layers {
  bottom: "conv2"
  top: "pool2"
  name: "pool2"
  type: POOLING
  pooling_param {
    pool: MAX
    kernel_size: 3
    stride: 2
  }
}
layers {
  bottom: "pool2"
  top: "fc7"
  name: "fc7"
  type: INNER_PRODUCT
  blobs_lr: 1
  blobs_lr: 2
  weight_decay: 1
  weight_decay: 0
  inner_product_param {
    num_output: 512
    weight_filler {
      type: "gaussian"
      std: 0.005
    }
    bias_filler {
      type: "constant"
      value: 1
    }
  }
}
layers {
  bottom: "fc7"
  top: "fc7"
  name: "relu7"
  type: RELU
}
layers {
  bottom: "fc7"
  top: "fc7"
  name: "drop7"
  type: DROPOUT
  dropout_param {
    dropout_ratio: 0.5
  }
}
layers {
  bottom: "fc7"
  top: "fc8"
  name: "fc8"
  type: INNER_PRODUCT
  blobs_lr: 1
  blobs_lr: 2
  weight_decay: 1
  weight_decay: 0
  inner_product_param {
    num_output: 512
    weight_filler {
      type: "gaussian"
      std: 0.005
    }
    bias_filler {
      type: "constant"
      value: 1
    }
  }
}
layers {
  bottom: "fc8"
  top: "fc8"
  name: "relu8"
  type: RELU
}
layers {
  bottom: "fc8"
  top: "fc8"
  name: "drop8"
  type: DROPOUT
  dropout_param {
    dropout_ratio: 0.5
  }
}
layers {
  bottom: "fc8"
  top: "fc9"
  name: "fc9"
  type: INNER_PRODUCT
  blobs_lr: 1
  blobs_lr: 2
  weight_decay: 1
  weight_decay: 0
  inner_product_param {
    num_output: 24
    weight_filler {
      type: "gaussian"
      std: 0.01
    }
    bias_filler {
      type: "constant"
      value: 0
    }
  }
}
layers {
  bottom: "fc9"
  top: "fc10"
  name: "fc10"
  type: INNER_PRODUCT
  blobs_lr: 1
  blobs_lr: 2
  weight_decay: 1
  weight_decay: 0
  inner_product_param {
    num_output: 2
    weight_filler {
      type: "gaussian"
      std: 0.01
    }
    bias_filler {
      type: "constant"
      value: 0
    }
  }
}
layers {
  bottom: "fc10"
  top: "prob"
  name: "prob"
  type: SOFTMAX
}
input: "data"
input_dim: 10
input_dim: 3
input_dim: 227
input_dim: 227
I0909 13:26:14.464937  2626 net.cpp:292] Input 0 -> data
I0909 13:26:14.464967  2626 net.cpp:66] Creating Layer conv1
I0909 13:26:14.464974  2626 net.cpp:329] conv1 <- data
I0909 13:26:14.464983  2626 net.cpp:290] conv1 -> conv1
I0909 13:26:14.466377  2626 net.cpp:83] Top shape: 10 96 55 55 (2904000)
I0909 13:26:14.466398  2626 net.cpp:125] conv1 needs backward computation.
I0909 13:26:14.466408  2626 net.cpp:66] Creating Layer relu1
I0909 13:26:14.466414  2626 net.cpp:329] relu1 <- conv1
I0909 13:26:14.466423  2626 net.cpp:280] relu1 -> conv1 (in-place)
I0909 13:26:14.466431  2626 net.cpp:83] Top shape: 10 96 55 55 (2904000)
I0909 13:26:14.466439  2626 net.cpp:125] relu1 needs backward computation.
I0909 13:26:14.466446  2626 net.cpp:66] Creating Layer pool1
I0909 13:26:14.466452  2626 net.cpp:329] pool1 <- conv1
I0909 13:26:14.466459  2626 net.cpp:290] pool1 -> pool1
I0909 13:26:14.466472  2626 net.cpp:83] Top shape: 10 96 27 27 (699840)
I0909 13:26:14.466480  2626 net.cpp:125] pool1 needs backward computation.
I0909 13:26:14.466486  2626 net.cpp:66] Creating Layer norm1
I0909 13:26:14.466492  2626 net.cpp:329] norm1 <- pool1
I0909 13:26:14.466500  2626 net.cpp:290] norm1 -> norm1
I0909 13:26:14.466511  2626 net.cpp:83] Top shape: 10 96 27 27 (699840)
I0909 13:26:14.466518  2626 net.cpp:125] norm1 needs backward computation.
I0909 13:26:14.466526  2626 net.cpp:66] Creating Layer conv2
I0909 13:26:14.466532  2626 net.cpp:329] conv2 <- norm1
I0909 13:26:14.466541  2626 net.cpp:290] conv2 -> conv2
I0909 13:26:14.475519  2626 net.cpp:83] Top shape: 10 256 27 27 (1866240)
I0909 13:26:14.475540  2626 net.cpp:125] conv2 needs backward computation.
I0909 13:26:14.475556  2626 net.cpp:66] Creating Layer relu2
I0909 13:26:14.475564  2626 net.cpp:329] relu2 <- conv2
I0909 13:26:14.475571  2626 net.cpp:280] relu2 -> conv2 (in-place)
I0909 13:26:14.475579  2626 net.cpp:83] Top shape: 10 256 27 27 (1866240)
I0909 13:26:14.475586  2626 net.cpp:125] relu2 needs backward computation.
I0909 13:26:14.475600  2626 net.cpp:66] Creating Layer pool2
I0909 13:26:14.475606  2626 net.cpp:329] pool2 <- conv2
I0909 13:26:14.475613  2626 net.cpp:290] pool2 -> pool2
I0909 13:26:14.475622  2626 net.cpp:83] Top shape: 10 256 13 13 (432640)
I0909 13:26:14.475636  2626 net.cpp:125] pool2 needs backward computation.
I0909 13:26:14.475643  2626 net.cpp:66] Creating Layer fc7
I0909 13:26:14.475649  2626 net.cpp:329] fc7 <- pool2
I0909 13:26:14.475657  2626 net.cpp:290] fc7 -> fc7
I0909 13:26:15.124037  2626 net.cpp:83] Top shape: 10 512 1 1 (5120)
I0909 13:26:15.124088  2626 net.cpp:125] fc7 needs backward computation.
I0909 13:26:15.124101  2626 net.cpp:66] Creating Layer relu7
I0909 13:26:15.124109  2626 net.cpp:329] relu7 <- fc7
I0909 13:26:15.124119  2626 net.cpp:280] relu7 -> fc7 (in-place)
I0909 13:26:15.124130  2626 net.cpp:83] Top shape: 10 512 1 1 (5120)
I0909 13:26:15.124135  2626 net.cpp:125] relu7 needs backward computation.
I0909 13:26:15.124143  2626 net.cpp:66] Creating Layer drop7
I0909 13:26:15.124150  2626 net.cpp:329] drop7 <- fc7
I0909 13:26:15.124158  2626 net.cpp:280] drop7 -> fc7 (in-place)
I0909 13:26:15.124171  2626 net.cpp:83] Top shape: 10 512 1 1 (5120)
I0909 13:26:15.124177  2626 net.cpp:125] drop7 needs backward computation.
I0909 13:26:15.124186  2626 net.cpp:66] Creating Layer fc8
I0909 13:26:15.124192  2626 net.cpp:329] fc8 <- fc7
I0909 13:26:15.124202  2626 net.cpp:290] fc8 -> fc8
I0909 13:26:15.132019  2626 net.cpp:83] Top shape: 10 512 1 1 (5120)
I0909 13:26:15.132033  2626 net.cpp:125] fc8 needs backward computation.
I0909 13:26:15.132041  2626 net.cpp:66] Creating Layer relu8
I0909 13:26:15.132047  2626 net.cpp:329] relu8 <- fc8
I0909 13:26:15.132056  2626 net.cpp:280] relu8 -> fc8 (in-place)
I0909 13:26:15.132064  2626 net.cpp:83] Top shape: 10 512 1 1 (5120)
I0909 13:26:15.132071  2626 net.cpp:125] relu8 needs backward computation.
I0909 13:26:15.132077  2626 net.cpp:66] Creating Layer drop8
I0909 13:26:15.132083  2626 net.cpp:329] drop8 <- fc8
I0909 13:26:15.132091  2626 net.cpp:280] drop8 -> fc8 (in-place)
I0909 13:26:15.132097  2626 net.cpp:83] Top shape: 10 512 1 1 (5120)
I0909 13:26:15.132103  2626 net.cpp:125] drop8 needs backward computation.
I0909 13:26:15.132112  2626 net.cpp:66] Creating Layer fc9
I0909 13:26:15.132117  2626 net.cpp:329] fc9 <- fc8
I0909 13:26:15.132127  2626 net.cpp:290] fc9 -> fc9
I0909 13:26:15.132489  2626 net.cpp:83] Top shape: 10 24 1 1 (240)
I0909 13:26:15.132503  2626 net.cpp:125] fc9 needs backward computation.
I0909 13:26:15.132511  2626 net.cpp:66] Creating Layer fc10
I0909 13:26:15.132518  2626 net.cpp:329] fc10 <- fc9
I0909 13:26:15.132525  2626 net.cpp:290] fc10 -> fc10
I0909 13:26:15.132539  2626 net.cpp:83] Top shape: 10 2 1 1 (20)
I0909 13:26:15.132547  2626 net.cpp:125] fc10 needs backward computation.
I0909 13:26:15.132555  2626 net.cpp:66] Creating Layer prob
I0909 13:26:15.132561  2626 net.cpp:329] prob <- fc10
I0909 13:26:15.132570  2626 net.cpp:290] prob -> prob
I0909 13:26:15.132580  2626 net.cpp:83] Top shape: 10 2 1 1 (20)
I0909 13:26:15.132586  2626 net.cpp:125] prob needs backward computation.
I0909 13:26:15.132592  2626 net.cpp:156] This network produces output prob
I0909 13:26:15.132603  2626 net.cpp:402] Collecting Learning Rate and Weight Decay.
I0909 13:26:15.132612  2626 net.cpp:167] Network initialization done.
I0909 13:26:15.132617  2626 net.cpp:168] Memory required for data: 6183480
Classifying 302 inputs.
Done in 206.39 s.
WARNING: Logging before InitGoogleLogging() is written to STDERR
E0909 13:30:06.219104  2809 upgrade_proto.cpp:575] Attempting to upgrade input file specified using deprecated V0LayerParameter: distribute/python/../../senti/model4_boost_deploy.prototxt
I0909 13:30:06.219254  2809 upgrade_proto.cpp:582] Successfully upgraded file specified using deprecated V0LayerParameter
E0909 13:30:06.219264  2809 upgrade_proto.cpp:585] Note that future Caffe releases will not support V0NetParameter; use ./build/tools/upgrade_net_proto_text.bin to upgrade this and any other network proto files to the new format.
I0909 13:30:06.220155  2809 net.cpp:38] Initializing net from parameters: 
layers {
  bottom: "data"
  top: "conv1"
  name: "conv1"
  type: CONVOLUTION
  blobs_lr: 1
  blobs_lr: 2
  weight_decay: 1
  weight_decay: 0
  convolution_param {
    num_output: 96
    kernel_size: 11
    stride: 4
    weight_filler {
      type: "gaussian"
      std: 0.01
    }
    bias_filler {
      type: "constant"
      value: 0
    }
  }
}
layers {
  bottom: "conv1"
  top: "conv1"
  name: "relu1"
  type: RELU
}
layers {
  bottom: "conv1"
  top: "pool1"
  name: "pool1"
  type: POOLING
  pooling_param {
    pool: MAX
    kernel_size: 3
    stride: 2
  }
}
layers {
  bottom: "pool1"
  top: "norm1"
  name: "norm1"
  type: LRN
  lrn_param {
    local_size: 5
    alpha: 0.0001
    beta: 0.75
  }
}
layers {
  bottom: "norm1"
  top: "conv2"
  name: "conv2"
  type: CONVOLUTION
  blobs_lr: 1
  blobs_lr: 2
  weight_decay: 1
  weight_decay: 0
  convolution_param {
    num_output: 256
    pad: 2
    kernel_size: 5
    group: 2
    weight_filler {
      type: "gaussian"
      std: 0.01
    }
    bias_filler {
      type: "constant"
      value: 1
    }
  }
}
layers {
  bottom: "conv2"
  top: "conv2"
  name: "relu2"
  type: RELU
}
layers {
  bottom: "conv2"
  top: "pool2"
  name: "pool2"
  type: POOLING
  pooling_param {
    pool: MAX
    kernel_size: 3
    stride: 2
  }
}
layers {
  bottom: "pool2"
  top: "fc7"
  name: "fc7"
  type: INNER_PRODUCT
  blobs_lr: 1
  blobs_lr: 2
  weight_decay: 1
  weight_decay: 0
  inner_product_param {
    num_output: 512
    weight_filler {
      type: "gaussian"
      std: 0.005
    }
    bias_filler {
      type: "constant"
      value: 1
    }
  }
}
layers {
  bottom: "fc7"
  top: "fc7"
  name: "relu7"
  type: RELU
}
layers {
  bottom: "fc7"
  top: "fc7"
  name: "drop7"
  type: DROPOUT
  dropout_param {
    dropout_ratio: 0.5
  }
}
layers {
  bottom: "fc7"
  top: "fc8"
  name: "fc8"
  type: INNER_PRODUCT
  blobs_lr: 1
  blobs_lr: 2
  weight_decay: 1
  weight_decay: 0
  inner_product_param {
    num_output: 512
    weight_filler {
      type: "gaussian"
      std: 0.005
    }
    bias_filler {
      type: "constant"
      value: 1
    }
  }
}
layers {
  bottom: "fc8"
  top: "fc8"
  name: "relu8"
  type: RELU
}
layers {
  bottom: "fc8"
  top: "fc8"
  name: "drop8"
  type: DROPOUT
  dropout_param {
    dropout_ratio: 0.5
  }
}
layers {
  bottom: "fc8"
  top: "fc9"
  name: "fc9"
  type: INNER_PRODUCT
  blobs_lr: 1
  blobs_lr: 2
  weight_decay: 1
  weight_decay: 0
  inner_product_param {
    num_output: 24
    weight_filler {
      type: "gaussian"
      std: 0.01
    }
    bias_filler {
      type: "constant"
      value: 0
    }
  }
}
layers {
  bottom: "fc9"
  top: "fc10"
  name: "fc10"
  type: INNER_PRODUCT
  blobs_lr: 1
  blobs_lr: 2
  weight_decay: 1
  weight_decay: 0
  inner_product_param {
    num_output: 2
    weight_filler {
      type: "gaussian"
      std: 0.01
    }
    bias_filler {
      type: "constant"
      value: 0
    }
  }
}
layers {
  bottom: "fc10"
  top: "prob"
  name: "prob"
  type: SOFTMAX
}
input: "data"
input_dim: 10
input_dim: 3
input_dim: 227
input_dim: 227
I0909 13:30:06.224982  2809 net.cpp:292] Input 0 -> data
I0909 13:30:06.225015  2809 net.cpp:66] Creating Layer conv1
I0909 13:30:06.225023  2809 net.cpp:329] conv1 <- data
I0909 13:30:06.225033  2809 net.cpp:290] conv1 -> conv1
I0909 13:30:06.236487  2809 net.cpp:83] Top shape: 10 96 55 55 (2904000)
I0909 13:30:06.236515  2809 net.cpp:125] conv1 needs backward computation.
I0909 13:30:06.236526  2809 net.cpp:66] Creating Layer relu1
I0909 13:30:06.236533  2809 net.cpp:329] relu1 <- conv1
I0909 13:30:06.236541  2809 net.cpp:280] relu1 -> conv1 (in-place)
I0909 13:30:06.236552  2809 net.cpp:83] Top shape: 10 96 55 55 (2904000)
I0909 13:30:06.236558  2809 net.cpp:125] relu1 needs backward computation.
I0909 13:30:06.236565  2809 net.cpp:66] Creating Layer pool1
I0909 13:30:06.236572  2809 net.cpp:329] pool1 <- conv1
I0909 13:30:06.236579  2809 net.cpp:290] pool1 -> pool1
I0909 13:30:06.236593  2809 net.cpp:83] Top shape: 10 96 27 27 (699840)
I0909 13:30:06.236598  2809 net.cpp:125] pool1 needs backward computation.
I0909 13:30:06.236606  2809 net.cpp:66] Creating Layer norm1
I0909 13:30:06.236613  2809 net.cpp:329] norm1 <- pool1
I0909 13:30:06.236620  2809 net.cpp:290] norm1 -> norm1
I0909 13:30:06.236636  2809 net.cpp:83] Top shape: 10 96 27 27 (699840)
I0909 13:30:06.236644  2809 net.cpp:125] norm1 needs backward computation.
I0909 13:30:06.236651  2809 net.cpp:66] Creating Layer conv2
I0909 13:30:06.236659  2809 net.cpp:329] conv2 <- norm1
I0909 13:30:06.236666  2809 net.cpp:290] conv2 -> conv2
I0909 13:30:06.245854  2809 net.cpp:83] Top shape: 10 256 27 27 (1866240)
I0909 13:30:06.245872  2809 net.cpp:125] conv2 needs backward computation.
I0909 13:30:06.245880  2809 net.cpp:66] Creating Layer relu2
I0909 13:30:06.245887  2809 net.cpp:329] relu2 <- conv2
I0909 13:30:06.245894  2809 net.cpp:280] relu2 -> conv2 (in-place)
I0909 13:30:06.245903  2809 net.cpp:83] Top shape: 10 256 27 27 (1866240)
I0909 13:30:06.245908  2809 net.cpp:125] relu2 needs backward computation.
I0909 13:30:06.245916  2809 net.cpp:66] Creating Layer pool2
I0909 13:30:06.245923  2809 net.cpp:329] pool2 <- conv2
I0909 13:30:06.245929  2809 net.cpp:290] pool2 -> pool2
I0909 13:30:06.245939  2809 net.cpp:83] Top shape: 10 256 13 13 (432640)
I0909 13:30:06.245945  2809 net.cpp:125] pool2 needs backward computation.
I0909 13:30:06.245952  2809 net.cpp:66] Creating Layer fc7
I0909 13:30:06.245959  2809 net.cpp:329] fc7 <- pool2
I0909 13:30:06.245967  2809 net.cpp:290] fc7 -> fc7
I0909 13:30:06.884528  2809 net.cpp:83] Top shape: 10 512 1 1 (5120)
I0909 13:30:06.884577  2809 net.cpp:125] fc7 needs backward computation.
I0909 13:30:06.884591  2809 net.cpp:66] Creating Layer relu7
I0909 13:30:06.884598  2809 net.cpp:329] relu7 <- fc7
I0909 13:30:06.884608  2809 net.cpp:280] relu7 -> fc7 (in-place)
I0909 13:30:06.884619  2809 net.cpp:83] Top shape: 10 512 1 1 (5120)
I0909 13:30:06.884626  2809 net.cpp:125] relu7 needs backward computation.
I0909 13:30:06.884634  2809 net.cpp:66] Creating Layer drop7
I0909 13:30:06.884640  2809 net.cpp:329] drop7 <- fc7
I0909 13:30:06.884649  2809 net.cpp:280] drop7 -> fc7 (in-place)
I0909 13:30:06.884661  2809 net.cpp:83] Top shape: 10 512 1 1 (5120)
I0909 13:30:06.884668  2809 net.cpp:125] drop7 needs backward computation.
I0909 13:30:06.884677  2809 net.cpp:66] Creating Layer fc8
I0909 13:30:06.884685  2809 net.cpp:329] fc8 <- fc7
I0909 13:30:06.884695  2809 net.cpp:290] fc8 -> fc8
I0909 13:30:06.892477  2809 net.cpp:83] Top shape: 10 512 1 1 (5120)
I0909 13:30:06.892491  2809 net.cpp:125] fc8 needs backward computation.
I0909 13:30:06.892499  2809 net.cpp:66] Creating Layer relu8
I0909 13:30:06.892505  2809 net.cpp:329] relu8 <- fc8
I0909 13:30:06.892513  2809 net.cpp:280] relu8 -> fc8 (in-place)
I0909 13:30:06.892523  2809 net.cpp:83] Top shape: 10 512 1 1 (5120)
I0909 13:30:06.892529  2809 net.cpp:125] relu8 needs backward computation.
I0909 13:30:06.892536  2809 net.cpp:66] Creating Layer drop8
I0909 13:30:06.892542  2809 net.cpp:329] drop8 <- fc8
I0909 13:30:06.892550  2809 net.cpp:280] drop8 -> fc8 (in-place)
I0909 13:30:06.892557  2809 net.cpp:83] Top shape: 10 512 1 1 (5120)
I0909 13:30:06.892565  2809 net.cpp:125] drop8 needs backward computation.
I0909 13:30:06.892572  2809 net.cpp:66] Creating Layer fc9
I0909 13:30:06.892580  2809 net.cpp:329] fc9 <- fc8
I0909 13:30:06.892588  2809 net.cpp:290] fc9 -> fc9
I0909 13:30:06.892962  2809 net.cpp:83] Top shape: 10 24 1 1 (240)
I0909 13:30:06.892976  2809 net.cpp:125] fc9 needs backward computation.
I0909 13:30:06.892984  2809 net.cpp:66] Creating Layer fc10
I0909 13:30:06.892992  2809 net.cpp:329] fc10 <- fc9
I0909 13:30:06.892999  2809 net.cpp:290] fc10 -> fc10
I0909 13:30:06.893013  2809 net.cpp:83] Top shape: 10 2 1 1 (20)
I0909 13:30:06.893021  2809 net.cpp:125] fc10 needs backward computation.
I0909 13:30:06.893029  2809 net.cpp:66] Creating Layer prob
I0909 13:30:06.893035  2809 net.cpp:329] prob <- fc10
I0909 13:30:06.893043  2809 net.cpp:290] prob -> prob
I0909 13:30:06.893054  2809 net.cpp:83] Top shape: 10 2 1 1 (20)
I0909 13:30:06.893061  2809 net.cpp:125] prob needs backward computation.
I0909 13:30:06.893067  2809 net.cpp:156] This network produces output prob
I0909 13:30:06.893079  2809 net.cpp:402] Collecting Learning Rate and Weight Decay.
I0909 13:30:06.893100  2809 net.cpp:167] Network initialization done.
I0909 13:30:06.893105  2809 net.cpp:168] Memory required for data: 6183480
Classifying 16 inputs.
Done in 9.88 s.
WARNING: Logging before InitGoogleLogging() is written to STDERR
E0909 13:30:19.063524  2817 upgrade_proto.cpp:575] Attempting to upgrade input file specified using deprecated V0LayerParameter: distribute/python/../../senti/model4_boost_deploy.prototxt
I0909 13:30:19.063680  2817 upgrade_proto.cpp:582] Successfully upgraded file specified using deprecated V0LayerParameter
E0909 13:30:19.063691  2817 upgrade_proto.cpp:585] Note that future Caffe releases will not support V0NetParameter; use ./build/tools/upgrade_net_proto_text.bin to upgrade this and any other network proto files to the new format.
I0909 13:30:19.063840  2817 net.cpp:38] Initializing net from parameters: 
layers {
  bottom: "data"
  top: "conv1"
  name: "conv1"
  type: CONVOLUTION
  blobs_lr: 1
  blobs_lr: 2
  weight_decay: 1
  weight_decay: 0
  convolution_param {
    num_output: 96
    kernel_size: 11
    stride: 4
    weight_filler {
      type: "gaussian"
      std: 0.01
    }
    bias_filler {
      type: "constant"
      value: 0
    }
  }
}
layers {
  bottom: "conv1"
  top: "conv1"
  name: "relu1"
  type: RELU
}
layers {
  bottom: "conv1"
  top: "pool1"
  name: "pool1"
  type: POOLING
  pooling_param {
    pool: MAX
    kernel_size: 3
    stride: 2
  }
}
layers {
  bottom: "pool1"
  top: "norm1"
  name: "norm1"
  type: LRN
  lrn_param {
    local_size: 5
    alpha: 0.0001
    beta: 0.75
  }
}
layers {
  bottom: "norm1"
  top: "conv2"
  name: "conv2"
  type: CONVOLUTION
  blobs_lr: 1
  blobs_lr: 2
  weight_decay: 1
  weight_decay: 0
  convolution_param {
    num_output: 256
    pad: 2
    kernel_size: 5
    group: 2
    weight_filler {
      type: "gaussian"
      std: 0.01
    }
    bias_filler {
      type: "constant"
      value: 1
    }
  }
}
layers {
  bottom: "conv2"
  top: "conv2"
  name: "relu2"
  type: RELU
}
layers {
  bottom: "conv2"
  top: "pool2"
  name: "pool2"
  type: POOLING
  pooling_param {
    pool: MAX
    kernel_size: 3
    stride: 2
  }
}
layers {
  bottom: "pool2"
  top: "fc7"
  name: "fc7"
  type: INNER_PRODUCT
  blobs_lr: 1
  blobs_lr: 2
  weight_decay: 1
  weight_decay: 0
  inner_product_param {
    num_output: 512
    weight_filler {
      type: "gaussian"
      std: 0.005
    }
    bias_filler {
      type: "constant"
      value: 1
    }
  }
}
layers {
  bottom: "fc7"
  top: "fc7"
  name: "relu7"
  type: RELU
}
layers {
  bottom: "fc7"
  top: "fc7"
  name: "drop7"
  type: DROPOUT
  dropout_param {
    dropout_ratio: 0.5
  }
}
layers {
  bottom: "fc7"
  top: "fc8"
  name: "fc8"
  type: INNER_PRODUCT
  blobs_lr: 1
  blobs_lr: 2
  weight_decay: 1
  weight_decay: 0
  inner_product_param {
    num_output: 512
    weight_filler {
      type: "gaussian"
      std: 0.005
    }
    bias_filler {
      type: "constant"
      value: 1
    }
  }
}
layers {
  bottom: "fc8"
  top: "fc8"
  name: "relu8"
  type: RELU
}
layers {
  bottom: "fc8"
  top: "fc8"
  name: "drop8"
  type: DROPOUT
  dropout_param {
    dropout_ratio: 0.5
  }
}
layers {
  bottom: "fc8"
  top: "fc9"
  name: "fc9"
  type: INNER_PRODUCT
  blobs_lr: 1
  blobs_lr: 2
  weight_decay: 1
  weight_decay: 0
  inner_product_param {
    num_output: 24
    weight_filler {
      type: "gaussian"
      std: 0.01
    }
    bias_filler {
      type: "constant"
      value: 0
    }
  }
}
layers {
  bottom: "fc9"
  top: "fc10"
  name: "fc10"
  type: INNER_PRODUCT
  blobs_lr: 1
  blobs_lr: 2
  weight_decay: 1
  weight_decay: 0
  inner_product_param {
    num_output: 2
    weight_filler {
      type: "gaussian"
      std: 0.01
    }
    bias_filler {
      type: "constant"
      value: 0
    }
  }
}
layers {
  bottom: "fc10"
  top: "prob"
  name: "prob"
  type: SOFTMAX
}
input: "data"
input_dim: 10
input_dim: 3
input_dim: 227
input_dim: 227
I0909 13:30:19.063894  2817 net.cpp:292] Input 0 -> data
I0909 13:30:19.063920  2817 net.cpp:66] Creating Layer conv1
I0909 13:30:19.063927  2817 net.cpp:329] conv1 <- data
I0909 13:30:19.063946  2817 net.cpp:290] conv1 -> conv1
I0909 13:30:19.065310  2817 net.cpp:83] Top shape: 10 96 55 55 (2904000)
I0909 13:30:19.065330  2817 net.cpp:125] conv1 needs backward computation.
I0909 13:30:19.065340  2817 net.cpp:66] Creating Layer relu1
I0909 13:30:19.065346  2817 net.cpp:329] relu1 <- conv1
I0909 13:30:19.065353  2817 net.cpp:280] relu1 -> conv1 (in-place)
I0909 13:30:19.065363  2817 net.cpp:83] Top shape: 10 96 55 55 (2904000)
I0909 13:30:19.065369  2817 net.cpp:125] relu1 needs backward computation.
I0909 13:30:19.065377  2817 net.cpp:66] Creating Layer pool1
I0909 13:30:19.065383  2817 net.cpp:329] pool1 <- conv1
I0909 13:30:19.065390  2817 net.cpp:290] pool1 -> pool1
I0909 13:30:19.065402  2817 net.cpp:83] Top shape: 10 96 27 27 (699840)
I0909 13:30:19.065409  2817 net.cpp:125] pool1 needs backward computation.
I0909 13:30:19.065417  2817 net.cpp:66] Creating Layer norm1
I0909 13:30:19.065423  2817 net.cpp:329] norm1 <- pool1
I0909 13:30:19.065430  2817 net.cpp:290] norm1 -> norm1
I0909 13:30:19.065441  2817 net.cpp:83] Top shape: 10 96 27 27 (699840)
I0909 13:30:19.065448  2817 net.cpp:125] norm1 needs backward computation.
I0909 13:30:19.065456  2817 net.cpp:66] Creating Layer conv2
I0909 13:30:19.065462  2817 net.cpp:329] conv2 <- norm1
I0909 13:30:19.065470  2817 net.cpp:290] conv2 -> conv2
I0909 13:30:19.074924  2817 net.cpp:83] Top shape: 10 256 27 27 (1866240)
I0909 13:30:19.074944  2817 net.cpp:125] conv2 needs backward computation.
I0909 13:30:19.074952  2817 net.cpp:66] Creating Layer relu2
I0909 13:30:19.074959  2817 net.cpp:329] relu2 <- conv2
I0909 13:30:19.074966  2817 net.cpp:280] relu2 -> conv2 (in-place)
I0909 13:30:19.074975  2817 net.cpp:83] Top shape: 10 256 27 27 (1866240)
I0909 13:30:19.074981  2817 net.cpp:125] relu2 needs backward computation.
I0909 13:30:19.074988  2817 net.cpp:66] Creating Layer pool2
I0909 13:30:19.074995  2817 net.cpp:329] pool2 <- conv2
I0909 13:30:19.075001  2817 net.cpp:290] pool2 -> pool2
I0909 13:30:19.075011  2817 net.cpp:83] Top shape: 10 256 13 13 (432640)
I0909 13:30:19.075016  2817 net.cpp:125] pool2 needs backward computation.
I0909 13:30:19.075024  2817 net.cpp:66] Creating Layer fc7
I0909 13:30:19.075031  2817 net.cpp:329] fc7 <- pool2
I0909 13:30:19.075038  2817 net.cpp:290] fc7 -> fc7
I0909 13:30:19.715070  2817 net.cpp:83] Top shape: 10 512 1 1 (5120)
I0909 13:30:19.715119  2817 net.cpp:125] fc7 needs backward computation.
I0909 13:30:19.715133  2817 net.cpp:66] Creating Layer relu7
I0909 13:30:19.715142  2817 net.cpp:329] relu7 <- fc7
I0909 13:30:19.715150  2817 net.cpp:280] relu7 -> fc7 (in-place)
I0909 13:30:19.715160  2817 net.cpp:83] Top shape: 10 512 1 1 (5120)
I0909 13:30:19.715167  2817 net.cpp:125] relu7 needs backward computation.
I0909 13:30:19.715174  2817 net.cpp:66] Creating Layer drop7
I0909 13:30:19.715181  2817 net.cpp:329] drop7 <- fc7
I0909 13:30:19.715189  2817 net.cpp:280] drop7 -> fc7 (in-place)
I0909 13:30:19.715201  2817 net.cpp:83] Top shape: 10 512 1 1 (5120)
I0909 13:30:19.715209  2817 net.cpp:125] drop7 needs backward computation.
I0909 13:30:19.715217  2817 net.cpp:66] Creating Layer fc8
I0909 13:30:19.715224  2817 net.cpp:329] fc8 <- fc7
I0909 13:30:19.715234  2817 net.cpp:290] fc8 -> fc8
I0909 13:30:19.723017  2817 net.cpp:83] Top shape: 10 512 1 1 (5120)
I0909 13:30:19.723031  2817 net.cpp:125] fc8 needs backward computation.
I0909 13:30:19.723039  2817 net.cpp:66] Creating Layer relu8
I0909 13:30:19.723045  2817 net.cpp:329] relu8 <- fc8
I0909 13:30:19.723054  2817 net.cpp:280] relu8 -> fc8 (in-place)
I0909 13:30:19.723062  2817 net.cpp:83] Top shape: 10 512 1 1 (5120)
I0909 13:30:19.723068  2817 net.cpp:125] relu8 needs backward computation.
I0909 13:30:19.723075  2817 net.cpp:66] Creating Layer drop8
I0909 13:30:19.723083  2817 net.cpp:329] drop8 <- fc8
I0909 13:30:19.723089  2817 net.cpp:280] drop8 -> fc8 (in-place)
I0909 13:30:19.723096  2817 net.cpp:83] Top shape: 10 512 1 1 (5120)
I0909 13:30:19.723104  2817 net.cpp:125] drop8 needs backward computation.
I0909 13:30:19.723111  2817 net.cpp:66] Creating Layer fc9
I0909 13:30:19.723129  2817 net.cpp:329] fc9 <- fc8
I0909 13:30:19.723139  2817 net.cpp:290] fc9 -> fc9
I0909 13:30:19.723515  2817 net.cpp:83] Top shape: 10 24 1 1 (240)
I0909 13:30:19.723527  2817 net.cpp:125] fc9 needs backward computation.
I0909 13:30:19.723536  2817 net.cpp:66] Creating Layer fc10
I0909 13:30:19.723543  2817 net.cpp:329] fc10 <- fc9
I0909 13:30:19.723551  2817 net.cpp:290] fc10 -> fc10
I0909 13:30:19.723564  2817 net.cpp:83] Top shape: 10 2 1 1 (20)
I0909 13:30:19.723573  2817 net.cpp:125] fc10 needs backward computation.
I0909 13:30:19.723582  2817 net.cpp:66] Creating Layer prob
I0909 13:30:19.723587  2817 net.cpp:329] prob <- fc10
I0909 13:30:19.723595  2817 net.cpp:290] prob -> prob
I0909 13:30:19.723605  2817 net.cpp:83] Top shape: 10 2 1 1 (20)
I0909 13:30:19.723613  2817 net.cpp:125] prob needs backward computation.
I0909 13:30:19.723618  2817 net.cpp:156] This network produces output prob
I0909 13:30:19.723630  2817 net.cpp:402] Collecting Learning Rate and Weight Decay.
I0909 13:30:19.723639  2817 net.cpp:167] Network initialization done.
I0909 13:30:19.723644  2817 net.cpp:168] Memory required for data: 6183480
Classifying 292 inputs.
Done in 177.00 s.
WARNING: Logging before InitGoogleLogging() is written to STDERR
E0909 13:33:23.965443  3081 upgrade_proto.cpp:575] Attempting to upgrade input file specified using deprecated V0LayerParameter: distribute/python/../../senti/model4_boost_deploy.prototxt
I0909 13:33:23.965605  3081 upgrade_proto.cpp:582] Successfully upgraded file specified using deprecated V0LayerParameter
E0909 13:33:23.965617  3081 upgrade_proto.cpp:585] Note that future Caffe releases will not support V0NetParameter; use ./build/tools/upgrade_net_proto_text.bin to upgrade this and any other network proto files to the new format.
I0909 13:33:23.965766  3081 net.cpp:38] Initializing net from parameters: 
layers {
  bottom: "data"
  top: "conv1"
  name: "conv1"
  type: CONVOLUTION
  blobs_lr: 1
  blobs_lr: 2
  weight_decay: 1
  weight_decay: 0
  convolution_param {
    num_output: 96
    kernel_size: 11
    stride: 4
    weight_filler {
      type: "gaussian"
      std: 0.01
    }
    bias_filler {
      type: "constant"
      value: 0
    }
  }
}
layers {
  bottom: "conv1"
  top: "conv1"
  name: "relu1"
  type: RELU
}
layers {
  bottom: "conv1"
  top: "pool1"
  name: "pool1"
  type: POOLING
  pooling_param {
    pool: MAX
    kernel_size: 3
    stride: 2
  }
}
layers {
  bottom: "pool1"
  top: "norm1"
  name: "norm1"
  type: LRN
  lrn_param {
    local_size: 5
    alpha: 0.0001
    beta: 0.75
  }
}
layers {
  bottom: "norm1"
  top: "conv2"
  name: "conv2"
  type: CONVOLUTION
  blobs_lr: 1
  blobs_lr: 2
  weight_decay: 1
  weight_decay: 0
  convolution_param {
    num_output: 256
    pad: 2
    kernel_size: 5
    group: 2
    weight_filler {
      type: "gaussian"
      std: 0.01
    }
    bias_filler {
      type: "constant"
      value: 1
    }
  }
}
layers {
  bottom: "conv2"
  top: "conv2"
  name: "relu2"
  type: RELU
}
layers {
  bottom: "conv2"
  top: "pool2"
  name: "pool2"
  type: POOLING
  pooling_param {
    pool: MAX
    kernel_size: 3
    stride: 2
  }
}
layers {
  bottom: "pool2"
  top: "fc7"
  name: "fc7"
  type: INNER_PRODUCT
  blobs_lr: 1
  blobs_lr: 2
  weight_decay: 1
  weight_decay: 0
  inner_product_param {
    num_output: 512
    weight_filler {
      type: "gaussian"
      std: 0.005
    }
    bias_filler {
      type: "constant"
      value: 1
    }
  }
}
layers {
  bottom: "fc7"
  top: "fc7"
  name: "relu7"
  type: RELU
}
layers {
  bottom: "fc7"
  top: "fc7"
  name: "drop7"
  type: DROPOUT
  dropout_param {
    dropout_ratio: 0.5
  }
}
layers {
  bottom: "fc7"
  top: "fc8"
  name: "fc8"
  type: INNER_PRODUCT
  blobs_lr: 1
  blobs_lr: 2
  weight_decay: 1
  weight_decay: 0
  inner_product_param {
    num_output: 512
    weight_filler {
      type: "gaussian"
      std: 0.005
    }
    bias_filler {
      type: "constant"
      value: 1
    }
  }
}
layers {
  bottom: "fc8"
  top: "fc8"
  name: "relu8"
  type: RELU
}
layers {
  bottom: "fc8"
  top: "fc8"
  name: "drop8"
  type: DROPOUT
  dropout_param {
    dropout_ratio: 0.5
  }
}
layers {
  bottom: "fc8"
  top: "fc9"
  name: "fc9"
  type: INNER_PRODUCT
  blobs_lr: 1
  blobs_lr: 2
  weight_decay: 1
  weight_decay: 0
  inner_product_param {
    num_output: 24
    weight_filler {
      type: "gaussian"
      std: 0.01
    }
    bias_filler {
      type: "constant"
      value: 0
    }
  }
}
layers {
  bottom: "fc9"
  top: "fc10"
  name: "fc10"
  type: INNER_PRODUCT
  blobs_lr: 1
  blobs_lr: 2
  weight_decay: 1
  weight_decay: 0
  inner_product_param {
    num_output: 2
    weight_filler {
      type: "gaussian"
      std: 0.01
    }
    bias_filler {
      type: "constant"
      value: 0
    }
  }
}
layers {
  bottom: "fc10"
  top: "prob"
  name: "prob"
  type: SOFTMAX
}
input: "data"
input_dim: 10
input_dim: 3
input_dim: 227
input_dim: 227
I0909 13:33:23.965829  3081 net.cpp:292] Input 0 -> data
I0909 13:33:23.965857  3081 net.cpp:66] Creating Layer conv1
I0909 13:33:23.965865  3081 net.cpp:329] conv1 <- data
I0909 13:33:23.965874  3081 net.cpp:290] conv1 -> conv1
I0909 13:33:23.967238  3081 net.cpp:83] Top shape: 10 96 55 55 (2904000)
I0909 13:33:23.967258  3081 net.cpp:125] conv1 needs backward computation.
I0909 13:33:23.967267  3081 net.cpp:66] Creating Layer relu1
I0909 13:33:23.967274  3081 net.cpp:329] relu1 <- conv1
I0909 13:33:23.967283  3081 net.cpp:280] relu1 -> conv1 (in-place)
I0909 13:33:23.967291  3081 net.cpp:83] Top shape: 10 96 55 55 (2904000)
I0909 13:33:23.967298  3081 net.cpp:125] relu1 needs backward computation.
I0909 13:33:23.967306  3081 net.cpp:66] Creating Layer pool1
I0909 13:33:23.967313  3081 net.cpp:329] pool1 <- conv1
I0909 13:33:23.967319  3081 net.cpp:290] pool1 -> pool1
I0909 13:33:23.967332  3081 net.cpp:83] Top shape: 10 96 27 27 (699840)
I0909 13:33:23.967339  3081 net.cpp:125] pool1 needs backward computation.
I0909 13:33:23.967346  3081 net.cpp:66] Creating Layer norm1
I0909 13:33:23.967352  3081 net.cpp:329] norm1 <- pool1
I0909 13:33:23.967360  3081 net.cpp:290] norm1 -> norm1
I0909 13:33:23.967370  3081 net.cpp:83] Top shape: 10 96 27 27 (699840)
I0909 13:33:23.967377  3081 net.cpp:125] norm1 needs backward computation.
I0909 13:33:23.967386  3081 net.cpp:66] Creating Layer conv2
I0909 13:33:23.967391  3081 net.cpp:329] conv2 <- norm1
I0909 13:33:23.967399  3081 net.cpp:290] conv2 -> conv2
I0909 13:33:23.976337  3081 net.cpp:83] Top shape: 10 256 27 27 (1866240)
I0909 13:33:23.976354  3081 net.cpp:125] conv2 needs backward computation.
I0909 13:33:23.976369  3081 net.cpp:66] Creating Layer relu2
I0909 13:33:23.976377  3081 net.cpp:329] relu2 <- conv2
I0909 13:33:23.976383  3081 net.cpp:280] relu2 -> conv2 (in-place)
I0909 13:33:23.976392  3081 net.cpp:83] Top shape: 10 256 27 27 (1866240)
I0909 13:33:23.976397  3081 net.cpp:125] relu2 needs backward computation.
I0909 13:33:23.976404  3081 net.cpp:66] Creating Layer pool2
I0909 13:33:23.976418  3081 net.cpp:329] pool2 <- conv2
I0909 13:33:23.976424  3081 net.cpp:290] pool2 -> pool2
I0909 13:33:23.976433  3081 net.cpp:83] Top shape: 10 256 13 13 (432640)
I0909 13:33:23.976439  3081 net.cpp:125] pool2 needs backward computation.
I0909 13:33:23.976447  3081 net.cpp:66] Creating Layer fc7
I0909 13:33:23.976454  3081 net.cpp:329] fc7 <- pool2
I0909 13:33:23.976460  3081 net.cpp:290] fc7 -> fc7
I0909 13:33:24.613854  3081 net.cpp:83] Top shape: 10 512 1 1 (5120)
I0909 13:33:24.613911  3081 net.cpp:125] fc7 needs backward computation.
I0909 13:33:24.613927  3081 net.cpp:66] Creating Layer relu7
I0909 13:33:24.613935  3081 net.cpp:329] relu7 <- fc7
I0909 13:33:24.613945  3081 net.cpp:280] relu7 -> fc7 (in-place)
I0909 13:33:24.613955  3081 net.cpp:83] Top shape: 10 512 1 1 (5120)
I0909 13:33:24.613961  3081 net.cpp:125] relu7 needs backward computation.
I0909 13:33:24.613976  3081 net.cpp:66] Creating Layer drop7
I0909 13:33:24.613982  3081 net.cpp:329] drop7 <- fc7
I0909 13:33:24.613991  3081 net.cpp:280] drop7 -> fc7 (in-place)
I0909 13:33:24.614003  3081 net.cpp:83] Top shape: 10 512 1 1 (5120)
I0909 13:33:24.614020  3081 net.cpp:125] drop7 needs backward computation.
I0909 13:33:24.614030  3081 net.cpp:66] Creating Layer fc8
I0909 13:33:24.614037  3081 net.cpp:329] fc8 <- fc7
I0909 13:33:24.614047  3081 net.cpp:290] fc8 -> fc8
I0909 13:33:24.621728  3081 net.cpp:83] Top shape: 10 512 1 1 (5120)
I0909 13:33:24.621742  3081 net.cpp:125] fc8 needs backward computation.
I0909 13:33:24.621749  3081 net.cpp:66] Creating Layer relu8
I0909 13:33:24.621755  3081 net.cpp:329] relu8 <- fc8
I0909 13:33:24.621762  3081 net.cpp:280] relu8 -> fc8 (in-place)
I0909 13:33:24.621773  3081 net.cpp:83] Top shape: 10 512 1 1 (5120)
I0909 13:33:24.621778  3081 net.cpp:125] relu8 needs backward computation.
I0909 13:33:24.621785  3081 net.cpp:66] Creating Layer drop8
I0909 13:33:24.621791  3081 net.cpp:329] drop8 <- fc8
I0909 13:33:24.621798  3081 net.cpp:280] drop8 -> fc8 (in-place)
I0909 13:33:24.621805  3081 net.cpp:83] Top shape: 10 512 1 1 (5120)
I0909 13:33:24.621811  3081 net.cpp:125] drop8 needs backward computation.
I0909 13:33:24.621819  3081 net.cpp:66] Creating Layer fc9
I0909 13:33:24.621825  3081 net.cpp:329] fc9 <- fc8
I0909 13:33:24.621834  3081 net.cpp:290] fc9 -> fc9
I0909 13:33:24.622196  3081 net.cpp:83] Top shape: 10 24 1 1 (240)
I0909 13:33:24.622210  3081 net.cpp:125] fc9 needs backward computation.
I0909 13:33:24.622218  3081 net.cpp:66] Creating Layer fc10
I0909 13:33:24.622225  3081 net.cpp:329] fc10 <- fc9
I0909 13:33:24.622232  3081 net.cpp:290] fc10 -> fc10
I0909 13:33:24.622246  3081 net.cpp:83] Top shape: 10 2 1 1 (20)
I0909 13:33:24.622254  3081 net.cpp:125] fc10 needs backward computation.
I0909 13:33:24.622262  3081 net.cpp:66] Creating Layer prob
I0909 13:33:24.622267  3081 net.cpp:329] prob <- fc10
I0909 13:33:24.622274  3081 net.cpp:290] prob -> prob
I0909 13:33:24.622284  3081 net.cpp:83] Top shape: 10 2 1 1 (20)
I0909 13:33:24.622292  3081 net.cpp:125] prob needs backward computation.
I0909 13:33:24.622298  3081 net.cpp:156] This network produces output prob
I0909 13:33:24.622309  3081 net.cpp:402] Collecting Learning Rate and Weight Decay.
I0909 13:33:24.622318  3081 net.cpp:167] Network initialization done.
I0909 13:33:24.622323  3081 net.cpp:168] Memory required for data: 6183480
Classifying 134 inputs.
Done in 91.00 s.
WARNING: Logging before InitGoogleLogging() is written to STDERR
E0909 13:34:59.094362  3155 upgrade_proto.cpp:575] Attempting to upgrade input file specified using deprecated V0LayerParameter: distribute/python/../../senti/model4_boost_deploy.prototxt
I0909 13:34:59.094509  3155 upgrade_proto.cpp:582] Successfully upgraded file specified using deprecated V0LayerParameter
E0909 13:34:59.094521  3155 upgrade_proto.cpp:585] Note that future Caffe releases will not support V0NetParameter; use ./build/tools/upgrade_net_proto_text.bin to upgrade this and any other network proto files to the new format.
I0909 13:34:59.094668  3155 net.cpp:38] Initializing net from parameters: 
layers {
  bottom: "data"
  top: "conv1"
  name: "conv1"
  type: CONVOLUTION
  blobs_lr: 1
  blobs_lr: 2
  weight_decay: 1
  weight_decay: 0
  convolution_param {
    num_output: 96
    kernel_size: 11
    stride: 4
    weight_filler {
      type: "gaussian"
      std: 0.01
    }
    bias_filler {
      type: "constant"
      value: 0
    }
  }
}
layers {
  bottom: "conv1"
  top: "conv1"
  name: "relu1"
  type: RELU
}
layers {
  bottom: "conv1"
  top: "pool1"
  name: "pool1"
  type: POOLING
  pooling_param {
    pool: MAX
    kernel_size: 3
    stride: 2
  }
}
layers {
  bottom: "pool1"
  top: "norm1"
  name: "norm1"
  type: LRN
  lrn_param {
    local_size: 5
    alpha: 0.0001
    beta: 0.75
  }
}
layers {
  bottom: "norm1"
  top: "conv2"
  name: "conv2"
  type: CONVOLUTION
  blobs_lr: 1
  blobs_lr: 2
  weight_decay: 1
  weight_decay: 0
  convolution_param {
    num_output: 256
    pad: 2
    kernel_size: 5
    group: 2
    weight_filler {
      type: "gaussian"
      std: 0.01
    }
    bias_filler {
      type: "constant"
      value: 1
    }
  }
}
layers {
  bottom: "conv2"
  top: "conv2"
  name: "relu2"
  type: RELU
}
layers {
  bottom: "conv2"
  top: "pool2"
  name: "pool2"
  type: POOLING
  pooling_param {
    pool: MAX
    kernel_size: 3
    stride: 2
  }
}
layers {
  bottom: "pool2"
  top: "fc7"
  name: "fc7"
  type: INNER_PRODUCT
  blobs_lr: 1
  blobs_lr: 2
  weight_decay: 1
  weight_decay: 0
  inner_product_param {
    num_output: 512
    weight_filler {
      type: "gaussian"
      std: 0.005
    }
    bias_filler {
      type: "constant"
      value: 1
    }
  }
}
layers {
  bottom: "fc7"
  top: "fc7"
  name: "relu7"
  type: RELU
}
layers {
  bottom: "fc7"
  top: "fc7"
  name: "drop7"
  type: DROPOUT
  dropout_param {
    dropout_ratio: 0.5
  }
}
layers {
  bottom: "fc7"
  top: "fc8"
  name: "fc8"
  type: INNER_PRODUCT
  blobs_lr: 1
  blobs_lr: 2
  weight_decay: 1
  weight_decay: 0
  inner_product_param {
    num_output: 512
    weight_filler {
      type: "gaussian"
      std: 0.005
    }
    bias_filler {
      type: "constant"
      value: 1
    }
  }
}
layers {
  bottom: "fc8"
  top: "fc8"
  name: "relu8"
  type: RELU
}
layers {
  bottom: "fc8"
  top: "fc8"
  name: "drop8"
  type: DROPOUT
  dropout_param {
    dropout_ratio: 0.5
  }
}
layers {
  bottom: "fc8"
  top: "fc9"
  name: "fc9"
  type: INNER_PRODUCT
  blobs_lr: 1
  blobs_lr: 2
  weight_decay: 1
  weight_decay: 0
  inner_product_param {
    num_output: 24
    weight_filler {
      type: "gaussian"
      std: 0.01
    }
    bias_filler {
      type: "constant"
      value: 0
    }
  }
}
layers {
  bottom: "fc9"
  top: "fc10"
  name: "fc10"
  type: INNER_PRODUCT
  blobs_lr: 1
  blobs_lr: 2
  weight_decay: 1
  weight_decay: 0
  inner_product_param {
    num_output: 2
    weight_filler {
      type: "gaussian"
      std: 0.01
    }
    bias_filler {
      type: "constant"
      value: 0
    }
  }
}
layers {
  bottom: "fc10"
  top: "prob"
  name: "prob"
  type: SOFTMAX
}
input: "data"
input_dim: 10
input_dim: 3
input_dim: 227
input_dim: 227
I0909 13:34:59.094733  3155 net.cpp:292] Input 0 -> data
I0909 13:34:59.094761  3155 net.cpp:66] Creating Layer conv1
I0909 13:34:59.094769  3155 net.cpp:329] conv1 <- data
I0909 13:34:59.094779  3155 net.cpp:290] conv1 -> conv1
I0909 13:34:59.096145  3155 net.cpp:83] Top shape: 10 96 55 55 (2904000)
I0909 13:34:59.096164  3155 net.cpp:125] conv1 needs backward computation.
I0909 13:34:59.096174  3155 net.cpp:66] Creating Layer relu1
I0909 13:34:59.096181  3155 net.cpp:329] relu1 <- conv1
I0909 13:34:59.096189  3155 net.cpp:280] relu1 -> conv1 (in-place)
I0909 13:34:59.096199  3155 net.cpp:83] Top shape: 10 96 55 55 (2904000)
I0909 13:34:59.096204  3155 net.cpp:125] relu1 needs backward computation.
I0909 13:34:59.096212  3155 net.cpp:66] Creating Layer pool1
I0909 13:34:59.096218  3155 net.cpp:329] pool1 <- conv1
I0909 13:34:59.096226  3155 net.cpp:290] pool1 -> pool1
I0909 13:34:59.096237  3155 net.cpp:83] Top shape: 10 96 27 27 (699840)
I0909 13:34:59.096245  3155 net.cpp:125] pool1 needs backward computation.
I0909 13:34:59.096252  3155 net.cpp:66] Creating Layer norm1
I0909 13:34:59.096258  3155 net.cpp:329] norm1 <- pool1
I0909 13:34:59.096266  3155 net.cpp:290] norm1 -> norm1
I0909 13:34:59.096276  3155 net.cpp:83] Top shape: 10 96 27 27 (699840)
I0909 13:34:59.096282  3155 net.cpp:125] norm1 needs backward computation.
I0909 13:34:59.096290  3155 net.cpp:66] Creating Layer conv2
I0909 13:34:59.096297  3155 net.cpp:329] conv2 <- norm1
I0909 13:34:59.096304  3155 net.cpp:290] conv2 -> conv2
I0909 13:34:59.105411  3155 net.cpp:83] Top shape: 10 256 27 27 (1866240)
I0909 13:34:59.105427  3155 net.cpp:125] conv2 needs backward computation.
I0909 13:34:59.105435  3155 net.cpp:66] Creating Layer relu2
I0909 13:34:59.105442  3155 net.cpp:329] relu2 <- conv2
I0909 13:34:59.105449  3155 net.cpp:280] relu2 -> conv2 (in-place)
I0909 13:34:59.105458  3155 net.cpp:83] Top shape: 10 256 27 27 (1866240)
I0909 13:34:59.105463  3155 net.cpp:125] relu2 needs backward computation.
I0909 13:34:59.105470  3155 net.cpp:66] Creating Layer pool2
I0909 13:34:59.105476  3155 net.cpp:329] pool2 <- conv2
I0909 13:34:59.105484  3155 net.cpp:290] pool2 -> pool2
I0909 13:34:59.105497  3155 net.cpp:83] Top shape: 10 256 13 13 (432640)
I0909 13:34:59.105504  3155 net.cpp:125] pool2 needs backward computation.
I0909 13:34:59.105520  3155 net.cpp:66] Creating Layer fc7
I0909 13:34:59.105528  3155 net.cpp:329] fc7 <- pool2
I0909 13:34:59.105537  3155 net.cpp:290] fc7 -> fc7
I0909 13:34:59.744281  3155 net.cpp:83] Top shape: 10 512 1 1 (5120)
I0909 13:34:59.744331  3155 net.cpp:125] fc7 needs backward computation.
I0909 13:34:59.744346  3155 net.cpp:66] Creating Layer relu7
I0909 13:34:59.744354  3155 net.cpp:329] relu7 <- fc7
I0909 13:34:59.744362  3155 net.cpp:280] relu7 -> fc7 (in-place)
I0909 13:34:59.744374  3155 net.cpp:83] Top shape: 10 512 1 1 (5120)
I0909 13:34:59.744380  3155 net.cpp:125] relu7 needs backward computation.
I0909 13:34:59.744388  3155 net.cpp:66] Creating Layer drop7
I0909 13:34:59.744395  3155 net.cpp:329] drop7 <- fc7
I0909 13:34:59.744403  3155 net.cpp:280] drop7 -> fc7 (in-place)
I0909 13:34:59.744415  3155 net.cpp:83] Top shape: 10 512 1 1 (5120)
I0909 13:34:59.744421  3155 net.cpp:125] drop7 needs backward computation.
I0909 13:34:59.744431  3155 net.cpp:66] Creating Layer fc8
I0909 13:34:59.744436  3155 net.cpp:329] fc8 <- fc7
I0909 13:34:59.744446  3155 net.cpp:290] fc8 -> fc8
I0909 13:34:59.752238  3155 net.cpp:83] Top shape: 10 512 1 1 (5120)
I0909 13:34:59.752250  3155 net.cpp:125] fc8 needs backward computation.
I0909 13:34:59.752259  3155 net.cpp:66] Creating Layer relu8
I0909 13:34:59.752264  3155 net.cpp:329] relu8 <- fc8
I0909 13:34:59.752271  3155 net.cpp:280] relu8 -> fc8 (in-place)
I0909 13:34:59.752280  3155 net.cpp:83] Top shape: 10 512 1 1 (5120)
I0909 13:34:59.752287  3155 net.cpp:125] relu8 needs backward computation.
I0909 13:34:59.752295  3155 net.cpp:66] Creating Layer drop8
I0909 13:34:59.752300  3155 net.cpp:329] drop8 <- fc8
I0909 13:34:59.752307  3155 net.cpp:280] drop8 -> fc8 (in-place)
I0909 13:34:59.752315  3155 net.cpp:83] Top shape: 10 512 1 1 (5120)
I0909 13:34:59.752321  3155 net.cpp:125] drop8 needs backward computation.
I0909 13:34:59.752329  3155 net.cpp:66] Creating Layer fc9
I0909 13:34:59.752336  3155 net.cpp:329] fc9 <- fc8
I0909 13:34:59.752344  3155 net.cpp:290] fc9 -> fc9
I0909 13:34:59.752717  3155 net.cpp:83] Top shape: 10 24 1 1 (240)
I0909 13:34:59.752730  3155 net.cpp:125] fc9 needs backward computation.
I0909 13:34:59.752739  3155 net.cpp:66] Creating Layer fc10
I0909 13:34:59.752746  3155 net.cpp:329] fc10 <- fc9
I0909 13:34:59.752753  3155 net.cpp:290] fc10 -> fc10
I0909 13:34:59.752768  3155 net.cpp:83] Top shape: 10 2 1 1 (20)
I0909 13:34:59.752776  3155 net.cpp:125] fc10 needs backward computation.
I0909 13:34:59.752784  3155 net.cpp:66] Creating Layer prob
I0909 13:34:59.752789  3155 net.cpp:329] prob <- fc10
I0909 13:34:59.752796  3155 net.cpp:290] prob -> prob
I0909 13:34:59.752806  3155 net.cpp:83] Top shape: 10 2 1 1 (20)
I0909 13:34:59.752815  3155 net.cpp:125] prob needs backward computation.
I0909 13:34:59.752820  3155 net.cpp:156] This network produces output prob
I0909 13:34:59.752832  3155 net.cpp:402] Collecting Learning Rate and Weight Decay.
I0909 13:34:59.752841  3155 net.cpp:167] Network initialization done.
I0909 13:34:59.752847  3155 net.cpp:168] Memory required for data: 6183480
Classifying 349 inputs.
Done in 216.11 s.
WARNING: Logging before InitGoogleLogging() is written to STDERR
E0909 13:38:46.556599  3223 upgrade_proto.cpp:575] Attempting to upgrade input file specified using deprecated V0LayerParameter: distribute/python/../../senti/model4_boost_deploy.prototxt
I0909 13:38:46.556752  3223 upgrade_proto.cpp:582] Successfully upgraded file specified using deprecated V0LayerParameter
E0909 13:38:46.556762  3223 upgrade_proto.cpp:585] Note that future Caffe releases will not support V0NetParameter; use ./build/tools/upgrade_net_proto_text.bin to upgrade this and any other network proto files to the new format.
I0909 13:38:46.556915  3223 net.cpp:38] Initializing net from parameters: 
layers {
  bottom: "data"
  top: "conv1"
  name: "conv1"
  type: CONVOLUTION
  blobs_lr: 1
  blobs_lr: 2
  weight_decay: 1
  weight_decay: 0
  convolution_param {
    num_output: 96
    kernel_size: 11
    stride: 4
    weight_filler {
      type: "gaussian"
      std: 0.01
    }
    bias_filler {
      type: "constant"
      value: 0
    }
  }
}
layers {
  bottom: "conv1"
  top: "conv1"
  name: "relu1"
  type: RELU
}
layers {
  bottom: "conv1"
  top: "pool1"
  name: "pool1"
  type: POOLING
  pooling_param {
    pool: MAX
    kernel_size: 3
    stride: 2
  }
}
layers {
  bottom: "pool1"
  top: "norm1"
  name: "norm1"
  type: LRN
  lrn_param {
    local_size: 5
    alpha: 0.0001
    beta: 0.75
  }
}
layers {
  bottom: "norm1"
  top: "conv2"
  name: "conv2"
  type: CONVOLUTION
  blobs_lr: 1
  blobs_lr: 2
  weight_decay: 1
  weight_decay: 0
  convolution_param {
    num_output: 256
    pad: 2
    kernel_size: 5
    group: 2
    weight_filler {
      type: "gaussian"
      std: 0.01
    }
    bias_filler {
      type: "constant"
      value: 1
    }
  }
}
layers {
  bottom: "conv2"
  top: "conv2"
  name: "relu2"
  type: RELU
}
layers {
  bottom: "conv2"
  top: "pool2"
  name: "pool2"
  type: POOLING
  pooling_param {
    pool: MAX
    kernel_size: 3
    stride: 2
  }
}
layers {
  bottom: "pool2"
  top: "fc7"
  name: "fc7"
  type: INNER_PRODUCT
  blobs_lr: 1
  blobs_lr: 2
  weight_decay: 1
  weight_decay: 0
  inner_product_param {
    num_output: 512
    weight_filler {
      type: "gaussian"
      std: 0.005
    }
    bias_filler {
      type: "constant"
      value: 1
    }
  }
}
layers {
  bottom: "fc7"
  top: "fc7"
  name: "relu7"
  type: RELU
}
layers {
  bottom: "fc7"
  top: "fc7"
  name: "drop7"
  type: DROPOUT
  dropout_param {
    dropout_ratio: 0.5
  }
}
layers {
  bottom: "fc7"
  top: "fc8"
  name: "fc8"
  type: INNER_PRODUCT
  blobs_lr: 1
  blobs_lr: 2
  weight_decay: 1
  weight_decay: 0
  inner_product_param {
    num_output: 512
    weight_filler {
      type: "gaussian"
      std: 0.005
    }
    bias_filler {
      type: "constant"
      value: 1
    }
  }
}
layers {
  bottom: "fc8"
  top: "fc8"
  name: "relu8"
  type: RELU
}
layers {
  bottom: "fc8"
  top: "fc8"
  name: "drop8"
  type: DROPOUT
  dropout_param {
    dropout_ratio: 0.5
  }
}
layers {
  bottom: "fc8"
  top: "fc9"
  name: "fc9"
  type: INNER_PRODUCT
  blobs_lr: 1
  blobs_lr: 2
  weight_decay: 1
  weight_decay: 0
  inner_product_param {
    num_output: 24
    weight_filler {
      type: "gaussian"
      std: 0.01
    }
    bias_filler {
      type: "constant"
      value: 0
    }
  }
}
layers {
  bottom: "fc9"
  top: "fc10"
  name: "fc10"
  type: INNER_PRODUCT
  blobs_lr: 1
  blobs_lr: 2
  weight_decay: 1
  weight_decay: 0
  inner_product_param {
    num_output: 2
    weight_filler {
      type: "gaussian"
      std: 0.01
    }
    bias_filler {
      type: "constant"
      value: 0
    }
  }
}
layers {
  bottom: "fc10"
  top: "prob"
  name: "prob"
  type: SOFTMAX
}
input: "data"
input_dim: 10
input_dim: 3
input_dim: 227
input_dim: 227
I0909 13:38:46.556979  3223 net.cpp:292] Input 0 -> data
I0909 13:38:46.557008  3223 net.cpp:66] Creating Layer conv1
I0909 13:38:46.557015  3223 net.cpp:329] conv1 <- data
I0909 13:38:46.557024  3223 net.cpp:290] conv1 -> conv1
I0909 13:38:46.558434  3223 net.cpp:83] Top shape: 10 96 55 55 (2904000)
I0909 13:38:46.558454  3223 net.cpp:125] conv1 needs backward computation.
I0909 13:38:46.558464  3223 net.cpp:66] Creating Layer relu1
I0909 13:38:46.558470  3223 net.cpp:329] relu1 <- conv1
I0909 13:38:46.558477  3223 net.cpp:280] relu1 -> conv1 (in-place)
I0909 13:38:46.558487  3223 net.cpp:83] Top shape: 10 96 55 55 (2904000)
I0909 13:38:46.558493  3223 net.cpp:125] relu1 needs backward computation.
I0909 13:38:46.558501  3223 net.cpp:66] Creating Layer pool1
I0909 13:38:46.558507  3223 net.cpp:329] pool1 <- conv1
I0909 13:38:46.558514  3223 net.cpp:290] pool1 -> pool1
I0909 13:38:46.558526  3223 net.cpp:83] Top shape: 10 96 27 27 (699840)
I0909 13:38:46.558533  3223 net.cpp:125] pool1 needs backward computation.
I0909 13:38:46.558540  3223 net.cpp:66] Creating Layer norm1
I0909 13:38:46.558547  3223 net.cpp:329] norm1 <- pool1
I0909 13:38:46.558559  3223 net.cpp:290] norm1 -> norm1
I0909 13:38:46.558572  3223 net.cpp:83] Top shape: 10 96 27 27 (699840)
I0909 13:38:46.558578  3223 net.cpp:125] norm1 needs backward computation.
I0909 13:38:46.558585  3223 net.cpp:66] Creating Layer conv2
I0909 13:38:46.558593  3223 net.cpp:329] conv2 <- norm1
I0909 13:38:46.558600  3223 net.cpp:290] conv2 -> conv2
I0909 13:38:46.567598  3223 net.cpp:83] Top shape: 10 256 27 27 (1866240)
I0909 13:38:46.567615  3223 net.cpp:125] conv2 needs backward computation.
I0909 13:38:46.567631  3223 net.cpp:66] Creating Layer relu2
I0909 13:38:46.567637  3223 net.cpp:329] relu2 <- conv2
I0909 13:38:46.567644  3223 net.cpp:280] relu2 -> conv2 (in-place)
I0909 13:38:46.567652  3223 net.cpp:83] Top shape: 10 256 27 27 (1866240)
I0909 13:38:46.567658  3223 net.cpp:125] relu2 needs backward computation.
I0909 13:38:46.567666  3223 net.cpp:66] Creating Layer pool2
I0909 13:38:46.567678  3223 net.cpp:329] pool2 <- conv2
I0909 13:38:46.567685  3223 net.cpp:290] pool2 -> pool2
I0909 13:38:46.567693  3223 net.cpp:83] Top shape: 10 256 13 13 (432640)
I0909 13:38:46.567699  3223 net.cpp:125] pool2 needs backward computation.
I0909 13:38:46.567708  3223 net.cpp:66] Creating Layer fc7
I0909 13:38:46.567713  3223 net.cpp:329] fc7 <- pool2
I0909 13:38:46.567720  3223 net.cpp:290] fc7 -> fc7
I0909 13:38:47.206105  3223 net.cpp:83] Top shape: 10 512 1 1 (5120)
I0909 13:38:47.206156  3223 net.cpp:125] fc7 needs backward computation.
I0909 13:38:47.206171  3223 net.cpp:66] Creating Layer relu7
I0909 13:38:47.206179  3223 net.cpp:329] relu7 <- fc7
I0909 13:38:47.206188  3223 net.cpp:280] relu7 -> fc7 (in-place)
I0909 13:38:47.206198  3223 net.cpp:83] Top shape: 10 512 1 1 (5120)
I0909 13:38:47.206205  3223 net.cpp:125] relu7 needs backward computation.
I0909 13:38:47.206213  3223 net.cpp:66] Creating Layer drop7
I0909 13:38:47.206219  3223 net.cpp:329] drop7 <- fc7
I0909 13:38:47.206228  3223 net.cpp:280] drop7 -> fc7 (in-place)
I0909 13:38:47.206239  3223 net.cpp:83] Top shape: 10 512 1 1 (5120)
I0909 13:38:47.206246  3223 net.cpp:125] drop7 needs backward computation.
I0909 13:38:47.206255  3223 net.cpp:66] Creating Layer fc8
I0909 13:38:47.206261  3223 net.cpp:329] fc8 <- fc7
I0909 13:38:47.206271  3223 net.cpp:290] fc8 -> fc8
I0909 13:38:47.214061  3223 net.cpp:83] Top shape: 10 512 1 1 (5120)
I0909 13:38:47.214074  3223 net.cpp:125] fc8 needs backward computation.
I0909 13:38:47.214082  3223 net.cpp:66] Creating Layer relu8
I0909 13:38:47.214088  3223 net.cpp:329] relu8 <- fc8
I0909 13:38:47.214095  3223 net.cpp:280] relu8 -> fc8 (in-place)
I0909 13:38:47.214105  3223 net.cpp:83] Top shape: 10 512 1 1 (5120)
I0909 13:38:47.214112  3223 net.cpp:125] relu8 needs backward computation.
I0909 13:38:47.214118  3223 net.cpp:66] Creating Layer drop8
I0909 13:38:47.214124  3223 net.cpp:329] drop8 <- fc8
I0909 13:38:47.214131  3223 net.cpp:280] drop8 -> fc8 (in-place)
I0909 13:38:47.214139  3223 net.cpp:83] Top shape: 10 512 1 1 (5120)
I0909 13:38:47.214145  3223 net.cpp:125] drop8 needs backward computation.
I0909 13:38:47.214154  3223 net.cpp:66] Creating Layer fc9
I0909 13:38:47.214159  3223 net.cpp:329] fc9 <- fc8
I0909 13:38:47.214169  3223 net.cpp:290] fc9 -> fc9
I0909 13:38:47.214545  3223 net.cpp:83] Top shape: 10 24 1 1 (240)
I0909 13:38:47.214558  3223 net.cpp:125] fc9 needs backward computation.
I0909 13:38:47.214567  3223 net.cpp:66] Creating Layer fc10
I0909 13:38:47.214573  3223 net.cpp:329] fc10 <- fc9
I0909 13:38:47.214581  3223 net.cpp:290] fc10 -> fc10
I0909 13:38:47.214596  3223 net.cpp:83] Top shape: 10 2 1 1 (20)
I0909 13:38:47.214604  3223 net.cpp:125] fc10 needs backward computation.
I0909 13:38:47.214612  3223 net.cpp:66] Creating Layer prob
I0909 13:38:47.214617  3223 net.cpp:329] prob <- fc10
I0909 13:38:47.214624  3223 net.cpp:290] prob -> prob
I0909 13:38:47.214634  3223 net.cpp:83] Top shape: 10 2 1 1 (20)
I0909 13:38:47.214643  3223 net.cpp:125] prob needs backward computation.
I0909 13:38:47.214648  3223 net.cpp:156] This network produces output prob
I0909 13:38:47.214670  3223 net.cpp:402] Collecting Learning Rate and Weight Decay.
I0909 13:38:47.214679  3223 net.cpp:167] Network initialization done.
I0909 13:38:47.214684  3223 net.cpp:168] Memory required for data: 6183480
Classifying 367 inputs.
Done in 230.00 s.
WARNING: Logging before InitGoogleLogging() is written to STDERR
E0909 13:42:53.841897  3371 upgrade_proto.cpp:575] Attempting to upgrade input file specified using deprecated V0LayerParameter: distribute/python/../../senti/model4_boost_deploy.prototxt
I0909 13:42:53.842046  3371 upgrade_proto.cpp:582] Successfully upgraded file specified using deprecated V0LayerParameter
E0909 13:42:53.842057  3371 upgrade_proto.cpp:585] Note that future Caffe releases will not support V0NetParameter; use ./build/tools/upgrade_net_proto_text.bin to upgrade this and any other network proto files to the new format.
I0909 13:42:53.842207  3371 net.cpp:38] Initializing net from parameters: 
layers {
  bottom: "data"
  top: "conv1"
  name: "conv1"
  type: CONVOLUTION
  blobs_lr: 1
  blobs_lr: 2
  weight_decay: 1
  weight_decay: 0
  convolution_param {
    num_output: 96
    kernel_size: 11
    stride: 4
    weight_filler {
      type: "gaussian"
      std: 0.01
    }
    bias_filler {
      type: "constant"
      value: 0
    }
  }
}
layers {
  bottom: "conv1"
  top: "conv1"
  name: "relu1"
  type: RELU
}
layers {
  bottom: "conv1"
  top: "pool1"
  name: "pool1"
  type: POOLING
  pooling_param {
    pool: MAX
    kernel_size: 3
    stride: 2
  }
}
layers {
  bottom: "pool1"
  top: "norm1"
  name: "norm1"
  type: LRN
  lrn_param {
    local_size: 5
    alpha: 0.0001
    beta: 0.75
  }
}
layers {
  bottom: "norm1"
  top: "conv2"
  name: "conv2"
  type: CONVOLUTION
  blobs_lr: 1
  blobs_lr: 2
  weight_decay: 1
  weight_decay: 0
  convolution_param {
    num_output: 256
    pad: 2
    kernel_size: 5
    group: 2
    weight_filler {
      type: "gaussian"
      std: 0.01
    }
    bias_filler {
      type: "constant"
      value: 1
    }
  }
}
layers {
  bottom: "conv2"
  top: "conv2"
  name: "relu2"
  type: RELU
}
layers {
  bottom: "conv2"
  top: "pool2"
  name: "pool2"
  type: POOLING
  pooling_param {
    pool: MAX
    kernel_size: 3
    stride: 2
  }
}
layers {
  bottom: "pool2"
  top: "fc7"
  name: "fc7"
  type: INNER_PRODUCT
  blobs_lr: 1
  blobs_lr: 2
  weight_decay: 1
  weight_decay: 0
  inner_product_param {
    num_output: 512
    weight_filler {
      type: "gaussian"
      std: 0.005
    }
    bias_filler {
      type: "constant"
      value: 1
    }
  }
}
layers {
  bottom: "fc7"
  top: "fc7"
  name: "relu7"
  type: RELU
}
layers {
  bottom: "fc7"
  top: "fc7"
  name: "drop7"
  type: DROPOUT
  dropout_param {
    dropout_ratio: 0.5
  }
}
layers {
  bottom: "fc7"
  top: "fc8"
  name: "fc8"
  type: INNER_PRODUCT
  blobs_lr: 1
  blobs_lr: 2
  weight_decay: 1
  weight_decay: 0
  inner_product_param {
    num_output: 512
    weight_filler {
      type: "gaussian"
      std: 0.005
    }
    bias_filler {
      type: "constant"
      value: 1
    }
  }
}
layers {
  bottom: "fc8"
  top: "fc8"
  name: "relu8"
  type: RELU
}
layers {
  bottom: "fc8"
  top: "fc8"
  name: "drop8"
  type: DROPOUT
  dropout_param {
    dropout_ratio: 0.5
  }
}
layers {
  bottom: "fc8"
  top: "fc9"
  name: "fc9"
  type: INNER_PRODUCT
  blobs_lr: 1
  blobs_lr: 2
  weight_decay: 1
  weight_decay: 0
  inner_product_param {
    num_output: 24
    weight_filler {
      type: "gaussian"
      std: 0.01
    }
    bias_filler {
      type: "constant"
      value: 0
    }
  }
}
layers {
  bottom: "fc9"
  top: "fc10"
  name: "fc10"
  type: INNER_PRODUCT
  blobs_lr: 1
  blobs_lr: 2
  weight_decay: 1
  weight_decay: 0
  inner_product_param {
    num_output: 2
    weight_filler {
      type: "gaussian"
      std: 0.01
    }
    bias_filler {
      type: "constant"
      value: 0
    }
  }
}
layers {
  bottom: "fc10"
  top: "prob"
  name: "prob"
  type: SOFTMAX
}
input: "data"
input_dim: 10
input_dim: 3
input_dim: 227
input_dim: 227
I0909 13:42:53.842262  3371 net.cpp:292] Input 0 -> data
I0909 13:42:53.842299  3371 net.cpp:66] Creating Layer conv1
I0909 13:42:53.842308  3371 net.cpp:329] conv1 <- data
I0909 13:42:53.842316  3371 net.cpp:290] conv1 -> conv1
I0909 13:42:53.843683  3371 net.cpp:83] Top shape: 10 96 55 55 (2904000)
I0909 13:42:53.843703  3371 net.cpp:125] conv1 needs backward computation.
I0909 13:42:53.843713  3371 net.cpp:66] Creating Layer relu1
I0909 13:42:53.843720  3371 net.cpp:329] relu1 <- conv1
I0909 13:42:53.843727  3371 net.cpp:280] relu1 -> conv1 (in-place)
I0909 13:42:53.843737  3371 net.cpp:83] Top shape: 10 96 55 55 (2904000)
I0909 13:42:53.843744  3371 net.cpp:125] relu1 needs backward computation.
I0909 13:42:53.843751  3371 net.cpp:66] Creating Layer pool1
I0909 13:42:53.843757  3371 net.cpp:329] pool1 <- conv1
I0909 13:42:53.843765  3371 net.cpp:290] pool1 -> pool1
I0909 13:42:53.843776  3371 net.cpp:83] Top shape: 10 96 27 27 (699840)
I0909 13:42:53.843783  3371 net.cpp:125] pool1 needs backward computation.
I0909 13:42:53.843791  3371 net.cpp:66] Creating Layer norm1
I0909 13:42:53.843797  3371 net.cpp:329] norm1 <- pool1
I0909 13:42:53.843804  3371 net.cpp:290] norm1 -> norm1
I0909 13:42:53.843816  3371 net.cpp:83] Top shape: 10 96 27 27 (699840)
I0909 13:42:53.843822  3371 net.cpp:125] norm1 needs backward computation.
I0909 13:42:53.843829  3371 net.cpp:66] Creating Layer conv2
I0909 13:42:53.843837  3371 net.cpp:329] conv2 <- norm1
I0909 13:42:53.843844  3371 net.cpp:290] conv2 -> conv2
I0909 13:42:53.852880  3371 net.cpp:83] Top shape: 10 256 27 27 (1866240)
I0909 13:42:53.852897  3371 net.cpp:125] conv2 needs backward computation.
I0909 13:42:53.852912  3371 net.cpp:66] Creating Layer relu2
I0909 13:42:53.852920  3371 net.cpp:329] relu2 <- conv2
I0909 13:42:53.852926  3371 net.cpp:280] relu2 -> conv2 (in-place)
I0909 13:42:53.852934  3371 net.cpp:83] Top shape: 10 256 27 27 (1866240)
I0909 13:42:53.852941  3371 net.cpp:125] relu2 needs backward computation.
I0909 13:42:53.852955  3371 net.cpp:66] Creating Layer pool2
I0909 13:42:53.852962  3371 net.cpp:329] pool2 <- conv2
I0909 13:42:53.852968  3371 net.cpp:290] pool2 -> pool2
I0909 13:42:53.852977  3371 net.cpp:83] Top shape: 10 256 13 13 (432640)
I0909 13:42:53.852983  3371 net.cpp:125] pool2 needs backward computation.
I0909 13:42:53.852990  3371 net.cpp:66] Creating Layer fc7
I0909 13:42:53.852996  3371 net.cpp:329] fc7 <- pool2
I0909 13:42:53.853004  3371 net.cpp:290] fc7 -> fc7
I0909 13:42:54.498283  3371 net.cpp:83] Top shape: 10 512 1 1 (5120)
I0909 13:42:54.498337  3371 net.cpp:125] fc7 needs backward computation.
I0909 13:42:54.498353  3371 net.cpp:66] Creating Layer relu7
I0909 13:42:54.498360  3371 net.cpp:329] relu7 <- fc7
I0909 13:42:54.498369  3371 net.cpp:280] relu7 -> fc7 (in-place)
I0909 13:42:54.498380  3371 net.cpp:83] Top shape: 10 512 1 1 (5120)
I0909 13:42:54.498386  3371 net.cpp:125] relu7 needs backward computation.
I0909 13:42:54.498395  3371 net.cpp:66] Creating Layer drop7
I0909 13:42:54.498401  3371 net.cpp:329] drop7 <- fc7
I0909 13:42:54.498409  3371 net.cpp:280] drop7 -> fc7 (in-place)
I0909 13:42:54.498422  3371 net.cpp:83] Top shape: 10 512 1 1 (5120)
I0909 13:42:54.498428  3371 net.cpp:125] drop7 needs backward computation.
I0909 13:42:54.498437  3371 net.cpp:66] Creating Layer fc8
I0909 13:42:54.498443  3371 net.cpp:329] fc8 <- fc7
I0909 13:42:54.498453  3371 net.cpp:290] fc8 -> fc8
I0909 13:42:54.506237  3371 net.cpp:83] Top shape: 10 512 1 1 (5120)
I0909 13:42:54.506252  3371 net.cpp:125] fc8 needs backward computation.
I0909 13:42:54.506259  3371 net.cpp:66] Creating Layer relu8
I0909 13:42:54.506265  3371 net.cpp:329] relu8 <- fc8
I0909 13:42:54.506273  3371 net.cpp:280] relu8 -> fc8 (in-place)
I0909 13:42:54.506283  3371 net.cpp:83] Top shape: 10 512 1 1 (5120)
I0909 13:42:54.506289  3371 net.cpp:125] relu8 needs backward computation.
I0909 13:42:54.506295  3371 net.cpp:66] Creating Layer drop8
I0909 13:42:54.506301  3371 net.cpp:329] drop8 <- fc8
I0909 13:42:54.506309  3371 net.cpp:280] drop8 -> fc8 (in-place)
I0909 13:42:54.506316  3371 net.cpp:83] Top shape: 10 512 1 1 (5120)
I0909 13:42:54.506335  3371 net.cpp:125] drop8 needs backward computation.
I0909 13:42:54.506343  3371 net.cpp:66] Creating Layer fc9
I0909 13:42:54.506350  3371 net.cpp:329] fc9 <- fc8
I0909 13:42:54.506360  3371 net.cpp:290] fc9 -> fc9
I0909 13:42:54.506733  3371 net.cpp:83] Top shape: 10 24 1 1 (240)
I0909 13:42:54.506747  3371 net.cpp:125] fc9 needs backward computation.
I0909 13:42:54.506755  3371 net.cpp:66] Creating Layer fc10
I0909 13:42:54.506762  3371 net.cpp:329] fc10 <- fc9
I0909 13:42:54.506769  3371 net.cpp:290] fc10 -> fc10
I0909 13:42:54.506783  3371 net.cpp:83] Top shape: 10 2 1 1 (20)
I0909 13:42:54.506793  3371 net.cpp:125] fc10 needs backward computation.
I0909 13:42:54.506799  3371 net.cpp:66] Creating Layer prob
I0909 13:42:54.506806  3371 net.cpp:329] prob <- fc10
I0909 13:42:54.506814  3371 net.cpp:290] prob -> prob
I0909 13:42:54.506824  3371 net.cpp:83] Top shape: 10 2 1 1 (20)
I0909 13:42:54.506831  3371 net.cpp:125] prob needs backward computation.
I0909 13:42:54.506837  3371 net.cpp:156] This network produces output prob
I0909 13:42:54.506850  3371 net.cpp:402] Collecting Learning Rate and Weight Decay.
I0909 13:42:54.506858  3371 net.cpp:167] Network initialization done.
I0909 13:42:54.506865  3371 net.cpp:168] Memory required for data: 6183480
Classifying 18 inputs.
Done in 11.54 s.
WARNING: Logging before InitGoogleLogging() is written to STDERR
E0909 13:43:09.526928  3380 upgrade_proto.cpp:575] Attempting to upgrade input file specified using deprecated V0LayerParameter: distribute/python/../../senti/model4_boost_deploy.prototxt
I0909 13:43:09.527076  3380 upgrade_proto.cpp:582] Successfully upgraded file specified using deprecated V0LayerParameter
E0909 13:43:09.527086  3380 upgrade_proto.cpp:585] Note that future Caffe releases will not support V0NetParameter; use ./build/tools/upgrade_net_proto_text.bin to upgrade this and any other network proto files to the new format.
I0909 13:43:09.527235  3380 net.cpp:38] Initializing net from parameters: 
layers {
  bottom: "data"
  top: "conv1"
  name: "conv1"
  type: CONVOLUTION
  blobs_lr: 1
  blobs_lr: 2
  weight_decay: 1
  weight_decay: 0
  convolution_param {
    num_output: 96
    kernel_size: 11
    stride: 4
    weight_filler {
      type: "gaussian"
      std: 0.01
    }
    bias_filler {
      type: "constant"
      value: 0
    }
  }
}
layers {
  bottom: "conv1"
  top: "conv1"
  name: "relu1"
  type: RELU
}
layers {
  bottom: "conv1"
  top: "pool1"
  name: "pool1"
  type: POOLING
  pooling_param {
    pool: MAX
    kernel_size: 3
    stride: 2
  }
}
layers {
  bottom: "pool1"
  top: "norm1"
  name: "norm1"
  type: LRN
  lrn_param {
    local_size: 5
    alpha: 0.0001
    beta: 0.75
  }
}
layers {
  bottom: "norm1"
  top: "conv2"
  name: "conv2"
  type: CONVOLUTION
  blobs_lr: 1
  blobs_lr: 2
  weight_decay: 1
  weight_decay: 0
  convolution_param {
    num_output: 256
    pad: 2
    kernel_size: 5
    group: 2
    weight_filler {
      type: "gaussian"
      std: 0.01
    }
    bias_filler {
      type: "constant"
      value: 1
    }
  }
}
layers {
  bottom: "conv2"
  top: "conv2"
  name: "relu2"
  type: RELU
}
layers {
  bottom: "conv2"
  top: "pool2"
  name: "pool2"
  type: POOLING
  pooling_param {
    pool: MAX
    kernel_size: 3
    stride: 2
  }
}
layers {
  bottom: "pool2"
  top: "fc7"
  name: "fc7"
  type: INNER_PRODUCT
  blobs_lr: 1
  blobs_lr: 2
  weight_decay: 1
  weight_decay: 0
  inner_product_param {
    num_output: 512
    weight_filler {
      type: "gaussian"
      std: 0.005
    }
    bias_filler {
      type: "constant"
      value: 1
    }
  }
}
layers {
  bottom: "fc7"
  top: "fc7"
  name: "relu7"
  type: RELU
}
layers {
  bottom: "fc7"
  top: "fc7"
  name: "drop7"
  type: DROPOUT
  dropout_param {
    dropout_ratio: 0.5
  }
}
layers {
  bottom: "fc7"
  top: "fc8"
  name: "fc8"
  type: INNER_PRODUCT
  blobs_lr: 1
  blobs_lr: 2
  weight_decay: 1
  weight_decay: 0
  inner_product_param {
    num_output: 512
    weight_filler {
      type: "gaussian"
      std: 0.005
    }
    bias_filler {
      type: "constant"
      value: 1
    }
  }
}
layers {
  bottom: "fc8"
  top: "fc8"
  name: "relu8"
  type: RELU
}
layers {
  bottom: "fc8"
  top: "fc8"
  name: "drop8"
  type: DROPOUT
  dropout_param {
    dropout_ratio: 0.5
  }
}
layers {
  bottom: "fc8"
  top: "fc9"
  name: "fc9"
  type: INNER_PRODUCT
  blobs_lr: 1
  blobs_lr: 2
  weight_decay: 1
  weight_decay: 0
  inner_product_param {
    num_output: 24
    weight_filler {
      type: "gaussian"
      std: 0.01
    }
    bias_filler {
      type: "constant"
      value: 0
    }
  }
}
layers {
  bottom: "fc9"
  top: "fc10"
  name: "fc10"
  type: INNER_PRODUCT
  blobs_lr: 1
  blobs_lr: 2
  weight_decay: 1
  weight_decay: 0
  inner_product_param {
    num_output: 2
    weight_filler {
      type: "gaussian"
      std: 0.01
    }
    bias_filler {
      type: "constant"
      value: 0
    }
  }
}
layers {
  bottom: "fc10"
  top: "prob"
  name: "prob"
  type: SOFTMAX
}
input: "data"
input_dim: 10
input_dim: 3
input_dim: 227
input_dim: 227
I0909 13:43:09.527298  3380 net.cpp:292] Input 0 -> data
I0909 13:43:09.527325  3380 net.cpp:66] Creating Layer conv1
I0909 13:43:09.527333  3380 net.cpp:329] conv1 <- data
I0909 13:43:09.527343  3380 net.cpp:290] conv1 -> conv1
I0909 13:43:09.528723  3380 net.cpp:83] Top shape: 10 96 55 55 (2904000)
I0909 13:43:09.528744  3380 net.cpp:125] conv1 needs backward computation.
I0909 13:43:09.528754  3380 net.cpp:66] Creating Layer relu1
I0909 13:43:09.528761  3380 net.cpp:329] relu1 <- conv1
I0909 13:43:09.528769  3380 net.cpp:280] relu1 -> conv1 (in-place)
I0909 13:43:09.528779  3380 net.cpp:83] Top shape: 10 96 55 55 (2904000)
I0909 13:43:09.528784  3380 net.cpp:125] relu1 needs backward computation.
I0909 13:43:09.528792  3380 net.cpp:66] Creating Layer pool1
I0909 13:43:09.528798  3380 net.cpp:329] pool1 <- conv1
I0909 13:43:09.528806  3380 net.cpp:290] pool1 -> pool1
I0909 13:43:09.528817  3380 net.cpp:83] Top shape: 10 96 27 27 (699840)
I0909 13:43:09.528825  3380 net.cpp:125] pool1 needs backward computation.
I0909 13:43:09.528831  3380 net.cpp:66] Creating Layer norm1
I0909 13:43:09.528838  3380 net.cpp:329] norm1 <- pool1
I0909 13:43:09.528846  3380 net.cpp:290] norm1 -> norm1
I0909 13:43:09.528856  3380 net.cpp:83] Top shape: 10 96 27 27 (699840)
I0909 13:43:09.528862  3380 net.cpp:125] norm1 needs backward computation.
I0909 13:43:09.528870  3380 net.cpp:66] Creating Layer conv2
I0909 13:43:09.528877  3380 net.cpp:329] conv2 <- norm1
I0909 13:43:09.528884  3380 net.cpp:290] conv2 -> conv2
I0909 13:43:09.538390  3380 net.cpp:83] Top shape: 10 256 27 27 (1866240)
I0909 13:43:09.538431  3380 net.cpp:125] conv2 needs backward computation.
I0909 13:43:09.538444  3380 net.cpp:66] Creating Layer relu2
I0909 13:43:09.538450  3380 net.cpp:329] relu2 <- conv2
I0909 13:43:09.538458  3380 net.cpp:280] relu2 -> conv2 (in-place)
I0909 13:43:09.538468  3380 net.cpp:83] Top shape: 10 256 27 27 (1866240)
I0909 13:43:09.538475  3380 net.cpp:125] relu2 needs backward computation.
I0909 13:43:09.538482  3380 net.cpp:66] Creating Layer pool2
I0909 13:43:09.538488  3380 net.cpp:329] pool2 <- conv2
I0909 13:43:09.538496  3380 net.cpp:290] pool2 -> pool2
I0909 13:43:09.538506  3380 net.cpp:83] Top shape: 10 256 13 13 (432640)
I0909 13:43:09.538512  3380 net.cpp:125] pool2 needs backward computation.
I0909 13:43:09.538522  3380 net.cpp:66] Creating Layer fc7
I0909 13:43:09.538527  3380 net.cpp:329] fc7 <- pool2
I0909 13:43:09.538535  3380 net.cpp:290] fc7 -> fc7
I0909 13:43:10.185847  3380 net.cpp:83] Top shape: 10 512 1 1 (5120)
I0909 13:43:10.185901  3380 net.cpp:125] fc7 needs backward computation.
I0909 13:43:10.185917  3380 net.cpp:66] Creating Layer relu7
I0909 13:43:10.185925  3380 net.cpp:329] relu7 <- fc7
I0909 13:43:10.185933  3380 net.cpp:280] relu7 -> fc7 (in-place)
I0909 13:43:10.185945  3380 net.cpp:83] Top shape: 10 512 1 1 (5120)
I0909 13:43:10.185957  3380 net.cpp:125] relu7 needs backward computation.
I0909 13:43:10.185966  3380 net.cpp:66] Creating Layer drop7
I0909 13:43:10.185971  3380 net.cpp:329] drop7 <- fc7
I0909 13:43:10.185981  3380 net.cpp:280] drop7 -> fc7 (in-place)
I0909 13:43:10.186002  3380 net.cpp:83] Top shape: 10 512 1 1 (5120)
I0909 13:43:10.186009  3380 net.cpp:125] drop7 needs backward computation.
I0909 13:43:10.186019  3380 net.cpp:66] Creating Layer fc8
I0909 13:43:10.186025  3380 net.cpp:329] fc8 <- fc7
I0909 13:43:10.186035  3380 net.cpp:290] fc8 -> fc8
I0909 13:43:10.193824  3380 net.cpp:83] Top shape: 10 512 1 1 (5120)
I0909 13:43:10.193836  3380 net.cpp:125] fc8 needs backward computation.
I0909 13:43:10.193845  3380 net.cpp:66] Creating Layer relu8
I0909 13:43:10.193850  3380 net.cpp:329] relu8 <- fc8
I0909 13:43:10.193857  3380 net.cpp:280] relu8 -> fc8 (in-place)
I0909 13:43:10.193867  3380 net.cpp:83] Top shape: 10 512 1 1 (5120)
I0909 13:43:10.193873  3380 net.cpp:125] relu8 needs backward computation.
I0909 13:43:10.193881  3380 net.cpp:66] Creating Layer drop8
I0909 13:43:10.193886  3380 net.cpp:329] drop8 <- fc8
I0909 13:43:10.193893  3380 net.cpp:280] drop8 -> fc8 (in-place)
I0909 13:43:10.193902  3380 net.cpp:83] Top shape: 10 512 1 1 (5120)
I0909 13:43:10.193907  3380 net.cpp:125] drop8 needs backward computation.
I0909 13:43:10.193915  3380 net.cpp:66] Creating Layer fc9
I0909 13:43:10.193922  3380 net.cpp:329] fc9 <- fc8
I0909 13:43:10.193930  3380 net.cpp:290] fc9 -> fc9
I0909 13:43:10.194303  3380 net.cpp:83] Top shape: 10 24 1 1 (240)
I0909 13:43:10.194317  3380 net.cpp:125] fc9 needs backward computation.
I0909 13:43:10.194327  3380 net.cpp:66] Creating Layer fc10
I0909 13:43:10.194334  3380 net.cpp:329] fc10 <- fc9
I0909 13:43:10.194341  3380 net.cpp:290] fc10 -> fc10
I0909 13:43:10.194355  3380 net.cpp:83] Top shape: 10 2 1 1 (20)
I0909 13:43:10.194363  3380 net.cpp:125] fc10 needs backward computation.
I0909 13:43:10.194371  3380 net.cpp:66] Creating Layer prob
I0909 13:43:10.194377  3380 net.cpp:329] prob <- fc10
I0909 13:43:10.194385  3380 net.cpp:290] prob -> prob
I0909 13:43:10.194393  3380 net.cpp:83] Top shape: 10 2 1 1 (20)
I0909 13:43:10.194402  3380 net.cpp:125] prob needs backward computation.
I0909 13:43:10.194408  3380 net.cpp:156] This network produces output prob
I0909 13:43:10.194419  3380 net.cpp:402] Collecting Learning Rate and Weight Decay.
I0909 13:43:10.194428  3380 net.cpp:167] Network initialization done.
I0909 13:43:10.194434  3380 net.cpp:168] Memory required for data: 6183480
Classifying 202 inputs.
Done in 122.03 s.
WARNING: Logging before InitGoogleLogging() is written to STDERR
E0909 13:45:20.029886  3394 upgrade_proto.cpp:575] Attempting to upgrade input file specified using deprecated V0LayerParameter: distribute/python/../../senti/model4_boost_deploy.prototxt
I0909 13:45:20.030032  3394 upgrade_proto.cpp:582] Successfully upgraded file specified using deprecated V0LayerParameter
E0909 13:45:20.030042  3394 upgrade_proto.cpp:585] Note that future Caffe releases will not support V0NetParameter; use ./build/tools/upgrade_net_proto_text.bin to upgrade this and any other network proto files to the new format.
I0909 13:45:20.030190  3394 net.cpp:38] Initializing net from parameters: 
layers {
  bottom: "data"
  top: "conv1"
  name: "conv1"
  type: CONVOLUTION
  blobs_lr: 1
  blobs_lr: 2
  weight_decay: 1
  weight_decay: 0
  convolution_param {
    num_output: 96
    kernel_size: 11
    stride: 4
    weight_filler {
      type: "gaussian"
      std: 0.01
    }
    bias_filler {
      type: "constant"
      value: 0
    }
  }
}
layers {
  bottom: "conv1"
  top: "conv1"
  name: "relu1"
  type: RELU
}
layers {
  bottom: "conv1"
  top: "pool1"
  name: "pool1"
  type: POOLING
  pooling_param {
    pool: MAX
    kernel_size: 3
    stride: 2
  }
}
layers {
  bottom: "pool1"
  top: "norm1"
  name: "norm1"
  type: LRN
  lrn_param {
    local_size: 5
    alpha: 0.0001
    beta: 0.75
  }
}
layers {
  bottom: "norm1"
  top: "conv2"
  name: "conv2"
  type: CONVOLUTION
  blobs_lr: 1
  blobs_lr: 2
  weight_decay: 1
  weight_decay: 0
  convolution_param {
    num_output: 256
    pad: 2
    kernel_size: 5
    group: 2
    weight_filler {
      type: "gaussian"
      std: 0.01
    }
    bias_filler {
      type: "constant"
      value: 1
    }
  }
}
layers {
  bottom: "conv2"
  top: "conv2"
  name: "relu2"
  type: RELU
}
layers {
  bottom: "conv2"
  top: "pool2"
  name: "pool2"
  type: POOLING
  pooling_param {
    pool: MAX
    kernel_size: 3
    stride: 2
  }
}
layers {
  bottom: "pool2"
  top: "fc7"
  name: "fc7"
  type: INNER_PRODUCT
  blobs_lr: 1
  blobs_lr: 2
  weight_decay: 1
  weight_decay: 0
  inner_product_param {
    num_output: 512
    weight_filler {
      type: "gaussian"
      std: 0.005
    }
    bias_filler {
      type: "constant"
      value: 1
    }
  }
}
layers {
  bottom: "fc7"
  top: "fc7"
  name: "relu7"
  type: RELU
}
layers {
  bottom: "fc7"
  top: "fc7"
  name: "drop7"
  type: DROPOUT
  dropout_param {
    dropout_ratio: 0.5
  }
}
layers {
  bottom: "fc7"
  top: "fc8"
  name: "fc8"
  type: INNER_PRODUCT
  blobs_lr: 1
  blobs_lr: 2
  weight_decay: 1
  weight_decay: 0
  inner_product_param {
    num_output: 512
    weight_filler {
      type: "gaussian"
      std: 0.005
    }
    bias_filler {
      type: "constant"
      value: 1
    }
  }
}
layers {
  bottom: "fc8"
  top: "fc8"
  name: "relu8"
  type: RELU
}
layers {
  bottom: "fc8"
  top: "fc8"
  name: "drop8"
  type: DROPOUT
  dropout_param {
    dropout_ratio: 0.5
  }
}
layers {
  bottom: "fc8"
  top: "fc9"
  name: "fc9"
  type: INNER_PRODUCT
  blobs_lr: 1
  blobs_lr: 2
  weight_decay: 1
  weight_decay: 0
  inner_product_param {
    num_output: 24
    weight_filler {
      type: "gaussian"
      std: 0.01
    }
    bias_filler {
      type: "constant"
      value: 0
    }
  }
}
layers {
  bottom: "fc9"
  top: "fc10"
  name: "fc10"
  type: INNER_PRODUCT
  blobs_lr: 1
  blobs_lr: 2
  weight_decay: 1
  weight_decay: 0
  inner_product_param {
    num_output: 2
    weight_filler {
      type: "gaussian"
      std: 0.01
    }
    bias_filler {
      type: "constant"
      value: 0
    }
  }
}
layers {
  bottom: "fc10"
  top: "prob"
  name: "prob"
  type: SOFTMAX
}
input: "data"
input_dim: 10
input_dim: 3
input_dim: 227
input_dim: 227
I0909 13:45:20.030254  3394 net.cpp:292] Input 0 -> data
I0909 13:45:20.030282  3394 net.cpp:66] Creating Layer conv1
I0909 13:45:20.030288  3394 net.cpp:329] conv1 <- data
I0909 13:45:20.030297  3394 net.cpp:290] conv1 -> conv1
I0909 13:45:20.031661  3394 net.cpp:83] Top shape: 10 96 55 55 (2904000)
I0909 13:45:20.031680  3394 net.cpp:125] conv1 needs backward computation.
I0909 13:45:20.031690  3394 net.cpp:66] Creating Layer relu1
I0909 13:45:20.031697  3394 net.cpp:329] relu1 <- conv1
I0909 13:45:20.031704  3394 net.cpp:280] relu1 -> conv1 (in-place)
I0909 13:45:20.031713  3394 net.cpp:83] Top shape: 10 96 55 55 (2904000)
I0909 13:45:20.031720  3394 net.cpp:125] relu1 needs backward computation.
I0909 13:45:20.031728  3394 net.cpp:66] Creating Layer pool1
I0909 13:45:20.031734  3394 net.cpp:329] pool1 <- conv1
I0909 13:45:20.031741  3394 net.cpp:290] pool1 -> pool1
I0909 13:45:20.031754  3394 net.cpp:83] Top shape: 10 96 27 27 (699840)
I0909 13:45:20.031760  3394 net.cpp:125] pool1 needs backward computation.
I0909 13:45:20.031767  3394 net.cpp:66] Creating Layer norm1
I0909 13:45:20.031774  3394 net.cpp:329] norm1 <- pool1
I0909 13:45:20.031781  3394 net.cpp:290] norm1 -> norm1
I0909 13:45:20.031792  3394 net.cpp:83] Top shape: 10 96 27 27 (699840)
I0909 13:45:20.031798  3394 net.cpp:125] norm1 needs backward computation.
I0909 13:45:20.031806  3394 net.cpp:66] Creating Layer conv2
I0909 13:45:20.031813  3394 net.cpp:329] conv2 <- norm1
I0909 13:45:20.031821  3394 net.cpp:290] conv2 -> conv2
I0909 13:45:20.040875  3394 net.cpp:83] Top shape: 10 256 27 27 (1866240)
I0909 13:45:20.040892  3394 net.cpp:125] conv2 needs backward computation.
I0909 13:45:20.040909  3394 net.cpp:66] Creating Layer relu2
I0909 13:45:20.040915  3394 net.cpp:329] relu2 <- conv2
I0909 13:45:20.040922  3394 net.cpp:280] relu2 -> conv2 (in-place)
I0909 13:45:20.040930  3394 net.cpp:83] Top shape: 10 256 27 27 (1866240)
I0909 13:45:20.040936  3394 net.cpp:125] relu2 needs backward computation.
I0909 13:45:20.040951  3394 net.cpp:66] Creating Layer pool2
I0909 13:45:20.040961  3394 net.cpp:329] pool2 <- conv2
I0909 13:45:20.040968  3394 net.cpp:290] pool2 -> pool2
I0909 13:45:20.040977  3394 net.cpp:83] Top shape: 10 256 13 13 (432640)
I0909 13:45:20.040983  3394 net.cpp:125] pool2 needs backward computation.
I0909 13:45:20.040990  3394 net.cpp:66] Creating Layer fc7
I0909 13:45:20.040997  3394 net.cpp:329] fc7 <- pool2
I0909 13:45:20.041004  3394 net.cpp:290] fc7 -> fc7
I0909 13:45:20.681927  3394 net.cpp:83] Top shape: 10 512 1 1 (5120)
I0909 13:45:20.681983  3394 net.cpp:125] fc7 needs backward computation.
I0909 13:45:20.681999  3394 net.cpp:66] Creating Layer relu7
I0909 13:45:20.682008  3394 net.cpp:329] relu7 <- fc7
I0909 13:45:20.682016  3394 net.cpp:280] relu7 -> fc7 (in-place)
I0909 13:45:20.682028  3394 net.cpp:83] Top shape: 10 512 1 1 (5120)
I0909 13:45:20.682034  3394 net.cpp:125] relu7 needs backward computation.
I0909 13:45:20.682042  3394 net.cpp:66] Creating Layer drop7
I0909 13:45:20.682049  3394 net.cpp:329] drop7 <- fc7
I0909 13:45:20.682056  3394 net.cpp:280] drop7 -> fc7 (in-place)
I0909 13:45:20.682068  3394 net.cpp:83] Top shape: 10 512 1 1 (5120)
I0909 13:45:20.682075  3394 net.cpp:125] drop7 needs backward computation.
I0909 13:45:20.682085  3394 net.cpp:66] Creating Layer fc8
I0909 13:45:20.682091  3394 net.cpp:329] fc8 <- fc7
I0909 13:45:20.682101  3394 net.cpp:290] fc8 -> fc8
I0909 13:45:20.689877  3394 net.cpp:83] Top shape: 10 512 1 1 (5120)
I0909 13:45:20.689889  3394 net.cpp:125] fc8 needs backward computation.
I0909 13:45:20.689898  3394 net.cpp:66] Creating Layer relu8
I0909 13:45:20.689903  3394 net.cpp:329] relu8 <- fc8
I0909 13:45:20.689913  3394 net.cpp:280] relu8 -> fc8 (in-place)
I0909 13:45:20.689920  3394 net.cpp:83] Top shape: 10 512 1 1 (5120)
I0909 13:45:20.689926  3394 net.cpp:125] relu8 needs backward computation.
I0909 13:45:20.689934  3394 net.cpp:66] Creating Layer drop8
I0909 13:45:20.689940  3394 net.cpp:329] drop8 <- fc8
I0909 13:45:20.689947  3394 net.cpp:280] drop8 -> fc8 (in-place)
I0909 13:45:20.689954  3394 net.cpp:83] Top shape: 10 512 1 1 (5120)
I0909 13:45:20.689961  3394 net.cpp:125] drop8 needs backward computation.
I0909 13:45:20.689970  3394 net.cpp:66] Creating Layer fc9
I0909 13:45:20.689975  3394 net.cpp:329] fc9 <- fc8
I0909 13:45:20.689985  3394 net.cpp:290] fc9 -> fc9
I0909 13:45:20.690357  3394 net.cpp:83] Top shape: 10 24 1 1 (240)
I0909 13:45:20.690371  3394 net.cpp:125] fc9 needs backward computation.
I0909 13:45:20.690379  3394 net.cpp:66] Creating Layer fc10
I0909 13:45:20.690387  3394 net.cpp:329] fc10 <- fc9
I0909 13:45:20.690393  3394 net.cpp:290] fc10 -> fc10
I0909 13:45:20.690407  3394 net.cpp:83] Top shape: 10 2 1 1 (20)
I0909 13:45:20.690417  3394 net.cpp:125] fc10 needs backward computation.
I0909 13:45:20.690423  3394 net.cpp:66] Creating Layer prob
I0909 13:45:20.690429  3394 net.cpp:329] prob <- fc10
I0909 13:45:20.690438  3394 net.cpp:290] prob -> prob
I0909 13:45:20.690448  3394 net.cpp:83] Top shape: 10 2 1 1 (20)
I0909 13:45:20.690455  3394 net.cpp:125] prob needs backward computation.
I0909 13:45:20.690461  3394 net.cpp:156] This network produces output prob
I0909 13:45:20.690472  3394 net.cpp:402] Collecting Learning Rate and Weight Decay.
I0909 13:45:20.690481  3394 net.cpp:167] Network initialization done.
I0909 13:45:20.690487  3394 net.cpp:168] Memory required for data: 6183480
Classifying 83 inputs.
Done in 53.15 s.
WARNING: Logging before InitGoogleLogging() is written to STDERR
E0909 13:46:16.035302  3403 upgrade_proto.cpp:575] Attempting to upgrade input file specified using deprecated V0LayerParameter: distribute/python/../../senti/model4_boost_deploy.prototxt
I0909 13:46:16.035452  3403 upgrade_proto.cpp:582] Successfully upgraded file specified using deprecated V0LayerParameter
E0909 13:46:16.035464  3403 upgrade_proto.cpp:585] Note that future Caffe releases will not support V0NetParameter; use ./build/tools/upgrade_net_proto_text.bin to upgrade this and any other network proto files to the new format.
I0909 13:46:16.035611  3403 net.cpp:38] Initializing net from parameters: 
layers {
  bottom: "data"
  top: "conv1"
  name: "conv1"
  type: CONVOLUTION
  blobs_lr: 1
  blobs_lr: 2
  weight_decay: 1
  weight_decay: 0
  convolution_param {
    num_output: 96
    kernel_size: 11
    stride: 4
    weight_filler {
      type: "gaussian"
      std: 0.01
    }
    bias_filler {
      type: "constant"
      value: 0
    }
  }
}
layers {
  bottom: "conv1"
  top: "conv1"
  name: "relu1"
  type: RELU
}
layers {
  bottom: "conv1"
  top: "pool1"
  name: "pool1"
  type: POOLING
  pooling_param {
    pool: MAX
    kernel_size: 3
    stride: 2
  }
}
layers {
  bottom: "pool1"
  top: "norm1"
  name: "norm1"
  type: LRN
  lrn_param {
    local_size: 5
    alpha: 0.0001
    beta: 0.75
  }
}
layers {
  bottom: "norm1"
  top: "conv2"
  name: "conv2"
  type: CONVOLUTION
  blobs_lr: 1
  blobs_lr: 2
  weight_decay: 1
  weight_decay: 0
  convolution_param {
    num_output: 256
    pad: 2
    kernel_size: 5
    group: 2
    weight_filler {
      type: "gaussian"
      std: 0.01
    }
    bias_filler {
      type: "constant"
      value: 1
    }
  }
}
layers {
  bottom: "conv2"
  top: "conv2"
  name: "relu2"
  type: RELU
}
layers {
  bottom: "conv2"
  top: "pool2"
  name: "pool2"
  type: POOLING
  pooling_param {
    pool: MAX
    kernel_size: 3
    stride: 2
  }
}
layers {
  bottom: "pool2"
  top: "fc7"
  name: "fc7"
  type: INNER_PRODUCT
  blobs_lr: 1
  blobs_lr: 2
  weight_decay: 1
  weight_decay: 0
  inner_product_param {
    num_output: 512
    weight_filler {
      type: "gaussian"
      std: 0.005
    }
    bias_filler {
      type: "constant"
      value: 1
    }
  }
}
layers {
  bottom: "fc7"
  top: "fc7"
  name: "relu7"
  type: RELU
}
layers {
  bottom: "fc7"
  top: "fc7"
  name: "drop7"
  type: DROPOUT
  dropout_param {
    dropout_ratio: 0.5
  }
}
layers {
  bottom: "fc7"
  top: "fc8"
  name: "fc8"
  type: INNER_PRODUCT
  blobs_lr: 1
  blobs_lr: 2
  weight_decay: 1
  weight_decay: 0
  inner_product_param {
    num_output: 512
    weight_filler {
      type: "gaussian"
      std: 0.005
    }
    bias_filler {
      type: "constant"
      value: 1
    }
  }
}
layers {
  bottom: "fc8"
  top: "fc8"
  name: "relu8"
  type: RELU
}
layers {
  bottom: "fc8"
  top: "fc8"
  name: "drop8"
  type: DROPOUT
  dropout_param {
    dropout_ratio: 0.5
  }
}
layers {
  bottom: "fc8"
  top: "fc9"
  name: "fc9"
  type: INNER_PRODUCT
  blobs_lr: 1
  blobs_lr: 2
  weight_decay: 1
  weight_decay: 0
  inner_product_param {
    num_output: 24
    weight_filler {
      type: "gaussian"
      std: 0.01
    }
    bias_filler {
      type: "constant"
      value: 0
    }
  }
}
layers {
  bottom: "fc9"
  top: "fc10"
  name: "fc10"
  type: INNER_PRODUCT
  blobs_lr: 1
  blobs_lr: 2
  weight_decay: 1
  weight_decay: 0
  inner_product_param {
    num_output: 2
    weight_filler {
      type: "gaussian"
      std: 0.01
    }
    bias_filler {
      type: "constant"
      value: 0
    }
  }
}
layers {
  bottom: "fc10"
  top: "prob"
  name: "prob"
  type: SOFTMAX
}
input: "data"
input_dim: 10
input_dim: 3
input_dim: 227
input_dim: 227
I0909 13:46:16.035676  3403 net.cpp:292] Input 0 -> data
I0909 13:46:16.035703  3403 net.cpp:66] Creating Layer conv1
I0909 13:46:16.035712  3403 net.cpp:329] conv1 <- data
I0909 13:46:16.035720  3403 net.cpp:290] conv1 -> conv1
I0909 13:46:16.037082  3403 net.cpp:83] Top shape: 10 96 55 55 (2904000)
I0909 13:46:16.037101  3403 net.cpp:125] conv1 needs backward computation.
I0909 13:46:16.037111  3403 net.cpp:66] Creating Layer relu1
I0909 13:46:16.037118  3403 net.cpp:329] relu1 <- conv1
I0909 13:46:16.037125  3403 net.cpp:280] relu1 -> conv1 (in-place)
I0909 13:46:16.037135  3403 net.cpp:83] Top shape: 10 96 55 55 (2904000)
I0909 13:46:16.037142  3403 net.cpp:125] relu1 needs backward computation.
I0909 13:46:16.037149  3403 net.cpp:66] Creating Layer pool1
I0909 13:46:16.037155  3403 net.cpp:329] pool1 <- conv1
I0909 13:46:16.037163  3403 net.cpp:290] pool1 -> pool1
I0909 13:46:16.037175  3403 net.cpp:83] Top shape: 10 96 27 27 (699840)
I0909 13:46:16.037181  3403 net.cpp:125] pool1 needs backward computation.
I0909 13:46:16.037194  3403 net.cpp:66] Creating Layer norm1
I0909 13:46:16.037200  3403 net.cpp:329] norm1 <- pool1
I0909 13:46:16.037207  3403 net.cpp:290] norm1 -> norm1
I0909 13:46:16.037219  3403 net.cpp:83] Top shape: 10 96 27 27 (699840)
I0909 13:46:16.037225  3403 net.cpp:125] norm1 needs backward computation.
I0909 13:46:16.037233  3403 net.cpp:66] Creating Layer conv2
I0909 13:46:16.037240  3403 net.cpp:329] conv2 <- norm1
I0909 13:46:16.037247  3403 net.cpp:290] conv2 -> conv2
I0909 13:46:16.046514  3403 net.cpp:83] Top shape: 10 256 27 27 (1866240)
I0909 13:46:16.046541  3403 net.cpp:125] conv2 needs backward computation.
I0909 13:46:16.046550  3403 net.cpp:66] Creating Layer relu2
I0909 13:46:16.046557  3403 net.cpp:329] relu2 <- conv2
I0909 13:46:16.046566  3403 net.cpp:280] relu2 -> conv2 (in-place)
I0909 13:46:16.046574  3403 net.cpp:83] Top shape: 10 256 27 27 (1866240)
I0909 13:46:16.046581  3403 net.cpp:125] relu2 needs backward computation.
I0909 13:46:16.046588  3403 net.cpp:66] Creating Layer pool2
I0909 13:46:16.046594  3403 net.cpp:329] pool2 <- conv2
I0909 13:46:16.046602  3403 net.cpp:290] pool2 -> pool2
I0909 13:46:16.046610  3403 net.cpp:83] Top shape: 10 256 13 13 (432640)
I0909 13:46:16.046617  3403 net.cpp:125] pool2 needs backward computation.
I0909 13:46:16.046625  3403 net.cpp:66] Creating Layer fc7
I0909 13:46:16.046632  3403 net.cpp:329] fc7 <- pool2
I0909 13:46:16.046639  3403 net.cpp:290] fc7 -> fc7
I0909 13:46:16.695905  3403 net.cpp:83] Top shape: 10 512 1 1 (5120)
I0909 13:46:16.695953  3403 net.cpp:125] fc7 needs backward computation.
I0909 13:46:16.695967  3403 net.cpp:66] Creating Layer relu7
I0909 13:46:16.695976  3403 net.cpp:329] relu7 <- fc7
I0909 13:46:16.695991  3403 net.cpp:280] relu7 -> fc7 (in-place)
I0909 13:46:16.696001  3403 net.cpp:83] Top shape: 10 512 1 1 (5120)
I0909 13:46:16.696007  3403 net.cpp:125] relu7 needs backward computation.
I0909 13:46:16.696015  3403 net.cpp:66] Creating Layer drop7
I0909 13:46:16.696022  3403 net.cpp:329] drop7 <- fc7
I0909 13:46:16.696029  3403 net.cpp:280] drop7 -> fc7 (in-place)
I0909 13:46:16.696040  3403 net.cpp:83] Top shape: 10 512 1 1 (5120)
I0909 13:46:16.696046  3403 net.cpp:125] drop7 needs backward computation.
I0909 13:46:16.696055  3403 net.cpp:66] Creating Layer fc8
I0909 13:46:16.696061  3403 net.cpp:329] fc8 <- fc7
I0909 13:46:16.696070  3403 net.cpp:290] fc8 -> fc8
I0909 13:46:16.703609  3403 net.cpp:83] Top shape: 10 512 1 1 (5120)
I0909 13:46:16.703624  3403 net.cpp:125] fc8 needs backward computation.
I0909 13:46:16.703630  3403 net.cpp:66] Creating Layer relu8
I0909 13:46:16.703636  3403 net.cpp:329] relu8 <- fc8
I0909 13:46:16.703644  3403 net.cpp:280] relu8 -> fc8 (in-place)
I0909 13:46:16.703652  3403 net.cpp:83] Top shape: 10 512 1 1 (5120)
I0909 13:46:16.703660  3403 net.cpp:125] relu8 needs backward computation.
I0909 13:46:16.703666  3403 net.cpp:66] Creating Layer drop8
I0909 13:46:16.703672  3403 net.cpp:329] drop8 <- fc8
I0909 13:46:16.703678  3403 net.cpp:280] drop8 -> fc8 (in-place)
I0909 13:46:16.703686  3403 net.cpp:83] Top shape: 10 512 1 1 (5120)
I0909 13:46:16.703692  3403 net.cpp:125] drop8 needs backward computation.
I0909 13:46:16.703701  3403 net.cpp:66] Creating Layer fc9
I0909 13:46:16.703706  3403 net.cpp:329] fc9 <- fc8
I0909 13:46:16.703714  3403 net.cpp:290] fc9 -> fc9
I0909 13:46:16.704077  3403 net.cpp:83] Top shape: 10 24 1 1 (240)
I0909 13:46:16.704089  3403 net.cpp:125] fc9 needs backward computation.
I0909 13:46:16.704097  3403 net.cpp:66] Creating Layer fc10
I0909 13:46:16.704104  3403 net.cpp:329] fc10 <- fc9
I0909 13:46:16.704112  3403 net.cpp:290] fc10 -> fc10
I0909 13:46:16.704124  3403 net.cpp:83] Top shape: 10 2 1 1 (20)
I0909 13:46:16.704133  3403 net.cpp:125] fc10 needs backward computation.
I0909 13:46:16.704140  3403 net.cpp:66] Creating Layer prob
I0909 13:46:16.704146  3403 net.cpp:329] prob <- fc10
I0909 13:46:16.704154  3403 net.cpp:290] prob -> prob
I0909 13:46:16.704164  3403 net.cpp:83] Top shape: 10 2 1 1 (20)
I0909 13:46:16.704174  3403 net.cpp:125] prob needs backward computation.
I0909 13:46:16.704187  3403 net.cpp:156] This network produces output prob
I0909 13:46:16.704200  3403 net.cpp:402] Collecting Learning Rate and Weight Decay.
I0909 13:46:16.704207  3403 net.cpp:167] Network initialization done.
I0909 13:46:16.704213  3403 net.cpp:168] Memory required for data: 6183480
Classifying 49 inputs.
Done in 31.68 s.
WARNING: Logging before InitGoogleLogging() is written to STDERR
E0909 13:46:50.227694  3412 upgrade_proto.cpp:575] Attempting to upgrade input file specified using deprecated V0LayerParameter: distribute/python/../../senti/model4_boost_deploy.prototxt
I0909 13:46:50.227854  3412 upgrade_proto.cpp:582] Successfully upgraded file specified using deprecated V0LayerParameter
E0909 13:46:50.227864  3412 upgrade_proto.cpp:585] Note that future Caffe releases will not support V0NetParameter; use ./build/tools/upgrade_net_proto_text.bin to upgrade this and any other network proto files to the new format.
I0909 13:46:50.228009  3412 net.cpp:38] Initializing net from parameters: 
layers {
  bottom: "data"
  top: "conv1"
  name: "conv1"
  type: CONVOLUTION
  blobs_lr: 1
  blobs_lr: 2
  weight_decay: 1
  weight_decay: 0
  convolution_param {
    num_output: 96
    kernel_size: 11
    stride: 4
    weight_filler {
      type: "gaussian"
      std: 0.01
    }
    bias_filler {
      type: "constant"
      value: 0
    }
  }
}
layers {
  bottom: "conv1"
  top: "conv1"
  name: "relu1"
  type: RELU
}
layers {
  bottom: "conv1"
  top: "pool1"
  name: "pool1"
  type: POOLING
  pooling_param {
    pool: MAX
    kernel_size: 3
    stride: 2
  }
}
layers {
  bottom: "pool1"
  top: "norm1"
  name: "norm1"
  type: LRN
  lrn_param {
    local_size: 5
    alpha: 0.0001
    beta: 0.75
  }
}
layers {
  bottom: "norm1"
  top: "conv2"
  name: "conv2"
  type: CONVOLUTION
  blobs_lr: 1
  blobs_lr: 2
  weight_decay: 1
  weight_decay: 0
  convolution_param {
    num_output: 256
    pad: 2
    kernel_size: 5
    group: 2
    weight_filler {
      type: "gaussian"
      std: 0.01
    }
    bias_filler {
      type: "constant"
      value: 1
    }
  }
}
layers {
  bottom: "conv2"
  top: "conv2"
  name: "relu2"
  type: RELU
}
layers {
  bottom: "conv2"
  top: "pool2"
  name: "pool2"
  type: POOLING
  pooling_param {
    pool: MAX
    kernel_size: 3
    stride: 2
  }
}
layers {
  bottom: "pool2"
  top: "fc7"
  name: "fc7"
  type: INNER_PRODUCT
  blobs_lr: 1
  blobs_lr: 2
  weight_decay: 1
  weight_decay: 0
  inner_product_param {
    num_output: 512
    weight_filler {
      type: "gaussian"
      std: 0.005
    }
    bias_filler {
…
I0909 21:52:39.070479  8952 net.cpp:66] Creating Layer relu2
I0909 21:52:39.070485  8952 net.cpp:329] relu2 <- conv2
I0909 21:52:39.070492  8952 net.cpp:280] relu2 -> conv2 (in-place)
I0909 21:52:39.070499  8952 net.cpp:83] Top shape: 10 256 27 27 (1866240)
I0909 21:52:39.070504  8952 net.cpp:125] relu2 needs backward computation.
I0909 21:52:39.070511  8952 net.cpp:66] Creating Layer pool2
I0909 21:52:39.070516  8952 net.cpp:329] pool2 <- conv2
I0909 21:52:39.070523  8952 net.cpp:290] pool2 -> pool2
I0909 21:52:39.070531  8952 net.cpp:83] Top shape: 10 256 13 13 (432640)
I0909 21:52:39.070538  8952 net.cpp:125] pool2 needs backward computation.
I0909 21:52:39.070545  8952 net.cpp:66] Creating Layer fc7
I0909 21:52:39.070551  8952 net.cpp:329] fc7 <- pool2
I0909 21:52:39.070559  8952 net.cpp:290] fc7 -> fc7
I0909 21:52:39.715114  8952 net.cpp:83] Top shape: 10 512 1 1 (5120)
I0909 21:52:39.715160  8952 net.cpp:125] fc7 needs backward computation.
I0909 21:52:39.715174  8952 net.cpp:66] Creating Layer relu7
I0909 21:52:39.715183  8952 net.cpp:329] relu7 <- fc7
I0909 21:52:39.715190  8952 net.cpp:280] relu7 -> fc7 (in-place)
I0909 21:52:39.715200  8952 net.cpp:83] Top shape: 10 512 1 1 (5120)
I0909 21:52:39.715206  8952 net.cpp:125] relu7 needs backward computation.
I0909 21:52:39.715214  8952 net.cpp:66] Creating Layer drop7
I0909 21:52:39.715219  8952 net.cpp:329] drop7 <- fc7
I0909 21:52:39.715226  8952 net.cpp:280] drop7 -> fc7 (in-place)
I0909 21:52:39.715237  8952 net.cpp:83] Top shape: 10 512 1 1 (5120)
I0909 21:52:39.715244  8952 net.cpp:125] drop7 needs backward computation.
I0909 21:52:39.715251  8952 net.cpp:66] Creating Layer fc8
I0909 21:52:39.715257  8952 net.cpp:329] fc8 <- fc7
I0909 21:52:39.715265  8952 net.cpp:290] fc8 -> fc8
I0909 21:52:39.723049  8952 net.cpp:83] Top shape: 10 512 1 1 (5120)
I0909 21:52:39.723062  8952 net.cpp:125] fc8 needs backward computation.
I0909 21:52:39.723069  8952 net.cpp:66] Creating Layer relu8
I0909 21:52:39.723075  8952 net.cpp:329] relu8 <- fc8
I0909 21:52:39.723091  8952 net.cpp:280] relu8 -> fc8 (in-place)
I0909 21:52:39.723098  8952 net.cpp:83] Top shape: 10 512 1 1 (5120)
I0909 21:52:39.723104  8952 net.cpp:125] relu8 needs backward computation.
I0909 21:52:39.723111  8952 net.cpp:66] Creating Layer drop8
I0909 21:52:39.723116  8952 net.cpp:329] drop8 <- fc8
I0909 21:52:39.723124  8952 net.cpp:280] drop8 -> fc8 (in-place)
I0909 21:52:39.723131  8952 net.cpp:83] Top shape: 10 512 1 1 (5120)
I0909 21:52:39.723136  8952 net.cpp:125] drop8 needs backward computation.
I0909 21:52:39.723145  8952 net.cpp:66] Creating Layer fc9
I0909 21:52:39.723150  8952 net.cpp:329] fc9 <- fc8
I0909 21:52:39.723157  8952 net.cpp:290] fc9 -> fc9
I0909 21:52:39.723533  8952 net.cpp:83] Top shape: 10 24 1 1 (240)
I0909 21:52:39.723543  8952 net.cpp:125] fc9 needs backward computation.
I0909 21:52:39.723552  8952 net.cpp:66] Creating Layer fc10
I0909 21:52:39.723557  8952 net.cpp:329] fc10 <- fc9
I0909 21:52:39.723567  8952 net.cpp:290] fc10 -> fc10
I0909 21:52:39.723578  8952 net.cpp:83] Top shape: 10 2 1 1 (20)
I0909 21:52:39.723587  8952 net.cpp:125] fc10 needs backward computation.
I0909 21:52:39.723594  8952 net.cpp:66] Creating Layer prob
I0909 21:52:39.723600  8952 net.cpp:329] prob <- fc10
I0909 21:52:39.723606  8952 net.cpp:290] prob -> prob
I0909 21:52:39.723615  8952 net.cpp:83] Top shape: 10 2 1 1 (20)
I0909 21:52:39.723621  8952 net.cpp:125] prob needs backward computation.
I0909 21:52:39.723626  8952 net.cpp:156] This network produces output prob
I0909 21:52:39.723639  8952 net.cpp:402] Collecting Learning Rate and Weight Decay.
I0909 21:52:39.723646  8952 net.cpp:167] Network initialization done.
I0909 21:52:39.723651  8952 net.cpp:168] Memory required for data: 6183480
Classifying 155 inputs.
Done in 97.33 s.
WARNING: Logging before InitGoogleLogging() is written to STDERR
E0909 21:54:20.673688  8957 upgrade_proto.cpp:575] Attempting to upgrade input file specified using deprecated V0LayerParameter: distribute/python/../../senti/model4_boost_deploy.prototxt
I0909 21:54:20.673828  8957 upgrade_proto.cpp:582] Successfully upgraded file specified using deprecated V0LayerParameter
E0909 21:54:20.673837  8957 upgrade_proto.cpp:585] Note that future Caffe releases will not support V0NetParameter; use ./build/tools/upgrade_net_proto_text.bin to upgrade this and any other network proto files to the new format.
I0909 21:54:20.673985  8957 net.cpp:38] Initializing net from parameters: 
layers {
  bottom: "data"
  top: "conv1"
  name: "conv1"
  type: CONVOLUTION
  blobs_lr: 1
  blobs_lr: 2
  weight_decay: 1
  weight_decay: 0
  convolution_param {
    num_output: 96
    kernel_size: 11
    stride: 4
    weight_filler {
      type: "gaussian"
      std: 0.01
    }
    bias_filler {
      type: "constant"
      value: 0
    }
  }
}
layers {
  bottom: "conv1"
  top: "conv1"
  name: "relu1"
  type: RELU
}
layers {
  bottom: "conv1"
  top: "pool1"
  name: "pool1"
  type: POOLING
  pooling_param {
    pool: MAX
    kernel_size: 3
    stride: 2
  }
}
layers {
  bottom: "pool1"
  top: "norm1"
  name: "norm1"
  type: LRN
  lrn_param {
    local_size: 5
    alpha: 0.0001
    beta: 0.75
  }
}
layers {
  bottom: "norm1"
  top: "conv2"
  name: "conv2"
  type: CONVOLUTION
  blobs_lr: 1
  blobs_lr: 2
  weight_decay: 1
  weight_decay: 0
  convolution_param {
    num_output: 256
    pad: 2
    kernel_size: 5
    group: 2
    weight_filler {
      type: "gaussian"
      std: 0.01
    }
    bias_filler {
      type: "constant"
      value: 1
    }
  }
}
layers {
  bottom: "conv2"
  top: "conv2"
  name: "relu2"
  type: RELU
}
layers {
  bottom: "conv2"
  top: "pool2"
  name: "pool2"
  type: POOLING
  pooling_param {
    pool: MAX
    kernel_size: 3
    stride: 2
  }
}
layers {
  bottom: "pool2"
  top: "fc7"
  name: "fc7"
  type: INNER_PRODUCT
  blobs_lr: 1
  blobs_lr: 2
  weight_decay: 1
  weight_decay: 0
  inner_product_param {
    num_output: 512
    weight_filler {
      type: "gaussian"
      std: 0.005
    }
    bias_filler {
      type: "constant"
      value: 1
    }
  }
}
layers {
  bottom: "fc7"
  top: "fc7"
  name: "relu7"
  type: RELU
}
layers {
  bottom: "fc7"
  top: "fc7"
  name: "drop7"
  type: DROPOUT
  dropout_param {
    dropout_ratio: 0.5
  }
}
layers {
  bottom: "fc7"
  top: "fc8"
  name: "fc8"
  type: INNER_PRODUCT
  blobs_lr: 1
  blobs_lr: 2
  weight_decay: 1
  weight_decay: 0
  inner_product_param {
    num_output: 512
    weight_filler {
      type: "gaussian"
      std: 0.005
    }
    bias_filler {
      type: "constant"
      value: 1
    }
  }
}
layers {
  bottom: "fc8"
  top: "fc8"
  name: "relu8"
  type: RELU
}
layers {
  bottom: "fc8"
  top: "fc8"
  name: "drop8"
  type: DROPOUT
  dropout_param {
    dropout_ratio: 0.5
  }
}
layers {
  bottom: "fc8"
  top: "fc9"
  name: "fc9"
  type: INNER_PRODUCT
  blobs_lr: 1
  blobs_lr: 2
  weight_decay: 1
  weight_decay: 0
  inner_product_param {
    num_output: 24
    weight_filler {
      type: "gaussian"
      std: 0.01
    }
    bias_filler {
      type: "constant"
      value: 0
    }
  }
}
layers {
  bottom: "fc9"
  top: "fc10"
  name: "fc10"
  type: INNER_PRODUCT
  blobs_lr: 1
  blobs_lr: 2
  weight_decay: 1
  weight_decay: 0
  inner_product_param {
    num_output: 2
    weight_filler {
      type: "gaussian"
      std: 0.01
    }
    bias_filler {
      type: "constant"
      value: 0
    }
  }
}
layers {
  bottom: "fc10"
  top: "prob"
  name: "prob"
  type: SOFTMAX
}
input: "data"
input_dim: 10
input_dim: 3
input_dim: 227
input_dim: 227
I0909 21:54:20.674051  8957 net.cpp:292] Input 0 -> data
I0909 21:54:20.674077  8957 net.cpp:66] Creating Layer conv1
I0909 21:54:20.674083  8957 net.cpp:329] conv1 <- data
I0909 21:54:20.674092  8957 net.cpp:290] conv1 -> conv1
I0909 21:54:20.675640  8957 net.cpp:83] Top shape: 10 96 55 55 (2904000)
I0909 21:54:20.675659  8957 net.cpp:125] conv1 needs backward computation.
I0909 21:54:20.675668  8957 net.cpp:66] Creating Layer relu1
I0909 21:54:20.675674  8957 net.cpp:329] relu1 <- conv1
I0909 21:54:20.675680  8957 net.cpp:280] relu1 -> conv1 (in-place)
I0909 21:54:20.675689  8957 net.cpp:83] Top shape: 10 96 55 55 (2904000)
I0909 21:54:20.675695  8957 net.cpp:125] relu1 needs backward computation.
I0909 21:54:20.675703  8957 net.cpp:66] Creating Layer pool1
I0909 21:54:20.675707  8957 net.cpp:329] pool1 <- conv1
I0909 21:54:20.675714  8957 net.cpp:290] pool1 -> pool1
I0909 21:54:20.675725  8957 net.cpp:83] Top shape: 10 96 27 27 (699840)
I0909 21:54:20.675731  8957 net.cpp:125] pool1 needs backward computation.
I0909 21:54:20.675739  8957 net.cpp:66] Creating Layer norm1
I0909 21:54:20.675743  8957 net.cpp:329] norm1 <- pool1
I0909 21:54:20.675750  8957 net.cpp:290] norm1 -> norm1
I0909 21:54:20.675760  8957 net.cpp:83] Top shape: 10 96 27 27 (699840)
I0909 21:54:20.675766  8957 net.cpp:125] norm1 needs backward computation.
I0909 21:54:20.675773  8957 net.cpp:66] Creating Layer conv2
I0909 21:54:20.675779  8957 net.cpp:329] conv2 <- norm1
I0909 21:54:20.675786  8957 net.cpp:290] conv2 -> conv2
I0909 21:54:20.686408  8957 net.cpp:83] Top shape: 10 256 27 27 (1866240)
I0909 21:54:20.686425  8957 net.cpp:125] conv2 needs backward computation.
I0909 21:54:20.686432  8957 net.cpp:66] Creating Layer relu2
I0909 21:54:20.686439  8957 net.cpp:329] relu2 <- conv2
I0909 21:54:20.686445  8957 net.cpp:280] relu2 -> conv2 (in-place)
I0909 21:54:20.686452  8957 net.cpp:83] Top shape: 10 256 27 27 (1866240)
I0909 21:54:20.686457  8957 net.cpp:125] relu2 needs backward computation.
I0909 21:54:20.686463  8957 net.cpp:66] Creating Layer pool2
I0909 21:54:20.686470  8957 net.cpp:329] pool2 <- conv2
I0909 21:54:20.686475  8957 net.cpp:290] pool2 -> pool2
I0909 21:54:20.686483  8957 net.cpp:83] Top shape: 10 256 13 13 (432640)
I0909 21:54:20.686489  8957 net.cpp:125] pool2 needs backward computation.
I0909 21:54:20.686496  8957 net.cpp:66] Creating Layer fc7
I0909 21:54:20.686501  8957 net.cpp:329] fc7 <- pool2
I0909 21:54:20.686511  8957 net.cpp:290] fc7 -> fc7
I0909 21:54:21.327116  8957 net.cpp:83] Top shape: 10 512 1 1 (5120)
I0909 21:54:21.327158  8957 net.cpp:125] fc7 needs backward computation.
I0909 21:54:21.327183  8957 net.cpp:66] Creating Layer relu7
I0909 21:54:21.327191  8957 net.cpp:329] relu7 <- fc7
I0909 21:54:21.327199  8957 net.cpp:280] relu7 -> fc7 (in-place)
I0909 21:54:21.327208  8957 net.cpp:83] Top shape: 10 512 1 1 (5120)
I0909 21:54:21.327214  8957 net.cpp:125] relu7 needs backward computation.
I0909 21:54:21.327221  8957 net.cpp:66] Creating Layer drop7
I0909 21:54:21.327227  8957 net.cpp:329] drop7 <- fc7
I0909 21:54:21.327234  8957 net.cpp:280] drop7 -> fc7 (in-place)
I0909 21:54:21.327245  8957 net.cpp:83] Top shape: 10 512 1 1 (5120)
I0909 21:54:21.327251  8957 net.cpp:125] drop7 needs backward computation.
I0909 21:54:21.327260  8957 net.cpp:66] Creating Layer fc8
I0909 21:54:21.327265  8957 net.cpp:329] fc8 <- fc7
I0909 21:54:21.327272  8957 net.cpp:290] fc8 -> fc8
I0909 21:54:21.335104  8957 net.cpp:83] Top shape: 10 512 1 1 (5120)
I0909 21:54:21.335119  8957 net.cpp:125] fc8 needs backward computation.
I0909 21:54:21.335125  8957 net.cpp:66] Creating Layer relu8
I0909 21:54:21.335131  8957 net.cpp:329] relu8 <- fc8
I0909 21:54:21.335139  8957 net.cpp:280] relu8 -> fc8 (in-place)
I0909 21:54:21.335145  8957 net.cpp:83] Top shape: 10 512 1 1 (5120)
I0909 21:54:21.335151  8957 net.cpp:125] relu8 needs backward computation.
I0909 21:54:21.335158  8957 net.cpp:66] Creating Layer drop8
I0909 21:54:21.335163  8957 net.cpp:329] drop8 <- fc8
I0909 21:54:21.335171  8957 net.cpp:280] drop8 -> fc8 (in-place)
I0909 21:54:21.335178  8957 net.cpp:83] Top shape: 10 512 1 1 (5120)
I0909 21:54:21.335185  8957 net.cpp:125] drop8 needs backward computation.
I0909 21:54:21.335191  8957 net.cpp:66] Creating Layer fc9
I0909 21:54:21.335197  8957 net.cpp:329] fc9 <- fc8
I0909 21:54:21.335206  8957 net.cpp:290] fc9 -> fc9
I0909 21:54:21.335579  8957 net.cpp:83] Top shape: 10 24 1 1 (240)
I0909 21:54:21.335590  8957 net.cpp:125] fc9 needs backward computation.
I0909 21:54:21.335598  8957 net.cpp:66] Creating Layer fc10
I0909 21:54:21.335603  8957 net.cpp:329] fc10 <- fc9
I0909 21:54:21.335613  8957 net.cpp:290] fc10 -> fc10
I0909 21:54:21.335623  8957 net.cpp:83] Top shape: 10 2 1 1 (20)
I0909 21:54:21.335633  8957 net.cpp:125] fc10 needs backward computation.
I0909 21:54:21.335639  8957 net.cpp:66] Creating Layer prob
I0909 21:54:21.335645  8957 net.cpp:329] prob <- fc10
I0909 21:54:21.335651  8957 net.cpp:290] prob -> prob
I0909 21:54:21.335661  8957 net.cpp:83] Top shape: 10 2 1 1 (20)
I0909 21:54:21.335667  8957 net.cpp:125] prob needs backward computation.
I0909 21:54:21.335672  8957 net.cpp:156] This network produces output prob
I0909 21:54:21.335685  8957 net.cpp:402] Collecting Learning Rate and Weight Decay.
I0909 21:54:21.335693  8957 net.cpp:167] Network initialization done.
I0909 21:54:21.335698  8957 net.cpp:168] Memory required for data: 6183480
Classifying 182 inputs.
Done in 112.55 s.
WARNING: Logging before InitGoogleLogging() is written to STDERR
E0909 21:56:18.119652  8965 upgrade_proto.cpp:575] Attempting to upgrade input file specified using deprecated V0LayerParameter: distribute/python/../../senti/model4_boost_deploy.prototxt
I0909 21:56:18.119788  8965 upgrade_proto.cpp:582] Successfully upgraded file specified using deprecated V0LayerParameter
E0909 21:56:18.119797  8965 upgrade_proto.cpp:585] Note that future Caffe releases will not support V0NetParameter; use ./build/tools/upgrade_net_proto_text.bin to upgrade this and any other network proto files to the new format.
I0909 21:56:18.119941  8965 net.cpp:38] Initializing net from parameters: 
layers {
  bottom: "data"
  top: "conv1"
  name: "conv1"
  type: CONVOLUTION
  blobs_lr: 1
  blobs_lr: 2
  weight_decay: 1
  weight_decay: 0
  convolution_param {
    num_output: 96
    kernel_size: 11
    stride: 4
    weight_filler {
      type: "gaussian"
      std: 0.01
    }
    bias_filler {
      type: "constant"
      value: 0
    }
  }
}
layers {
  bottom: "conv1"
  top: "conv1"
  name: "relu1"
  type: RELU
}
layers {
  bottom: "conv1"
  top: "pool1"
  name: "pool1"
  type: POOLING
  pooling_param {
    pool: MAX
    kernel_size: 3
    stride: 2
  }
}
layers {
  bottom: "pool1"
  top: "norm1"
  name: "norm1"
  type: LRN
  lrn_param {
    local_size: 5
    alpha: 0.0001
    beta: 0.75
  }
}
layers {
  bottom: "norm1"
  top: "conv2"
  name: "conv2"
  type: CONVOLUTION
  blobs_lr: 1
  blobs_lr: 2
  weight_decay: 1
  weight_decay: 0
  convolution_param {
    num_output: 256
    pad: 2
    kernel_size: 5
    group: 2
    weight_filler {
      type: "gaussian"
      std: 0.01
    }
    bias_filler {
      type: "constant"
      value: 1
    }
  }
}
layers {
  bottom: "conv2"
  top: "conv2"
  name: "relu2"
  type: RELU
}
layers {
  bottom: "conv2"
  top: "pool2"
  name: "pool2"
  type: POOLING
  pooling_param {
    pool: MAX
    kernel_size: 3
    stride: 2
  }
}
layers {
  bottom: "pool2"
  top: "fc7"
  name: "fc7"
  type: INNER_PRODUCT
  blobs_lr: 1
  blobs_lr: 2
  weight_decay: 1
  weight_decay: 0
  inner_product_param {
    num_output: 512
    weight_filler {
      type: "gaussian"
      std: 0.005
    }
    bias_filler {
      type: "constant"
      value: 1
    }
  }
}
layers {
  bottom: "fc7"
  top: "fc7"
  name: "relu7"
  type: RELU
}
layers {
  bottom: "fc7"
  top: "fc7"
  name: "drop7"
  type: DROPOUT
  dropout_param {
    dropout_ratio: 0.5
  }
}
layers {
  bottom: "fc7"
  top: "fc8"
  name: "fc8"
  type: INNER_PRODUCT
  blobs_lr: 1
  blobs_lr: 2
  weight_decay: 1
  weight_decay: 0
  inner_product_param {
    num_output: 512
    weight_filler {
      type: "gaussian"
      std: 0.005
    }
    bias_filler {
      type: "constant"
      value: 1
    }
  }
}
layers {
  bottom: "fc8"
  top: "fc8"
  name: "relu8"
  type: RELU
}
layers {
  bottom: "fc8"
  top: "fc8"
  name: "drop8"
  type: DROPOUT
  dropout_param {
    dropout_ratio: 0.5
  }
}
layers {
  bottom: "fc8"
  top: "fc9"
  name: "fc9"
  type: INNER_PRODUCT
  blobs_lr: 1
  blobs_lr: 2
  weight_decay: 1
  weight_decay: 0
  inner_product_param {
    num_output: 24
    weight_filler {
      type: "gaussian"
      std: 0.01
    }
    bias_filler {
      type: "constant"
      value: 0
    }
  }
}
layers {
  bottom: "fc9"
  top: "fc10"
  name: "fc10"
  type: INNER_PRODUCT
  blobs_lr: 1
  blobs_lr: 2
  weight_decay: 1
  weight_decay: 0
  inner_product_param {
    num_output: 2
    weight_filler {
      type: "gaussian"
      std: 0.01
    }
    bias_filler {
      type: "constant"
      value: 0
    }
  }
}
layers {
  bottom: "fc10"
  top: "prob"
  name: "prob"
  type: SOFTMAX
}
input: "data"
input_dim: 10
input_dim: 3
input_dim: 227
input_dim: 227
I0909 21:56:18.120005  8965 net.cpp:292] Input 0 -> data
I0909 21:56:18.120031  8965 net.cpp:66] Creating Layer conv1
I0909 21:56:18.120038  8965 net.cpp:329] conv1 <- data
I0909 21:56:18.120046  8965 net.cpp:290] conv1 -> conv1
I0909 21:56:18.121368  8965 net.cpp:83] Top shape: 10 96 55 55 (2904000)
I0909 21:56:18.121386  8965 net.cpp:125] conv1 needs backward computation.
I0909 21:56:18.121394  8965 net.cpp:66] Creating Layer relu1
I0909 21:56:18.121400  8965 net.cpp:329] relu1 <- conv1
I0909 21:56:18.121407  8965 net.cpp:280] relu1 -> conv1 (in-place)
I0909 21:56:18.121415  8965 net.cpp:83] Top shape: 10 96 55 55 (2904000)
I0909 21:56:18.121422  8965 net.cpp:125] relu1 needs backward computation.
I0909 21:56:18.121428  8965 net.cpp:66] Creating Layer pool1
I0909 21:56:18.121433  8965 net.cpp:329] pool1 <- conv1
I0909 21:56:18.121439  8965 net.cpp:290] pool1 -> pool1
I0909 21:56:18.121450  8965 net.cpp:83] Top shape: 10 96 27 27 (699840)
I0909 21:56:18.121456  8965 net.cpp:125] pool1 needs backward computation.
I0909 21:56:18.121462  8965 net.cpp:66] Creating Layer norm1
I0909 21:56:18.121469  8965 net.cpp:329] norm1 <- pool1
I0909 21:56:18.121474  8965 net.cpp:290] norm1 -> norm1
I0909 21:56:18.121484  8965 net.cpp:83] Top shape: 10 96 27 27 (699840)
I0909 21:56:18.121490  8965 net.cpp:125] norm1 needs backward computation.
I0909 21:56:18.121496  8965 net.cpp:66] Creating Layer conv2
I0909 21:56:18.121502  8965 net.cpp:329] conv2 <- norm1
I0909 21:56:18.121510  8965 net.cpp:290] conv2 -> conv2
I0909 21:56:18.130421  8965 net.cpp:83] Top shape: 10 256 27 27 (1866240)
I0909 21:56:18.130442  8965 net.cpp:125] conv2 needs backward computation.
I0909 21:56:18.130450  8965 net.cpp:66] Creating Layer relu2
I0909 21:56:18.130455  8965 net.cpp:329] relu2 <- conv2
I0909 21:56:18.130462  8965 net.cpp:280] relu2 -> conv2 (in-place)
I0909 21:56:18.130470  8965 net.cpp:83] Top shape: 10 256 27 27 (1866240)
I0909 21:56:18.130475  8965 net.cpp:125] relu2 needs backward computation.
I0909 21:56:18.130481  8965 net.cpp:66] Creating Layer pool2
I0909 21:56:18.130486  8965 net.cpp:329] pool2 <- conv2
I0909 21:56:18.130492  8965 net.cpp:290] pool2 -> pool2
I0909 21:56:18.130501  8965 net.cpp:83] Top shape: 10 256 13 13 (432640)
I0909 21:56:18.130506  8965 net.cpp:125] pool2 needs backward computation.
I0909 21:56:18.130512  8965 net.cpp:66] Creating Layer fc7
I0909 21:56:18.130517  8965 net.cpp:329] fc7 <- pool2
I0909 21:56:18.130527  8965 net.cpp:290] fc7 -> fc7
I0909 21:56:18.769603  8965 net.cpp:83] Top shape: 10 512 1 1 (5120)
I0909 21:56:18.769644  8965 net.cpp:125] fc7 needs backward computation.
I0909 21:56:18.769657  8965 net.cpp:66] Creating Layer relu7
I0909 21:56:18.769665  8965 net.cpp:329] relu7 <- fc7
I0909 21:56:18.769671  8965 net.cpp:280] relu7 -> fc7 (in-place)
I0909 21:56:18.769681  8965 net.cpp:83] Top shape: 10 512 1 1 (5120)
I0909 21:56:18.769687  8965 net.cpp:125] relu7 needs backward computation.
I0909 21:56:18.769695  8965 net.cpp:66] Creating Layer drop7
I0909 21:56:18.769700  8965 net.cpp:329] drop7 <- fc7
I0909 21:56:18.769706  8965 net.cpp:280] drop7 -> fc7 (in-place)
I0909 21:56:18.769717  8965 net.cpp:83] Top shape: 10 512 1 1 (5120)
I0909 21:56:18.769723  8965 net.cpp:125] drop7 needs backward computation.
I0909 21:56:18.769731  8965 net.cpp:66] Creating Layer fc8
I0909 21:56:18.769737  8965 net.cpp:329] fc8 <- fc7
I0909 21:56:18.769743  8965 net.cpp:290] fc8 -> fc8
I0909 21:56:18.777412  8965 net.cpp:83] Top shape: 10 512 1 1 (5120)
I0909 21:56:18.777436  8965 net.cpp:125] fc8 needs backward computation.
I0909 21:56:18.777443  8965 net.cpp:66] Creating Layer relu8
I0909 21:56:18.777448  8965 net.cpp:329] relu8 <- fc8
I0909 21:56:18.777456  8965 net.cpp:280] relu8 -> fc8 (in-place)
I0909 21:56:18.777462  8965 net.cpp:83] Top shape: 10 512 1 1 (5120)
I0909 21:56:18.777468  8965 net.cpp:125] relu8 needs backward computation.
I0909 21:56:18.777474  8965 net.cpp:66] Creating Layer drop8
I0909 21:56:18.777479  8965 net.cpp:329] drop8 <- fc8
I0909 21:56:18.777487  8965 net.cpp:280] drop8 -> fc8 (in-place)
I0909 21:56:18.777501  8965 net.cpp:83] Top shape: 10 512 1 1 (5120)
I0909 21:56:18.777508  8965 net.cpp:125] drop8 needs backward computation.
I0909 21:56:18.777523  8965 net.cpp:66] Creating Layer fc9
I0909 21:56:18.777530  8965 net.cpp:329] fc9 <- fc8
I0909 21:56:18.777546  8965 net.cpp:290] fc9 -> fc9
I0909 21:56:18.777928  8965 net.cpp:83] Top shape: 10 24 1 1 (240)
I0909 21:56:18.777940  8965 net.cpp:125] fc9 needs backward computation.
I0909 21:56:18.777948  8965 net.cpp:66] Creating Layer fc10
I0909 21:56:18.777953  8965 net.cpp:329] fc10 <- fc9
I0909 21:56:18.777962  8965 net.cpp:290] fc10 -> fc10
I0909 21:56:18.777973  8965 net.cpp:83] Top shape: 10 2 1 1 (20)
I0909 21:56:18.777983  8965 net.cpp:125] fc10 needs backward computation.
I0909 21:56:18.777990  8965 net.cpp:66] Creating Layer prob
I0909 21:56:18.777995  8965 net.cpp:329] prob <- fc10
I0909 21:56:18.778002  8965 net.cpp:290] prob -> prob
I0909 21:56:18.778012  8965 net.cpp:83] Top shape: 10 2 1 1 (20)
I0909 21:56:18.778018  8965 net.cpp:125] prob needs backward computation.
I0909 21:56:18.778023  8965 net.cpp:156] This network produces output prob
I0909 21:56:18.778035  8965 net.cpp:402] Collecting Learning Rate and Weight Decay.
I0909 21:56:18.778044  8965 net.cpp:167] Network initialization done.
I0909 21:56:18.778049  8965 net.cpp:168] Memory required for data: 6183480
Classifying 103 inputs.
Done in 65.60 s.
WARNING: Logging before InitGoogleLogging() is written to STDERR
E0909 21:57:26.901353  8969 upgrade_proto.cpp:575] Attempting to upgrade input file specified using deprecated V0LayerParameter: distribute/python/../../senti/model4_boost_deploy.prototxt
I0909 21:57:26.901506  8969 upgrade_proto.cpp:582] Successfully upgraded file specified using deprecated V0LayerParameter
E0909 21:57:26.901537  8969 upgrade_proto.cpp:585] Note that future Caffe releases will not support V0NetParameter; use ./build/tools/upgrade_net_proto_text.bin to upgrade this and any other network proto files to the new format.
I0909 21:57:26.901690  8969 net.cpp:38] Initializing net from parameters: 
layers {
  bottom: "data"
  top: "conv1"
  name: "conv1"
  type: CONVOLUTION
  blobs_lr: 1
  blobs_lr: 2
  weight_decay: 1
  weight_decay: 0
  convolution_param {
    num_output: 96
    kernel_size: 11
    stride: 4
    weight_filler {
      type: "gaussian"
      std: 0.01
    }
    bias_filler {
      type: "constant"
      value: 0
    }
  }
}
layers {
  bottom: "conv1"
  top: "conv1"
  name: "relu1"
  type: RELU
}
layers {
  bottom: "conv1"
  top: "pool1"
  name: "pool1"
  type: POOLING
  pooling_param {
    pool: MAX
    kernel_size: 3
    stride: 2
  }
}
layers {
  bottom: "pool1"
  top: "norm1"
  name: "norm1"
  type: LRN
  lrn_param {
    local_size: 5
    alpha: 0.0001
    beta: 0.75
  }
}
layers {
  bottom: "norm1"
  top: "conv2"
  name: "conv2"
  type: CONVOLUTION
  blobs_lr: 1
  blobs_lr: 2
  weight_decay: 1
  weight_decay: 0
  convolution_param {
    num_output: 256
    pad: 2
    kernel_size: 5
    group: 2
    weight_filler {
      type: "gaussian"
      std: 0.01
    }
    bias_filler {
      type: "constant"
      value: 1
    }
  }
}
layers {
  bottom: "conv2"
  top: "conv2"
  name: "relu2"
  type: RELU
}
layers {
  bottom: "conv2"
  top: "pool2"
  name: "pool2"
  type: POOLING
  pooling_param {
    pool: MAX
    kernel_size: 3
    stride: 2
  }
}
layers {
  bottom: "pool2"
  top: "fc7"
  name: "fc7"
  type: INNER_PRODUCT
  blobs_lr: 1
  blobs_lr: 2
  weight_decay: 1
  weight_decay: 0
  inner_product_param {
    num_output: 512
    weight_filler {
      type: "gaussian"
      std: 0.005
    }
    bias_filler {
      type: "constant"
      value: 1
    }
  }
}
layers {
  bottom: "fc7"
  top: "fc7"
  name: "relu7"
  type: RELU
}
layers {
  bottom: "fc7"
  top: "fc7"
  name: "drop7"
  type: DROPOUT
  dropout_param {
    dropout_ratio: 0.5
  }
}
layers {
  bottom: "fc7"
  top: "fc8"
  name: "fc8"
  type: INNER_PRODUCT
  blobs_lr: 1
  blobs_lr: 2
  weight_decay: 1
  weight_decay: 0
  inner_product_param {
    num_output: 512
    weight_filler {
      type: "gaussian"
      std: 0.005
    }
    bias_filler {
      type: "constant"
      value: 1
    }
  }
}
layers {
  bottom: "fc8"
  top: "fc8"
  name: "relu8"
  type: RELU
}
layers {
  bottom: "fc8"
  top: "fc8"
  name: "drop8"
  type: DROPOUT
  dropout_param {
    dropout_ratio: 0.5
  }
}
layers {
  bottom: "fc8"
  top: "fc9"
  name: "fc9"
  type: INNER_PRODUCT
  blobs_lr: 1
  blobs_lr: 2
  weight_decay: 1
  weight_decay: 0
  inner_product_param {
    num_output: 24
    weight_filler {
      type: "gaussian"
      std: 0.01
    }
    bias_filler {
      type: "constant"
      value: 0
    }
  }
}
layers {
  bottom: "fc9"
  top: "fc10"
  name: "fc10"
  type: INNER_PRODUCT
  blobs_lr: 1
  blobs_lr: 2
  weight_decay: 1
  weight_decay: 0
  inner_product_param {
    num_output: 2
    weight_filler {
      type: "gaussian"
      std: 0.01
    }
    bias_filler {
      type: "constant"
      value: 0
    }
  }
}
layers {
  bottom: "fc10"
  top: "prob"
  name: "prob"
  type: SOFTMAX
}
input: "data"
input_dim: 10
input_dim: 3
input_dim: 227
input_dim: 227
I0909 21:57:26.901743  8969 net.cpp:292] Input 0 -> data
I0909 21:57:26.901769  8969 net.cpp:66] Creating Layer conv1
I0909 21:57:26.901777  8969 net.cpp:329] conv1 <- data
I0909 21:57:26.901784  8969 net.cpp:290] conv1 -> conv1
I0909 21:57:26.903146  8969 net.cpp:83] Top shape: 10 96 55 55 (2904000)
I0909 21:57:26.903164  8969 net.cpp:125] conv1 needs backward computation.
I0909 21:57:26.903173  8969 net.cpp:66] Creating Layer relu1
I0909 21:57:26.903179  8969 net.cpp:329] relu1 <- conv1
I0909 21:57:26.903187  8969 net.cpp:280] relu1 -> conv1 (in-place)
I0909 21:57:26.903203  8969 net.cpp:83] Top shape: 10 96 55 55 (2904000)
I0909 21:57:26.903209  8969 net.cpp:125] relu1 needs backward computation.
I0909 21:57:26.903216  8969 net.cpp:66] Creating Layer pool1
I0909 21:57:26.903221  8969 net.cpp:329] pool1 <- conv1
I0909 21:57:26.903228  8969 net.cpp:290] pool1 -> pool1
I0909 21:57:26.903239  8969 net.cpp:83] Top shape: 10 96 27 27 (699840)
I0909 21:57:26.903245  8969 net.cpp:125] pool1 needs backward computation.
I0909 21:57:26.903252  8969 net.cpp:66] Creating Layer norm1
I0909 21:57:26.903257  8969 net.cpp:329] norm1 <- pool1
I0909 21:57:26.903264  8969 net.cpp:290] norm1 -> norm1
I0909 21:57:26.903275  8969 net.cpp:83] Top shape: 10 96 27 27 (699840)
I0909 21:57:26.903280  8969 net.cpp:125] norm1 needs backward computation.
I0909 21:57:26.903287  8969 net.cpp:66] Creating Layer conv2
I0909 21:57:26.903293  8969 net.cpp:329] conv2 <- norm1
I0909 21:57:26.903301  8969 net.cpp:290] conv2 -> conv2
I0909 21:57:26.912415  8969 net.cpp:83] Top shape: 10 256 27 27 (1866240)
I0909 21:57:26.912430  8969 net.cpp:125] conv2 needs backward computation.
I0909 21:57:26.912436  8969 net.cpp:66] Creating Layer relu2
I0909 21:57:26.912442  8969 net.cpp:329] relu2 <- conv2
I0909 21:57:26.912449  8969 net.cpp:280] relu2 -> conv2 (in-place)
I0909 21:57:26.912456  8969 net.cpp:83] Top shape: 10 256 27 27 (1866240)
I0909 21:57:26.912461  8969 net.cpp:125] relu2 needs backward computation.
I0909 21:57:26.912467  8969 net.cpp:66] Creating Layer pool2
I0909 21:57:26.912473  8969 net.cpp:329] pool2 <- conv2
I0909 21:57:26.912479  8969 net.cpp:290] pool2 -> pool2
I0909 21:57:26.912487  8969 net.cpp:83] Top shape: 10 256 13 13 (432640)
I0909 21:57:26.912493  8969 net.cpp:125] pool2 needs backward computation.
I0909 21:57:26.912503  8969 net.cpp:66] Creating Layer fc7
I0909 21:57:26.912508  8969 net.cpp:329] fc7 <- pool2
I0909 21:57:26.912515  8969 net.cpp:290] fc7 -> fc7
I0909 21:57:27.556325  8969 net.cpp:83] Top shape: 10 512 1 1 (5120)
I0909 21:57:27.556370  8969 net.cpp:125] fc7 needs backward computation.
I0909 21:57:27.556385  8969 net.cpp:66] Creating Layer relu7
I0909 21:57:27.556392  8969 net.cpp:329] relu7 <- fc7
I0909 21:57:27.556401  8969 net.cpp:280] relu7 -> fc7 (in-place)
I0909 21:57:27.556411  8969 net.cpp:83] Top shape: 10 512 1 1 (5120)
I0909 21:57:27.556416  8969 net.cpp:125] relu7 needs backward computation.
I0909 21:57:27.556423  8969 net.cpp:66] Creating Layer drop7
I0909 21:57:27.556429  8969 net.cpp:329] drop7 <- fc7
I0909 21:57:27.556437  8969 net.cpp:280] drop7 -> fc7 (in-place)
I0909 21:57:27.556448  8969 net.cpp:83] Top shape: 10 512 1 1 (5120)
I0909 21:57:27.556454  8969 net.cpp:125] drop7 needs backward computation.
I0909 21:57:27.556463  8969 net.cpp:66] Creating Layer fc8
I0909 21:57:27.556468  8969 net.cpp:329] fc8 <- fc7
I0909 21:57:27.556475  8969 net.cpp:290] fc8 -> fc8
I0909 21:57:27.564282  8969 net.cpp:83] Top shape: 10 512 1 1 (5120)
I0909 21:57:27.564296  8969 net.cpp:125] fc8 needs backward computation.
I0909 21:57:27.564302  8969 net.cpp:66] Creating Layer relu8
I0909 21:57:27.564307  8969 net.cpp:329] relu8 <- fc8
I0909 21:57:27.564314  8969 net.cpp:280] relu8 -> fc8 (in-place)
I0909 21:57:27.564321  8969 net.cpp:83] Top shape: 10 512 1 1 (5120)
I0909 21:57:27.564327  8969 net.cpp:125] relu8 needs backward computation.
I0909 21:57:27.564333  8969 net.cpp:66] Creating Layer drop8
I0909 21:57:27.564339  8969 net.cpp:329] drop8 <- fc8
I0909 21:57:27.564347  8969 net.cpp:280] drop8 -> fc8 (in-place)
I0909 21:57:27.564353  8969 net.cpp:83] Top shape: 10 512 1 1 (5120)
I0909 21:57:27.564359  8969 net.cpp:125] drop8 needs backward computation.
I0909 21:57:27.564368  8969 net.cpp:66] Creating Layer fc9
I0909 21:57:27.564373  8969 net.cpp:329] fc9 <- fc8
I0909 21:57:27.564380  8969 net.cpp:290] fc9 -> fc9
I0909 21:57:27.564757  8969 net.cpp:83] Top shape: 10 24 1 1 (240)
I0909 21:57:27.564767  8969 net.cpp:125] fc9 needs backward computation.
I0909 21:57:27.564776  8969 net.cpp:66] Creating Layer fc10
I0909 21:57:27.564781  8969 net.cpp:329] fc10 <- fc9
I0909 21:57:27.564800  8969 net.cpp:290] fc10 -> fc10
I0909 21:57:27.564813  8969 net.cpp:83] Top shape: 10 2 1 1 (20)
I0909 21:57:27.564822  8969 net.cpp:125] fc10 needs backward computation.
I0909 21:57:27.564829  8969 net.cpp:66] Creating Layer prob
I0909 21:57:27.564834  8969 net.cpp:329] prob <- fc10
I0909 21:57:27.564841  8969 net.cpp:290] prob -> prob
I0909 21:57:27.564851  8969 net.cpp:83] Top shape: 10 2 1 1 (20)
I0909 21:57:27.564857  8969 net.cpp:125] prob needs backward computation.
I0909 21:57:27.564862  8969 net.cpp:156] This network produces output prob
I0909 21:57:27.564873  8969 net.cpp:402] Collecting Learning Rate and Weight Decay.
I0909 21:57:27.564882  8969 net.cpp:167] Network initialization done.
I0909 21:57:27.564887  8969 net.cpp:168] Memory required for data: 6183480
Classifying 517 inputs.
Done in 531.65 s.
WARNING: Logging before InitGoogleLogging() is written to STDERR
E0909 22:07:15.866256  8989 upgrade_proto.cpp:575] Attempting to upgrade input file specified using deprecated V0LayerParameter: distribute/python/../../senti/model4_boost_deploy.prototxt
I0909 22:07:15.866401  8989 upgrade_proto.cpp:582] Successfully upgraded file specified using deprecated V0LayerParameter
E0909 22:07:15.866411  8989 upgrade_proto.cpp:585] Note that future Caffe releases will not support V0NetParameter; use ./build/tools/upgrade_net_proto_text.bin to upgrade this and any other network proto files to the new format.
I0909 22:07:15.866621  8989 net.cpp:38] Initializing net from parameters: 
layers {
  bottom: "data"
  top: "conv1"
  name: "conv1"
  type: CONVOLUTION
  blobs_lr: 1
  blobs_lr: 2
  weight_decay: 1
  weight_decay: 0
  convolution_param {
    num_output: 96
    kernel_size: 11
    stride: 4
    weight_filler {
      type: "gaussian"
      std: 0.01
    }
    bias_filler {
      type: "constant"
      value: 0
    }
  }
}
layers {
  bottom: "conv1"
  top: "conv1"
  name: "relu1"
  type: RELU
}
layers {
  bottom: "conv1"
  top: "pool1"
  name: "pool1"
  type: POOLING
  pooling_param {
    pool: MAX
    kernel_size: 3
    stride: 2
  }
}
layers {
  bottom: "pool1"
  top: "norm1"
  name: "norm1"
  type: LRN
  lrn_param {
    local_size: 5
    alpha: 0.0001
    beta: 0.75
  }
}
layers {
  bottom: "norm1"
  top: "conv2"
  name: "conv2"
  type: CONVOLUTION
  blobs_lr: 1
  blobs_lr: 2
  weight_decay: 1
  weight_decay: 0
  convolution_param {
    num_output: 256
    pad: 2
    kernel_size: 5
    group: 2
    weight_filler {
      type: "gaussian"
      std: 0.01
    }
    bias_filler {
      type: "constant"
      value: 1
    }
  }
}
layers {
  bottom: "conv2"
  top: "conv2"
  name: "relu2"
  type: RELU
}
layers {
  bottom: "conv2"
  top: "pool2"
  name: "pool2"
  type: POOLING
  pooling_param {
    pool: MAX
    kernel_size: 3
    stride: 2
  }
}
layers {
  bottom: "pool2"
  top: "fc7"
  name: "fc7"
  type: INNER_PRODUCT
  blobs_lr: 1
  blobs_lr: 2
  weight_decay: 1
  weight_decay: 0
  inner_product_param {
    num_output: 512
    weight_filler {
      type: "gaussian"
      std: 0.005
    }
    bias_filler {
      type: "constant"
      value: 1
    }
  }
}
layers {
  bottom: "fc7"
  top: "fc7"
  name: "relu7"
  type: RELU
}
layers {
  bottom: "fc7"
  top: "fc7"
  name: "drop7"
  type: DROPOUT
  dropout_param {
    dropout_ratio: 0.5
  }
}
layers {
  bottom: "fc7"
  top: "fc8"
  name: "fc8"
  type: INNER_PRODUCT
  blobs_lr: 1
  blobs_lr: 2
  weight_decay: 1
  weight_decay: 0
  inner_product_param {
    num_output: 512
    weight_filler {
      type: "gaussian"
      std: 0.005
    }
    bias_filler {
      type: "constant"
      value: 1
    }
  }
}
layers {
  bottom: "fc8"
  top: "fc8"
  name: "relu8"
  type: RELU
}
layers {
  bottom: "fc8"
  top: "fc8"
  name: "drop8"
  type: DROPOUT
  dropout_param {
    dropout_ratio: 0.5
  }
}
layers {
  bottom: "fc8"
  top: "fc9"
  name: "fc9"
  type: INNER_PRODUCT
  blobs_lr: 1
  blobs_lr: 2
  weight_decay: 1
  weight_decay: 0
  inner_product_param {
    num_output: 24
    weight_filler {
      type: "gaussian"
      std: 0.01
    }
    bias_filler {
      type: "constant"
      value: 0
    }
  }
}
layers {
  bottom: "fc9"
  top: "fc10"
  name: "fc10"
  type: INNER_PRODUCT
  blobs_lr: 1
  blobs_lr: 2
  weight_decay: 1
  weight_decay: 0
  inner_product_param {
    num_output: 2
    weight_filler {
      type: "gaussian"
      std: 0.01
    }
    bias_filler {
      type: "constant"
      value: 0
    }
  }
}
layers {
  bottom: "fc10"
  top: "prob"
  name: "prob"
  type: SOFTMAX
}
input: "data"
input_dim: 10
input_dim: 3
input_dim: 227
input_dim: 227
I0909 22:07:15.866684  8989 net.cpp:292] Input 0 -> data
I0909 22:07:15.866711  8989 net.cpp:66] Creating Layer conv1
I0909 22:07:15.866719  8989 net.cpp:329] conv1 <- data
I0909 22:07:15.866727  8989 net.cpp:290] conv1 -> conv1
I0909 22:07:15.916503  8989 net.cpp:83] Top shape: 10 96 55 55 (2904000)
I0909 22:07:15.916544  8989 net.cpp:125] conv1 needs backward computation.
I0909 22:07:15.916558  8989 net.cpp:66] Creating Layer relu1
I0909 22:07:15.916564  8989 net.cpp:329] relu1 <- conv1
I0909 22:07:15.916571  8989 net.cpp:280] relu1 -> conv1 (in-place)
I0909 22:07:15.916589  8989 net.cpp:83] Top shape: 10 96 55 55 (2904000)
I0909 22:07:15.916596  8989 net.cpp:125] relu1 needs backward computation.
I0909 22:07:15.916604  8989 net.cpp:66] Creating Layer pool1
I0909 22:07:15.916610  8989 net.cpp:329] pool1 <- conv1
I0909 22:07:15.916617  8989 net.cpp:290] pool1 -> pool1
I0909 22:07:15.916637  8989 net.cpp:83] Top shape: 10 96 27 27 (699840)
I0909 22:07:15.916643  8989 net.cpp:125] pool1 needs backward computation.
I0909 22:07:15.916651  8989 net.cpp:66] Creating Layer norm1
I0909 22:07:15.916656  8989 net.cpp:329] norm1 <- pool1
I0909 22:07:15.916663  8989 net.cpp:290] norm1 -> norm1
I0909 22:07:15.916673  8989 net.cpp:83] Top shape: 10 96 27 27 (699840)
I0909 22:07:15.916679  8989 net.cpp:125] norm1 needs backward computation.
I0909 22:07:15.916687  8989 net.cpp:66] Creating Layer conv2
I0909 22:07:15.916693  8989 net.cpp:329] conv2 <- norm1
I0909 22:07:15.916702  8989 net.cpp:290] conv2 -> conv2
I0909 22:07:15.925832  8989 net.cpp:83] Top shape: 10 256 27 27 (1866240)
I0909 22:07:15.925848  8989 net.cpp:125] conv2 needs backward computation.
I0909 22:07:15.925855  8989 net.cpp:66] Creating Layer relu2
I0909 22:07:15.925861  8989 net.cpp:329] relu2 <- conv2
I0909 22:07:15.925868  8989 net.cpp:280] relu2 -> conv2 (in-place)
I0909 22:07:15.925875  8989 net.cpp:83] Top shape: 10 256 27 27 (1866240)
I0909 22:07:15.925881  8989 net.cpp:125] relu2 needs backward computation.
I0909 22:07:15.925887  8989 net.cpp:66] Creating Layer pool2
I0909 22:07:15.925894  8989 net.cpp:329] pool2 <- conv2
I0909 22:07:15.925900  8989 net.cpp:290] pool2 -> pool2
I0909 22:07:15.925907  8989 net.cpp:83] Top shape: 10 256 13 13 (432640)
I0909 22:07:15.925914  8989 net.cpp:125] pool2 needs backward computation.
I0909 22:07:15.925921  8989 net.cpp:66] Creating Layer fc7
I0909 22:07:15.925927  8989 net.cpp:329] fc7 <- pool2
I0909 22:07:15.925936  8989 net.cpp:290] fc7 -> fc7
I0909 22:07:16.567801  8989 net.cpp:83] Top shape: 10 512 1 1 (5120)
I0909 22:07:16.567843  8989 net.cpp:125] fc7 needs backward computation.
I0909 22:07:16.567857  8989 net.cpp:66] Creating Layer relu7
I0909 22:07:16.567864  8989 net.cpp:329] relu7 <- fc7
I0909 22:07:16.567873  8989 net.cpp:280] relu7 -> fc7 (in-place)
I0909 22:07:16.567883  8989 net.cpp:83] Top shape: 10 512 1 1 (5120)
I0909 22:07:16.567888  8989 net.cpp:125] relu7 needs backward computation.
I0909 22:07:16.567895  8989 net.cpp:66] Creating Layer drop7
I0909 22:07:16.567900  8989 net.cpp:329] drop7 <- fc7
I0909 22:07:16.567909  8989 net.cpp:280] drop7 -> fc7 (in-place)
I0909 22:07:16.567919  8989 net.cpp:83] Top shape: 10 512 1 1 (5120)
I0909 22:07:16.567924  8989 net.cpp:125] drop7 needs backward computation.
I0909 22:07:16.567934  8989 net.cpp:66] Creating Layer fc8
I0909 22:07:16.567939  8989 net.cpp:329] fc8 <- fc7
I0909 22:07:16.567946  8989 net.cpp:290] fc8 -> fc8
I0909 22:07:16.575749  8989 net.cpp:83] Top shape: 10 512 1 1 (5120)
I0909 22:07:16.575762  8989 net.cpp:125] fc8 needs backward computation.
I0909 22:07:16.575780  8989 net.cpp:66] Creating Layer relu8
I0909 22:07:16.575786  8989 net.cpp:329] relu8 <- fc8
I0909 22:07:16.575793  8989 net.cpp:280] relu8 -> fc8 (in-place)
I0909 22:07:16.575800  8989 net.cpp:83] Top shape: 10 512 1 1 (5120)
I0909 22:07:16.575806  8989 net.cpp:125] relu8 needs backward computation.
I0909 22:07:16.575813  8989 net.cpp:66] Creating Layer drop8
I0909 22:07:16.575819  8989 net.cpp:329] drop8 <- fc8
I0909 22:07:16.575825  8989 net.cpp:280] drop8 -> fc8 (in-place)
I0909 22:07:16.575834  8989 net.cpp:83] Top shape: 10 512 1 1 (5120)
I0909 22:07:16.575839  8989 net.cpp:125] drop8 needs backward computation.
I0909 22:07:16.575846  8989 net.cpp:66] Creating Layer fc9
I0909 22:07:16.575851  8989 net.cpp:329] fc9 <- fc8
I0909 22:07:16.575860  8989 net.cpp:290] fc9 -> fc9
I0909 22:07:16.576233  8989 net.cpp:83] Top shape: 10 24 1 1 (240)
I0909 22:07:16.576244  8989 net.cpp:125] fc9 needs backward computation.
I0909 22:07:16.576252  8989 net.cpp:66] Creating Layer fc10
I0909 22:07:16.576257  8989 net.cpp:329] fc10 <- fc9
I0909 22:07:16.576267  8989 net.cpp:290] fc10 -> fc10
I0909 22:07:16.576277  8989 net.cpp:83] Top shape: 10 2 1 1 (20)
I0909 22:07:16.576287  8989 net.cpp:125] fc10 needs backward computation.
I0909 22:07:16.576294  8989 net.cpp:66] Creating Layer prob
I0909 22:07:16.576299  8989 net.cpp:329] prob <- fc10
I0909 22:07:16.576306  8989 net.cpp:290] prob -> prob
I0909 22:07:16.576315  8989 net.cpp:83] Top shape: 10 2 1 1 (20)
I0909 22:07:16.576321  8989 net.cpp:125] prob needs backward computation.
I0909 22:07:16.576326  8989 net.cpp:156] This network produces output prob
I0909 22:07:16.576340  8989 net.cpp:402] Collecting Learning Rate and Weight Decay.
I0909 22:07:16.576349  8989 net.cpp:167] Network initialization done.
I0909 22:07:16.576354  8989 net.cpp:168] Memory required for data: 6183480
Classifying 193 inputs.
Done in 126.06 s.
WARNING: Logging before InitGoogleLogging() is written to STDERR
E0909 22:09:30.748560  9013 upgrade_proto.cpp:575] Attempting to upgrade input file specified using deprecated V0LayerParameter: distribute/python/../../senti/model4_boost_deploy.prototxt
I0909 22:09:30.748706  9013 upgrade_proto.cpp:582] Successfully upgraded file specified using deprecated V0LayerParameter
E0909 22:09:30.748716  9013 upgrade_proto.cpp:585] Note that future Caffe releases will not support V0NetParameter; use ./build/tools/upgrade_net_proto_text.bin to upgrade this and any other network proto files to the new format.
I0909 22:09:30.748865  9013 net.cpp:38] Initializing net from parameters: 
layers {
  bottom: "data"
  top: "conv1"
  name: "conv1"
  type: CONVOLUTION
  blobs_lr: 1
  blobs_lr: 2
  weight_decay: 1
  weight_decay: 0
  convolution_param {
    num_output: 96
    kernel_size: 11
    stride: 4
    weight_filler {
      type: "gaussian"
      std: 0.01
    }
    bias_filler {
      type: "constant"
      value: 0
    }
  }
}
layers {
  bottom: "conv1"
  top: "conv1"
  name: "relu1"
  type: RELU
}
layers {
  bottom: "conv1"
  top: "pool1"
  name: "pool1"
  type: POOLING
  pooling_param {
    pool: MAX
    kernel_size: 3
    stride: 2
  }
}
layers {
  bottom: "pool1"
  top: "norm1"
  name: "norm1"
  type: LRN
  lrn_param {
    local_size: 5
    alpha: 0.0001
    beta: 0.75
  }
}
layers {
  bottom: "norm1"
  top: "conv2"
  name: "conv2"
  type: CONVOLUTION
  blobs_lr: 1
  blobs_lr: 2
  weight_decay: 1
  weight_decay: 0
  convolution_param {
    num_output: 256
    pad: 2
    kernel_size: 5
    group: 2
    weight_filler {
      type: "gaussian"
      std: 0.01
    }
    bias_filler {
      type: "constant"
      value: 1
    }
  }
}
layers {
  bottom: "conv2"
  top: "conv2"
  name: "relu2"
  type: RELU
}
layers {
  bottom: "conv2"
  top: "pool2"
  name: "pool2"
  type: POOLING
  pooling_param {
    pool: MAX
    kernel_size: 3
    stride: 2
  }
}
layers {
  bottom: "pool2"
  top: "fc7"
  name: "fc7"
  type: INNER_PRODUCT
  blobs_lr: 1
  blobs_lr: 2
  weight_decay: 1
  weight_decay: 0
  inner_product_param {
    num_output: 512
    weight_filler {
      type: "gaussian"
      std: 0.005
    }
    bias_filler {
      type: "constant"
      value: 1
    }
  }
}
layers {
  bottom: "fc7"
  top: "fc7"
  name: "relu7"
  type: RELU
}
layers {
  bottom: "fc7"
  top: "fc7"
  name: "drop7"
  type: DROPOUT
  dropout_param {
    dropout_ratio: 0.5
  }
}
layers {
  bottom: "fc7"
  top: "fc8"
  name: "fc8"
  type: INNER_PRODUCT
  blobs_lr: 1
  blobs_lr: 2
  weight_decay: 1
  weight_decay: 0
  inner_product_param {
    num_output: 512
    weight_filler {
      type: "gaussian"
      std: 0.005
    }
    bias_filler {
      type: "constant"
      value: 1
    }
  }
}
layers {
  bottom: "fc8"
  top: "fc8"
  name: "relu8"
  type: RELU
}
layers {
  bottom: "fc8"
  top: "fc8"
  name: "drop8"
  type: DROPOUT
  dropout_param {
    dropout_ratio: 0.5
  }
}
layers {
  bottom: "fc8"
  top: "fc9"
  name: "fc9"
  type: INNER_PRODUCT
  blobs_lr: 1
  blobs_lr: 2
  weight_decay: 1
  weight_decay: 0
  inner_product_param {
    num_output: 24
    weight_filler {
      type: "gaussian"
      std: 0.01
    }
    bias_filler {
      type: "constant"
      value: 0
    }
  }
}
layers {
  bottom: "fc9"
  top: "fc10"
  name: "fc10"
  type: INNER_PRODUCT
  blobs_lr: 1
  blobs_lr: 2
  weight_decay: 1
  weight_decay: 0
  inner_product_param {
    num_output: 2
    weight_filler {
      type: "gaussian"
      std: 0.01
    }
    bias_filler {
      type: "constant"
      value: 0
    }
  }
}
layers {
  bottom: "fc10"
  top: "prob"
  name: "prob"
  type: SOFTMAX
}
input: "data"
input_dim: 10
input_dim: 3
input_dim: 227
input_dim: 227
I0909 22:09:30.748934  9013 net.cpp:292] Input 0 -> data
I0909 22:09:30.748960  9013 net.cpp:66] Creating Layer conv1
I0909 22:09:30.748966  9013 net.cpp:329] conv1 <- data
I0909 22:09:30.748975  9013 net.cpp:290] conv1 -> conv1
I0909 22:09:30.750360  9013 net.cpp:83] Top shape: 10 96 55 55 (2904000)
I0909 22:09:30.750381  9013 net.cpp:125] conv1 needs backward computation.
I0909 22:09:30.750391  9013 net.cpp:66] Creating Layer relu1
I0909 22:09:30.750396  9013 net.cpp:329] relu1 <- conv1
I0909 22:09:30.750403  9013 net.cpp:280] relu1 -> conv1 (in-place)
I0909 22:09:30.750412  9013 net.cpp:83] Top shape: 10 96 55 55 (2904000)
I0909 22:09:30.750418  9013 net.cpp:125] relu1 needs backward computation.
I0909 22:09:30.750426  9013 net.cpp:66] Creating Layer pool1
I0909 22:09:30.750432  9013 net.cpp:329] pool1 <- conv1
I0909 22:09:30.750438  9013 net.cpp:290] pool1 -> pool1
I0909 22:09:30.750449  9013 net.cpp:83] Top shape: 10 96 27 27 (699840)
I0909 22:09:30.750455  9013 net.cpp:125] pool1 needs backward computation.
I0909 22:09:30.750462  9013 net.cpp:66] Creating Layer norm1
I0909 22:09:30.750468  9013 net.cpp:329] norm1 <- pool1
I0909 22:09:30.750474  9013 net.cpp:290] norm1 -> norm1
I0909 22:09:30.750483  9013 net.cpp:83] Top shape: 10 96 27 27 (699840)
I0909 22:09:30.750489  9013 net.cpp:125] norm1 needs backward computation.
I0909 22:09:30.750497  9013 net.cpp:66] Creating Layer conv2
I0909 22:09:30.750504  9013 net.cpp:329] conv2 <- norm1
I0909 22:09:30.750510  9013 net.cpp:290] conv2 -> conv2
I0909 22:09:30.759603  9013 net.cpp:83] Top shape: 10 256 27 27 (1866240)
I0909 22:09:30.759618  9013 net.cpp:125] conv2 needs backward computation.
I0909 22:09:30.759624  9013 net.cpp:66] Creating Layer relu2
I0909 22:09:30.759629  9013 net.cpp:329] relu2 <- conv2
I0909 22:09:30.759636  9013 net.cpp:280] relu2 -> conv2 (in-place)
I0909 22:09:30.759644  9013 net.cpp:83] Top shape: 10 256 27 27 (1866240)
I0909 22:09:30.759649  9013 net.cpp:125] relu2 needs backward computation.
I0909 22:09:30.759655  9013 net.cpp:66] Creating Layer pool2
I0909 22:09:30.759660  9013 net.cpp:329] pool2 <- conv2
I0909 22:09:30.759667  9013 net.cpp:290] pool2 -> pool2
I0909 22:09:30.759675  9013 net.cpp:83] Top shape: 10 256 13 13 (432640)
I0909 22:09:30.759681  9013 net.cpp:125] pool2 needs backward computation.
I0909 22:09:30.759688  9013 net.cpp:66] Creating Layer fc7
I0909 22:09:30.759693  9013 net.cpp:329] fc7 <- pool2
I0909 22:09:30.759703  9013 net.cpp:290] fc7 -> fc7
I0909 22:09:31.396900  9013 net.cpp:83] Top shape: 10 512 1 1 (5120)
I0909 22:09:31.396956  9013 net.cpp:125] fc7 needs backward computation.
I0909 22:09:31.396970  9013 net.cpp:66] Creating Layer relu7
I0909 22:09:31.396977  9013 net.cpp:329] relu7 <- fc7
I0909 22:09:31.396986  9013 net.cpp:280] relu7 -> fc7 (in-place)
I0909 22:09:31.396996  9013 net.cpp:83] Top shape: 10 512 1 1 (5120)
I0909 22:09:31.397001  9013 net.cpp:125] relu7 needs backward computation.
I0909 22:09:31.397008  9013 net.cpp:66] Creating Layer drop7
I0909 22:09:31.397013  9013 net.cpp:329] drop7 <- fc7
I0909 22:09:31.397022  9013 net.cpp:280] drop7 -> fc7 (in-place)
I0909 22:09:31.397032  9013 net.cpp:83] Top shape: 10 512 1 1 (5120)
I0909 22:09:31.397037  9013 net.cpp:125] drop7 needs backward computation.
I0909 22:09:31.397045  9013 net.cpp:66] Creating Layer fc8
I0909 22:09:31.397050  9013 net.cpp:329] fc8 <- fc7
I0909 22:09:31.397058  9013 net.cpp:290] fc8 -> fc8
I0909 22:09:31.404609  9013 net.cpp:83] Top shape: 10 512 1 1 (5120)
I0909 22:09:31.404621  9013 net.cpp:125] fc8 needs backward computation.
I0909 22:09:31.404628  9013 net.cpp:66] Creating Layer relu8
I0909 22:09:31.404633  9013 net.cpp:329] relu8 <- fc8
I0909 22:09:31.404640  9013 net.cpp:280] relu8 -> fc8 (in-place)
I0909 22:09:31.404647  9013 net.cpp:83] Top shape: 10 512 1 1 (5120)
I0909 22:09:31.404652  9013 net.cpp:125] relu8 needs backward computation.
I0909 22:09:31.404659  9013 net.cpp:66] Creating Layer drop8
I0909 22:09:31.404664  9013 net.cpp:329] drop8 <- fc8
I0909 22:09:31.404671  9013 net.cpp:280] drop8 -> fc8 (in-place)
I0909 22:09:31.404678  9013 net.cpp:83] Top shape: 10 512 1 1 (5120)
I0909 22:09:31.404685  9013 net.cpp:125] drop8 needs backward computation.
I0909 22:09:31.404691  9013 net.cpp:66] Creating Layer fc9
I0909 22:09:31.404696  9013 net.cpp:329] fc9 <- fc8
I0909 22:09:31.404705  9013 net.cpp:290] fc9 -> fc9
I0909 22:09:31.405067  9013 net.cpp:83] Top shape: 10 24 1 1 (240)
I0909 22:09:31.405077  9013 net.cpp:125] fc9 needs backward computation.
I0909 22:09:31.405086  9013 net.cpp:66] Creating Layer fc10
I0909 22:09:31.405091  9013 net.cpp:329] fc10 <- fc9
I0909 22:09:31.405099  9013 net.cpp:290] fc10 -> fc10
I0909 22:09:31.405110  9013 net.cpp:83] Top shape: 10 2 1 1 (20)
I0909 22:09:31.405119  9013 net.cpp:125] fc10 needs backward computation.
I0909 22:09:31.405127  9013 net.cpp:66] Creating Layer prob
I0909 22:09:31.405132  9013 net.cpp:329] prob <- fc10
I0909 22:09:31.405138  9013 net.cpp:290] prob -> prob
I0909 22:09:31.405148  9013 net.cpp:83] Top shape: 10 2 1 1 (20)
I0909 22:09:31.405153  9013 net.cpp:125] prob needs backward computation.
I0909 22:09:31.405158  9013 net.cpp:156] This network produces output prob
I0909 22:09:31.405170  9013 net.cpp:402] Collecting Learning Rate and Weight Decay.
I0909 22:09:31.405179  9013 net.cpp:167] Network initialization done.
I0909 22:09:31.405184  9013 net.cpp:168] Memory required for data: 6183480
Traceback (most recent call last):
…
