…
E0905 17:06:10.226467 31654 upgrade_proto.cpp:575] Attempting to upgrade input file specified using deprecated V0LayerParameter: distribute/python/../../senti/model4_boost_deploy.prototxt
I0905 17:06:10.226624 31654 upgrade_proto.cpp:582] Successfully upgraded file specified using deprecated V0LayerParameter
E0905 17:06:10.226632 31654 upgrade_proto.cpp:585] Note that future Caffe releases will not support V0NetParameter; use ./build/tools/upgrade_net_proto_text.bin to upgrade this and any other network proto files to the new format.
I0905 17:06:10.226788 31654 net.cpp:38] Initializing net from parameters: 
layers {
  bottom: "data"
  top: "conv1"
  name: "conv1"
  type: CONVOLUTION
  blobs_lr: 1
  blobs_lr: 2
  weight_decay: 1
  weight_decay: 0
  convolution_param {
    num_output: 96
    kernel_size: 11
    stride: 4
    weight_filler {
      type: "gaussian"
      std: 0.01
    }
    bias_filler {
      type: "constant"
      value: 0
    }
  }
}
layers {
  bottom: "conv1"
  top: "conv1"
  name: "relu1"
  type: RELU
}
layers {
  bottom: "conv1"
  top: "pool1"
  name: "pool1"
  type: POOLING
  pooling_param {
    pool: MAX
    kernel_size: 3
    stride: 2
  }
}
layers {
  bottom: "pool1"
  top: "norm1"
  name: "norm1"
  type: LRN
  lrn_param {
    local_size: 5
    alpha: 0.0001
    beta: 0.75
  }
}
layers {
  bottom: "norm1"
  top: "conv2"
  name: "conv2"
  type: CONVOLUTION
  blobs_lr: 1
  blobs_lr: 2
  weight_decay: 1
  weight_decay: 0
  convolution_param {
    num_output: 256
    pad: 2
    kernel_size: 5
    group: 2
    weight_filler {
      type: "gaussian"
      std: 0.01
    }
    bias_filler {
      type: "constant"
      value: 1
    }
  }
}
layers {
  bottom: "conv2"
  top: "conv2"
  name: "relu2"
  type: RELU
}
layers {
  bottom: "conv2"
  top: "pool2"
  name: "pool2"
  type: POOLING
  pooling_param {
    pool: MAX
    kernel_size: 3
    stride: 2
  }
}
layers {
  bottom: "pool2"
  top: "fc7"
  name: "fc7"
  type: INNER_PRODUCT
  blobs_lr: 1
  blobs_lr: 2
  weight_decay: 1
  weight_decay: 0
  inner_product_param {
    num_output: 512
    weight_filler {
      type: "gaussian"
      std: 0.005
    }
    bias_filler {
      type: "constant"
      value: 1
    }
  }
}
layers {
  bottom: "fc7"
  top: "fc7"
  name: "relu7"
  type: RELU
}
layers {
  bottom: "fc7"
  top: "fc7"
  name: "drop7"
  type: DROPOUT
  dropout_param {
    dropout_ratio: 0.5
  }
}
layers {
  bottom: "fc7"
  top: "fc8"
  name: "fc8"
  type: INNER_PRODUCT
  blobs_lr: 1
  blobs_lr: 2
  weight_decay: 1
  weight_decay: 0
  inner_product_param {
    num_output: 512
    weight_filler {
      type: "gaussian"
      std: 0.005
    }
    bias_filler {
      type: "constant"
      value: 1
    }
  }
}
layers {
  bottom: "fc8"
  top: "fc8"
  name: "relu8"
  type: RELU
}
layers {
  bottom: "fc8"
  top: "fc8"
  name: "drop8"
  type: DROPOUT
  dropout_param {
    dropout_ratio: 0.5
  }
}
layers {
  bottom: "fc8"
  top: "fc9"
  name: "fc9"
  type: INNER_PRODUCT
  blobs_lr: 1
  blobs_lr: 2
  weight_decay: 1
  weight_decay: 0
  inner_product_param {
    num_output: 24
    weight_filler {
      type: "gaussian"
      std: 0.01
    }
    bias_filler {
      type: "constant"
      value: 0
    }
  }
}
layers {
  bottom: "fc9"
  top: "fc10"
  name: "fc10"
  type: INNER_PRODUCT
  blobs_lr: 1
  blobs_lr: 2
  weight_decay: 1
  weight_decay: 0
  inner_product_param {
    num_output: 2
    weight_filler {
      type: "gaussian"
      std: 0.01
    }
    bias_filler {
      type: "constant"
      value: 0
    }
  }
}
layers {
  bottom: "fc10"
  top: "prob"
  name: "prob"
  type: SOFTMAX
}
input: "data"
input_dim: 10
input_dim: 3
input_dim: 227
input_dim: 227
I0905 17:06:10.226840 31654 net.cpp:292] Input 0 -> data
I0905 17:06:10.226865 31654 net.cpp:66] Creating Layer conv1
I0905 17:06:10.226871 31654 net.cpp:329] conv1 <- data
I0905 17:06:10.226878 31654 net.cpp:290] conv1 -> conv1
I0905 17:06:10.228196 31654 net.cpp:83] Top shape: 10 96 55 55 (2904000)
I0905 17:06:10.228214 31654 net.cpp:125] conv1 needs backward computation.
I0905 17:06:10.228229 31654 net.cpp:66] Creating Layer relu1
I0905 17:06:10.228235 31654 net.cpp:329] relu1 <- conv1
I0905 17:06:10.228241 31654 net.cpp:280] relu1 -> conv1 (in-place)
I0905 17:06:10.228250 31654 net.cpp:83] Top shape: 10 96 55 55 (2904000)
I0905 17:06:10.228255 31654 net.cpp:125] relu1 needs backward computation.
I0905 17:06:10.228262 31654 net.cpp:66] Creating Layer pool1
I0905 17:06:10.228267 31654 net.cpp:329] pool1 <- conv1
I0905 17:06:10.228274 31654 net.cpp:290] pool1 -> pool1
I0905 17:06:10.228286 31654 net.cpp:83] Top shape: 10 96 27 27 (699840)
I0905 17:06:10.228291 31654 net.cpp:125] pool1 needs backward computation.
I0905 17:06:10.228297 31654 net.cpp:66] Creating Layer norm1
I0905 17:06:10.228303 31654 net.cpp:329] norm1 <- pool1
I0905 17:06:10.228309 31654 net.cpp:290] norm1 -> norm1
I0905 17:06:10.228319 31654 net.cpp:83] Top shape: 10 96 27 27 (699840)
I0905 17:06:10.228325 31654 net.cpp:125] norm1 needs backward computation.
I0905 17:06:10.228332 31654 net.cpp:66] Creating Layer conv2
I0905 17:06:10.228338 31654 net.cpp:329] conv2 <- norm1
I0905 17:06:10.228344 31654 net.cpp:290] conv2 -> conv2
I0905 17:06:10.237709 31654 net.cpp:83] Top shape: 10 256 27 27 (1866240)
I0905 17:06:10.237740 31654 net.cpp:125] conv2 needs backward computation.
I0905 17:06:10.237748 31654 net.cpp:66] Creating Layer relu2
I0905 17:06:10.237754 31654 net.cpp:329] relu2 <- conv2
I0905 17:06:10.237761 31654 net.cpp:280] relu2 -> conv2 (in-place)
I0905 17:06:10.237771 31654 net.cpp:83] Top shape: 10 256 27 27 (1866240)
I0905 17:06:10.237776 31654 net.cpp:125] relu2 needs backward computation.
I0905 17:06:10.237788 31654 net.cpp:66] Creating Layer pool2
I0905 17:06:10.237793 31654 net.cpp:329] pool2 <- conv2
I0905 17:06:10.237800 31654 net.cpp:290] pool2 -> pool2
I0905 17:06:10.237810 31654 net.cpp:83] Top shape: 10 256 13 13 (432640)
I0905 17:06:10.237815 31654 net.cpp:125] pool2 needs backward computation.
I0905 17:06:10.237823 31654 net.cpp:66] Creating Layer fc7
I0905 17:06:10.237829 31654 net.cpp:329] fc7 <- pool2
I0905 17:06:10.237836 31654 net.cpp:290] fc7 -> fc7
I0905 17:06:10.871584 31654 net.cpp:83] Top shape: 10 512 1 1 (5120)
I0905 17:06:10.871628 31654 net.cpp:125] fc7 needs backward computation.
I0905 17:06:10.871640 31654 net.cpp:66] Creating Layer relu7
I0905 17:06:10.871647 31654 net.cpp:329] relu7 <- fc7
I0905 17:06:10.871656 31654 net.cpp:280] relu7 -> fc7 (in-place)
I0905 17:06:10.871666 31654 net.cpp:83] Top shape: 10 512 1 1 (5120)
I0905 17:06:10.871672 31654 net.cpp:125] relu7 needs backward computation.
I0905 17:06:10.871680 31654 net.cpp:66] Creating Layer drop7
I0905 17:06:10.871685 31654 net.cpp:329] drop7 <- fc7
I0905 17:06:10.871691 31654 net.cpp:280] drop7 -> fc7 (in-place)
I0905 17:06:10.871701 31654 net.cpp:83] Top shape: 10 512 1 1 (5120)
I0905 17:06:10.871707 31654 net.cpp:125] drop7 needs backward computation.
I0905 17:06:10.871716 31654 net.cpp:66] Creating Layer fc8
I0905 17:06:10.871721 31654 net.cpp:329] fc8 <- fc7
I0905 17:06:10.871731 31654 net.cpp:290] fc8 -> fc8
I0905 17:06:10.879344 31654 net.cpp:83] Top shape: 10 512 1 1 (5120)
I0905 17:06:10.879356 31654 net.cpp:125] fc8 needs backward computation.
I0905 17:06:10.879364 31654 net.cpp:66] Creating Layer relu8
I0905 17:06:10.879369 31654 net.cpp:329] relu8 <- fc8
I0905 17:06:10.879376 31654 net.cpp:280] relu8 -> fc8 (in-place)
I0905 17:06:10.879384 31654 net.cpp:83] Top shape: 10 512 1 1 (5120)
I0905 17:06:10.879390 31654 net.cpp:125] relu8 needs backward computation.
I0905 17:06:10.879396 31654 net.cpp:66] Creating Layer drop8
I0905 17:06:10.879401 31654 net.cpp:329] drop8 <- fc8
I0905 17:06:10.879407 31654 net.cpp:280] drop8 -> fc8 (in-place)
I0905 17:06:10.879415 31654 net.cpp:83] Top shape: 10 512 1 1 (5120)
I0905 17:06:10.879420 31654 net.cpp:125] drop8 needs backward computation.
I0905 17:06:10.879428 31654 net.cpp:66] Creating Layer fc9
I0905 17:06:10.879434 31654 net.cpp:329] fc9 <- fc8
I0905 17:06:10.879441 31654 net.cpp:290] fc9 -> fc9
I0905 17:06:10.879806 31654 net.cpp:83] Top shape: 10 24 1 1 (240)
I0905 17:06:10.879827 31654 net.cpp:125] fc9 needs backward computation.
I0905 17:06:10.879834 31654 net.cpp:66] Creating Layer fc10
I0905 17:06:10.879840 31654 net.cpp:329] fc10 <- fc9
I0905 17:06:10.879848 31654 net.cpp:290] fc10 -> fc10
I0905 17:06:10.879860 31654 net.cpp:83] Top shape: 10 2 1 1 (20)
I0905 17:06:10.879868 31654 net.cpp:125] fc10 needs backward computation.
I0905 17:06:10.879874 31654 net.cpp:66] Creating Layer prob
I0905 17:06:10.879879 31654 net.cpp:329] prob <- fc10
I0905 17:06:10.879887 31654 net.cpp:290] prob -> prob
I0905 17:06:10.879896 31654 net.cpp:83] Top shape: 10 2 1 1 (20)
I0905 17:06:10.879902 31654 net.cpp:125] prob needs backward computation.
I0905 17:06:10.879907 31654 net.cpp:156] This network produces output prob
I0905 17:06:10.879920 31654 net.cpp:402] Collecting Learning Rate and Weight Decay.
I0905 17:06:10.879928 31654 net.cpp:167] Network initialization done.
I0905 17:06:10.879933 31654 net.cpp:168] Memory required for data: 6183480
Classifying 919 inputs.
Done in 565.04 s.
Traceback (most recent call last):
  File "distribute/python/classify_m.py", line 156, in <module>
    main(sys.argv)
  File "distribute/python/classify_m.py", line 145, in main
    prediction = predictions[i]
IndexError: index 19 is out of bounds for axis 0 with size 19
WARNING: Logging before InitGoogleLogging() is written to STDERR
E0905 17:15:58.582005 31785 upgrade_proto.cpp:575] Attempting to upgrade input file specified using deprecated V0LayerParameter: distribute/python/../../senti/model4_boost_deploy.prototxt
I0905 17:15:58.582149 31785 upgrade_proto.cpp:582] Successfully upgraded file specified using deprecated V0LayerParameter
E0905 17:15:58.582159 31785 upgrade_proto.cpp:585] Note that future Caffe releases will not support V0NetParameter; use ./build/tools/upgrade_net_proto_text.bin to upgrade this and any other network proto files to the new format.
I0905 17:15:58.582301 31785 net.cpp:38] Initializing net from parameters: 
layers {
  bottom: "data"
  top: "conv1"
  name: "conv1"
  type: CONVOLUTION
  blobs_lr: 1
  blobs_lr: 2
  weight_decay: 1
  weight_decay: 0
  convolution_param {
    num_output: 96
    kernel_size: 11
    stride: 4
    weight_filler {
      type: "gaussian"
      std: 0.01
    }
    bias_filler {
      type: "constant"
      value: 0
    }
  }
}
layers {
  bottom: "conv1"
  top: "conv1"
  name: "relu1"
  type: RELU
}
layers {
  bottom: "conv1"
  top: "pool1"
  name: "pool1"
  type: POOLING
  pooling_param {
    pool: MAX
    kernel_size: 3
    stride: 2
  }
}
layers {
  bottom: "pool1"
  top: "norm1"
  name: "norm1"
  type: LRN
  lrn_param {
    local_size: 5
    alpha: 0.0001
    beta: 0.75
  }
}
layers {
  bottom: "norm1"
  top: "conv2"
  name: "conv2"
  type: CONVOLUTION
  blobs_lr: 1
  blobs_lr: 2
  weight_decay: 1
  weight_decay: 0
  convolution_param {
    num_output: 256
    pad: 2
    kernel_size: 5
    group: 2
    weight_filler {
      type: "gaussian"
      std: 0.01
    }
    bias_filler {
      type: "constant"
      value: 1
    }
  }
}
layers {
  bottom: "conv2"
  top: "conv2"
  name: "relu2"
  type: RELU
}
layers {
  bottom: "conv2"
  top: "pool2"
  name: "pool2"
  type: POOLING
  pooling_param {
    pool: MAX
    kernel_size: 3
    stride: 2
  }
}
layers {
  bottom: "pool2"
  top: "fc7"
  name: "fc7"
  type: INNER_PRODUCT
  blobs_lr: 1
  blobs_lr: 2
  weight_decay: 1
  weight_decay: 0
  inner_product_param {
    num_output: 512
    weight_filler {
      type: "gaussian"
      std: 0.005
    }
    bias_filler {
      type: "constant"
      value: 1
    }
  }
}
layers {
  bottom: "fc7"
  top: "fc7"
  name: "relu7"
  type: RELU
}
layers {
  bottom: "fc7"
  top: "fc7"
  name: "drop7"
  type: DROPOUT
  dropout_param {
    dropout_ratio: 0.5
  }
}
layers {
  bottom: "fc7"
  top: "fc8"
  name: "fc8"
  type: INNER_PRODUCT
  blobs_lr: 1
  blobs_lr: 2
  weight_decay: 1
  weight_decay: 0
  inner_product_param {
    num_output: 512
    weight_filler {
      type: "gaussian"
      std: 0.005
    }
    bias_filler {
      type: "constant"
      value: 1
    }
  }
}
layers {
  bottom: "fc8"
  top: "fc8"
  name: "relu8"
  type: RELU
}
layers {
  bottom: "fc8"
  top: "fc8"
  name: "drop8"
  type: DROPOUT
  dropout_param {
    dropout_ratio: 0.5
  }
}
layers {
  bottom: "fc8"
  top: "fc9"
  name: "fc9"
  type: INNER_PRODUCT
  blobs_lr: 1
  blobs_lr: 2
  weight_decay: 1
  weight_decay: 0
  inner_product_param {
    num_output: 24
    weight_filler {
      type: "gaussian"
      std: 0.01
    }
    bias_filler {
      type: "constant"
      value: 0
    }
  }
}
layers {
  bottom: "fc9"
  top: "fc10"
  name: "fc10"
  type: INNER_PRODUCT
  blobs_lr: 1
  blobs_lr: 2
  weight_decay: 1
  weight_decay: 0
  inner_product_param {
    num_output: 2
    weight_filler {
      type: "gaussian"
      std: 0.01
    }
    bias_filler {
      type: "constant"
      value: 0
    }
  }
}
layers {
  bottom: "fc10"
  top: "prob"
  name: "prob"
  type: SOFTMAX
}
input: "data"
input_dim: 10
input_dim: 3
input_dim: 227
input_dim: 227
I0905 17:15:58.582360 31785 net.cpp:292] Input 0 -> data
I0905 17:15:58.582386 31785 net.cpp:66] Creating Layer conv1
I0905 17:15:58.582393 31785 net.cpp:329] conv1 <- data
I0905 17:15:58.582401 31785 net.cpp:290] conv1 -> conv1
I0905 17:15:58.607363 31785 net.cpp:83] Top shape: 10 96 55 55 (2904000)
I0905 17:15:58.607388 31785 net.cpp:125] conv1 needs backward computation.
I0905 17:15:58.607398 31785 net.cpp:66] Creating Layer relu1
I0905 17:15:58.607404 31785 net.cpp:329] relu1 <- conv1
I0905 17:15:58.607411 31785 net.cpp:280] relu1 -> conv1 (in-place)
I0905 17:15:58.607420 31785 net.cpp:83] Top shape: 10 96 55 55 (2904000)
I0905 17:15:58.607425 31785 net.cpp:125] relu1 needs backward computation.
I0905 17:15:58.607432 31785 net.cpp:66] Creating Layer pool1
I0905 17:15:58.607439 31785 net.cpp:329] pool1 <- conv1
I0905 17:15:58.607445 31785 net.cpp:290] pool1 -> pool1
I0905 17:15:58.607455 31785 net.cpp:83] Top shape: 10 96 27 27 (699840)
I0905 17:15:58.607461 31785 net.cpp:125] pool1 needs backward computation.
I0905 17:15:58.607468 31785 net.cpp:66] Creating Layer norm1
I0905 17:15:58.607473 31785 net.cpp:329] norm1 <- pool1
I0905 17:15:58.607481 31785 net.cpp:290] norm1 -> norm1
I0905 17:15:58.607489 31785 net.cpp:83] Top shape: 10 96 27 27 (699840)
I0905 17:15:58.607496 31785 net.cpp:125] norm1 needs backward computation.
I0905 17:15:58.607509 31785 net.cpp:66] Creating Layer conv2
I0905 17:15:58.607516 31785 net.cpp:329] conv2 <- norm1
I0905 17:15:58.607522 31785 net.cpp:290] conv2 -> conv2
I0905 17:15:58.616358 31785 net.cpp:83] Top shape: 10 256 27 27 (1866240)
I0905 17:15:58.616372 31785 net.cpp:125] conv2 needs backward computation.
I0905 17:15:58.616379 31785 net.cpp:66] Creating Layer relu2
I0905 17:15:58.616385 31785 net.cpp:329] relu2 <- conv2
I0905 17:15:58.616391 31785 net.cpp:280] relu2 -> conv2 (in-place)
I0905 17:15:58.616399 31785 net.cpp:83] Top shape: 10 256 27 27 (1866240)
I0905 17:15:58.616405 31785 net.cpp:125] relu2 needs backward computation.
I0905 17:15:58.616410 31785 net.cpp:66] Creating Layer pool2
I0905 17:15:58.616415 31785 net.cpp:329] pool2 <- conv2
I0905 17:15:58.616422 31785 net.cpp:290] pool2 -> pool2
I0905 17:15:58.616430 31785 net.cpp:83] Top shape: 10 256 13 13 (432640)
I0905 17:15:58.616436 31785 net.cpp:125] pool2 needs backward computation.
I0905 17:15:58.616444 31785 net.cpp:66] Creating Layer fc7
I0905 17:15:58.616451 31785 net.cpp:329] fc7 <- pool2
I0905 17:15:58.616457 31785 net.cpp:290] fc7 -> fc7
I0905 17:15:59.245034 31785 net.cpp:83] Top shape: 10 512 1 1 (5120)
I0905 17:15:59.245076 31785 net.cpp:125] fc7 needs backward computation.
I0905 17:15:59.245090 31785 net.cpp:66] Creating Layer relu7
I0905 17:15:59.245096 31785 net.cpp:329] relu7 <- fc7
I0905 17:15:59.245106 31785 net.cpp:280] relu7 -> fc7 (in-place)
I0905 17:15:59.245116 31785 net.cpp:83] Top shape: 10 512 1 1 (5120)
I0905 17:15:59.245121 31785 net.cpp:125] relu7 needs backward computation.
I0905 17:15:59.245129 31785 net.cpp:66] Creating Layer drop7
I0905 17:15:59.245134 31785 net.cpp:329] drop7 <- fc7
I0905 17:15:59.245141 31785 net.cpp:280] drop7 -> fc7 (in-place)
I0905 17:15:59.245165 31785 net.cpp:83] Top shape: 10 512 1 1 (5120)
I0905 17:15:59.245172 31785 net.cpp:125] drop7 needs backward computation.
I0905 17:15:59.245180 31785 net.cpp:66] Creating Layer fc8
I0905 17:15:59.245187 31785 net.cpp:329] fc8 <- fc7
I0905 17:15:59.245195 31785 net.cpp:290] fc8 -> fc8
I0905 17:15:59.252962 31785 net.cpp:83] Top shape: 10 512 1 1 (5120)
I0905 17:15:59.252975 31785 net.cpp:125] fc8 needs backward computation.
I0905 17:15:59.252982 31785 net.cpp:66] Creating Layer relu8
I0905 17:15:59.252989 31785 net.cpp:329] relu8 <- fc8
I0905 17:15:59.252996 31785 net.cpp:280] relu8 -> fc8 (in-place)
I0905 17:15:59.253003 31785 net.cpp:83] Top shape: 10 512 1 1 (5120)
I0905 17:15:59.253010 31785 net.cpp:125] relu8 needs backward computation.
I0905 17:15:59.253016 31785 net.cpp:66] Creating Layer drop8
I0905 17:15:59.253021 31785 net.cpp:329] drop8 <- fc8
I0905 17:15:59.253028 31785 net.cpp:280] drop8 -> fc8 (in-place)
I0905 17:15:59.253034 31785 net.cpp:83] Top shape: 10 512 1 1 (5120)
I0905 17:15:59.253041 31785 net.cpp:125] drop8 needs backward computation.
I0905 17:15:59.253049 31785 net.cpp:66] Creating Layer fc9
I0905 17:15:59.253056 31785 net.cpp:329] fc9 <- fc8
I0905 17:15:59.253062 31785 net.cpp:290] fc9 -> fc9
I0905 17:15:59.253435 31785 net.cpp:83] Top shape: 10 24 1 1 (240)
I0905 17:15:59.253448 31785 net.cpp:125] fc9 needs backward computation.
I0905 17:15:59.253456 31785 net.cpp:66] Creating Layer fc10
I0905 17:15:59.253461 31785 net.cpp:329] fc10 <- fc9
I0905 17:15:59.253470 31785 net.cpp:290] fc10 -> fc10
I0905 17:15:59.253482 31785 net.cpp:83] Top shape: 10 2 1 1 (20)
I0905 17:15:59.253490 31785 net.cpp:125] fc10 needs backward computation.
I0905 17:15:59.253497 31785 net.cpp:66] Creating Layer prob
I0905 17:15:59.253502 31785 net.cpp:329] prob <- fc10
I0905 17:15:59.253510 31785 net.cpp:290] prob -> prob
I0905 17:15:59.253520 31785 net.cpp:83] Top shape: 10 2 1 1 (20)
I0905 17:15:59.253526 31785 net.cpp:125] prob needs backward computation.
I0905 17:15:59.253531 31785 net.cpp:156] This network produces output prob
I0905 17:15:59.253543 31785 net.cpp:402] Collecting Learning Rate and Weight Decay.
I0905 17:15:59.253552 31785 net.cpp:167] Network initialization done.
I0905 17:15:59.253557 31785 net.cpp:168] Memory required for data: 6183480
Classifying 544 inputs.
Done in 525.02 s.
Traceback (most recent call last):
  File "distribute/python/classify_m.py", line 156, in <module>
    main(sys.argv)
  File "distribute/python/classify_m.py", line 145, in main
    prediction = predictions[i]
IndexError: index 44 is out of bounds for axis 0 with size 44
WARNING: Logging before InitGoogleLogging() is written to STDERR
E0905 17:25:31.674401 31804 upgrade_proto.cpp:575] Attempting to upgrade input file specified using deprecated V0LayerParameter: distribute/python/../../senti/model4_boost_deploy.prototxt
I0905 17:25:31.674561 31804 upgrade_proto.cpp:582] Successfully upgraded file specified using deprecated V0LayerParameter
E0905 17:25:31.674571 31804 upgrade_proto.cpp:585] Note that future Caffe releases will not support V0NetParameter; use ./build/tools/upgrade_net_proto_text.bin to upgrade this and any other network proto files to the new format.
I0905 17:25:31.674720 31804 net.cpp:38] Initializing net from parameters: 
layers {
  bottom: "data"
  top: "conv1"
  name: "conv1"
  type: CONVOLUTION
  blobs_lr: 1
  blobs_lr: 2
  weight_decay: 1
  weight_decay: 0
  convolution_param {
    num_output: 96
    kernel_size: 11
    stride: 4
    weight_filler {
      type: "gaussian"
      std: 0.01
    }
    bias_filler {
      type: "constant"
      value: 0
    }
  }
}
layers {
  bottom: "conv1"
  top: "conv1"
  name: "relu1"
  type: RELU
}
layers {
  bottom: "conv1"
  top: "pool1"
  name: "pool1"
  type: POOLING
  pooling_param {
    pool: MAX
    kernel_size: 3
    stride: 2
  }
}
layers {
  bottom: "pool1"
  top: "norm1"
  name: "norm1"
  type: LRN
  lrn_param {
    local_size: 5
    alpha: 0.0001
    beta: 0.75
  }
}
layers {
  bottom: "norm1"
  top: "conv2"
  name: "conv2"
  type: CONVOLUTION
  blobs_lr: 1
  blobs_lr: 2
  weight_decay: 1
  weight_decay: 0
  convolution_param {
    num_output: 256
    pad: 2
    kernel_size: 5
    group: 2
    weight_filler {
      type: "gaussian"
      std: 0.01
    }
    bias_filler {
      type: "constant"
      value: 1
    }
  }
}
layers {
  bottom: "conv2"
  top: "conv2"
  name: "relu2"
  type: RELU
}
layers {
  bottom: "conv2"
  top: "pool2"
  name: "pool2"
  type: POOLING
  pooling_param {
    pool: MAX
    kernel_size: 3
    stride: 2
  }
}
layers {
  bottom: "pool2"
  top: "fc7"
  name: "fc7"
  type: INNER_PRODUCT
  blobs_lr: 1
  blobs_lr: 2
  weight_decay: 1
  weight_decay: 0
  inner_product_param {
    num_output: 512
    weight_filler {
      type: "gaussian"
      std: 0.005
    }
    bias_filler {
      type: "constant"
      value: 1
    }
  }
}
layers {
  bottom: "fc7"
  top: "fc7"
  name: "relu7"
  type: RELU
}
layers {
  bottom: "fc7"
  top: "fc7"
  name: "drop7"
  type: DROPOUT
  dropout_param {
    dropout_ratio: 0.5
  }
}
layers {
  bottom: "fc7"
  top: "fc8"
  name: "fc8"
  type: INNER_PRODUCT
  blobs_lr: 1
  blobs_lr: 2
  weight_decay: 1
  weight_decay: 0
  inner_product_param {
    num_output: 512
    weight_filler {
      type: "gaussian"
      std: 0.005
    }
    bias_filler {
      type: "constant"
      value: 1
    }
  }
}
layers {
  bottom: "fc8"
  top: "fc8"
  name: "relu8"
  type: RELU
}
layers {
  bottom: "fc8"
  top: "fc8"
  name: "drop8"
  type: DROPOUT
  dropout_param {
    dropout_ratio: 0.5
  }
}
layers {
  bottom: "fc8"
  top: "fc9"
  name: "fc9"
  type: INNER_PRODUCT
  blobs_lr: 1
  blobs_lr: 2
  weight_decay: 1
  weight_decay: 0
  inner_product_param {
    num_output: 24
    weight_filler {
      type: "gaussian"
      std: 0.01
    }
    bias_filler {
      type: "constant"
      value: 0
    }
  }
}
layers {
  bottom: "fc9"
  top: "fc10"
  name: "fc10"
  type: INNER_PRODUCT
  blobs_lr: 1
  blobs_lr: 2
  weight_decay: 1
  weight_decay: 0
  inner_product_param {
    num_output: 2
    weight_filler {
      type: "gaussian"
      std: 0.01
    }
    bias_filler {
      type: "constant"
      value: 0
    }
  }
}
layers {
  bottom: "fc10"
  top: "prob"
  name: "prob"
  type: SOFTMAX
}
input: "data"
input_dim: 10
input_dim: 3
input_dim: 227
input_dim: 227
I0905 17:25:31.674778 31804 net.cpp:292] Input 0 -> data
I0905 17:25:31.674804 31804 net.cpp:66] Creating Layer conv1
I0905 17:25:31.674811 31804 net.cpp:329] conv1 <- data
I0905 17:25:31.674819 31804 net.cpp:290] conv1 -> conv1
I0905 17:25:31.699758 31804 net.cpp:83] Top shape: 10 96 55 55 (2904000)
I0905 17:25:31.699784 31804 net.cpp:125] conv1 needs backward computation.
I0905 17:25:31.699794 31804 net.cpp:66] Creating Layer relu1
I0905 17:25:31.699800 31804 net.cpp:329] relu1 <- conv1
I0905 17:25:31.699807 31804 net.cpp:280] relu1 -> conv1 (in-place)
I0905 17:25:31.699815 31804 net.cpp:83] Top shape: 10 96 55 55 (2904000)
I0905 17:25:31.699821 31804 net.cpp:125] relu1 needs backward computation.
I0905 17:25:31.699828 31804 net.cpp:66] Creating Layer pool1
I0905 17:25:31.699834 31804 net.cpp:329] pool1 <- conv1
I0905 17:25:31.699841 31804 net.cpp:290] pool1 -> pool1
I0905 17:25:31.699852 31804 net.cpp:83] Top shape: 10 96 27 27 (699840)
I0905 17:25:31.699858 31804 net.cpp:125] pool1 needs backward computation.
I0905 17:25:31.699865 31804 net.cpp:66] Creating Layer norm1
I0905 17:25:31.699870 31804 net.cpp:329] norm1 <- pool1
I0905 17:25:31.699877 31804 net.cpp:290] norm1 -> norm1
I0905 17:25:31.699887 31804 net.cpp:83] Top shape: 10 96 27 27 (699840)
I0905 17:25:31.699892 31804 net.cpp:125] norm1 needs backward computation.
I0905 17:25:31.699900 31804 net.cpp:66] Creating Layer conv2
I0905 17:25:31.699906 31804 net.cpp:329] conv2 <- norm1
I0905 17:25:31.699913 31804 net.cpp:290] conv2 -> conv2
I0905 17:25:31.709025 31804 net.cpp:83] Top shape: 10 256 27 27 (1866240)
I0905 17:25:31.709041 31804 net.cpp:125] conv2 needs backward computation.
I0905 17:25:31.709048 31804 net.cpp:66] Creating Layer relu2
I0905 17:25:31.709054 31804 net.cpp:329] relu2 <- conv2
I0905 17:25:31.709061 31804 net.cpp:280] relu2 -> conv2 (in-place)
I0905 17:25:31.709074 31804 net.cpp:83] Top shape: 10 256 27 27 (1866240)
I0905 17:25:31.709079 31804 net.cpp:125] relu2 needs backward computation.
I0905 17:25:31.709086 31804 net.cpp:66] Creating Layer pool2
I0905 17:25:31.709092 31804 net.cpp:329] pool2 <- conv2
I0905 17:25:31.709099 31804 net.cpp:290] pool2 -> pool2
I0905 17:25:31.709106 31804 net.cpp:83] Top shape: 10 256 13 13 (432640)
I0905 17:25:31.709112 31804 net.cpp:125] pool2 needs backward computation.
I0905 17:25:31.709121 31804 net.cpp:66] Creating Layer fc7
I0905 17:25:31.709127 31804 net.cpp:329] fc7 <- pool2
I0905 17:25:31.709134 31804 net.cpp:290] fc7 -> fc7
I0905 17:25:32.341789 31804 net.cpp:83] Top shape: 10 512 1 1 (5120)
I0905 17:25:32.341840 31804 net.cpp:125] fc7 needs backward computation.
I0905 17:25:32.341855 31804 net.cpp:66] Creating Layer relu7
I0905 17:25:32.341866 31804 net.cpp:329] relu7 <- fc7
I0905 17:25:32.341876 31804 net.cpp:280] relu7 -> fc7 (in-place)
I0905 17:25:32.341887 31804 net.cpp:83] Top shape: 10 512 1 1 (5120)
I0905 17:25:32.341892 31804 net.cpp:125] relu7 needs backward computation.
I0905 17:25:32.341902 31804 net.cpp:66] Creating Layer drop7
I0905 17:25:32.341907 31804 net.cpp:329] drop7 <- fc7
I0905 17:25:32.341913 31804 net.cpp:280] drop7 -> fc7 (in-place)
I0905 17:25:32.341924 31804 net.cpp:83] Top shape: 10 512 1 1 (5120)
I0905 17:25:32.341929 31804 net.cpp:125] drop7 needs backward computation.
I0905 17:25:32.341938 31804 net.cpp:66] Creating Layer fc8
I0905 17:25:32.341943 31804 net.cpp:329] fc8 <- fc7
I0905 17:25:32.341953 31804 net.cpp:290] fc8 -> fc8
I0905 17:25:32.349758 31804 net.cpp:83] Top shape: 10 512 1 1 (5120)
I0905 17:25:32.349771 31804 net.cpp:125] fc8 needs backward computation.
I0905 17:25:32.349778 31804 net.cpp:66] Creating Layer relu8
I0905 17:25:32.349784 31804 net.cpp:329] relu8 <- fc8
I0905 17:25:32.349792 31804 net.cpp:280] relu8 -> fc8 (in-place)
I0905 17:25:32.349799 31804 net.cpp:83] Top shape: 10 512 1 1 (5120)
I0905 17:25:32.349805 31804 net.cpp:125] relu8 needs backward computation.
I0905 17:25:32.349812 31804 net.cpp:66] Creating Layer drop8
I0905 17:25:32.349817 31804 net.cpp:329] drop8 <- fc8
I0905 17:25:32.349824 31804 net.cpp:280] drop8 -> fc8 (in-place)
I0905 17:25:32.349831 31804 net.cpp:83] Top shape: 10 512 1 1 (5120)
I0905 17:25:32.349836 31804 net.cpp:125] drop8 needs backward computation.
I0905 17:25:32.349845 31804 net.cpp:66] Creating Layer fc9
I0905 17:25:32.349851 31804 net.cpp:329] fc9 <- fc8
I0905 17:25:32.349858 31804 net.cpp:290] fc9 -> fc9
I0905 17:25:32.350230 31804 net.cpp:83] Top shape: 10 24 1 1 (240)
I0905 17:25:32.350242 31804 net.cpp:125] fc9 needs backward computation.
I0905 17:25:32.350250 31804 net.cpp:66] Creating Layer fc10
I0905 17:25:32.350256 31804 net.cpp:329] fc10 <- fc9
I0905 17:25:32.350265 31804 net.cpp:290] fc10 -> fc10
I0905 17:25:32.350276 31804 net.cpp:83] Top shape: 10 2 1 1 (20)
I0905 17:25:32.350285 31804 net.cpp:125] fc10 needs backward computation.
I0905 17:25:32.350291 31804 net.cpp:66] Creating Layer prob
I0905 17:25:32.350296 31804 net.cpp:329] prob <- fc10
I0905 17:25:32.350306 31804 net.cpp:290] prob -> prob
I0905 17:25:32.350314 31804 net.cpp:83] Top shape: 10 2 1 1 (20)
I0905 17:25:32.350321 31804 net.cpp:125] prob needs backward computation.
I0905 17:25:32.350327 31804 net.cpp:156] This network produces output prob
I0905 17:25:32.350338 31804 net.cpp:402] Collecting Learning Rate and Weight Decay.
I0905 17:25:32.350347 31804 net.cpp:167] Network initialization done.
I0905 17:25:32.350353 31804 net.cpp:168] Memory required for data: 6183480
Classifying 78 inputs.
Done in 48.30 s.
WARNING: Logging before InitGoogleLogging() is written to STDERR
E0905 17:26:26.181818 31808 upgrade_proto.cpp:575] Attempting to upgrade input file specified using deprecated V0LayerParameter: distribute/python/../../senti/model4_boost_deploy.prototxt
I0905 17:26:26.181953 31808 upgrade_proto.cpp:582] Successfully upgraded file specified using deprecated V0LayerParameter
E0905 17:26:26.181962 31808 upgrade_proto.cpp:585] Note that future Caffe releases will not support V0NetParameter; use ./build/tools/upgrade_net_proto_text.bin to upgrade this and any other network proto files to the new format.
I0905 17:26:26.182117 31808 net.cpp:38] Initializing net from parameters: 
layers {
  bottom: "data"
  top: "conv1"
  name: "conv1"
  type: CONVOLUTION
  blobs_lr: 1
  blobs_lr: 2
  weight_decay: 1
  weight_decay: 0
  convolution_param {
    num_output: 96
    kernel_size: 11
    stride: 4
    weight_filler {
      type: "gaussian"
      std: 0.01
    }
    bias_filler {
      type: "constant"
      value: 0
    }
  }
}
layers {
  bottom: "conv1"
  top: "conv1"
  name: "relu1"
  type: RELU
}
layers {
  bottom: "conv1"
  top: "pool1"
  name: "pool1"
  type: POOLING
  pooling_param {
    pool: MAX
    kernel_size: 3
    stride: 2
  }
}
layers {
  bottom: "pool1"
  top: "norm1"
  name: "norm1"
  type: LRN
  lrn_param {
    local_size: 5
    alpha: 0.0001
    beta: 0.75
  }
}
layers {
  bottom: "norm1"
  top: "conv2"
  name: "conv2"
  type: CONVOLUTION
  blobs_lr: 1
  blobs_lr: 2
  weight_decay: 1
  weight_decay: 0
  convolution_param {
    num_output: 256
    pad: 2
    kernel_size: 5
    group: 2
    weight_filler {
      type: "gaussian"
      std: 0.01
    }
    bias_filler {
      type: "constant"
      value: 1
    }
  }
}
layers {
  bottom: "conv2"
  top: "conv2"
  name: "relu2"
  type: RELU
}
layers {
  bottom: "conv2"
  top: "pool2"
  name: "pool2"
  type: POOLING
  pooling_param {
    pool: MAX
    kernel_size: 3
    stride: 2
  }
}
layers {
  bottom: "pool2"
  top: "fc7"
  name: "fc7"
  type: INNER_PRODUCT
  blobs_lr: 1
  blobs_lr: 2
  weight_decay: 1
  weight_decay: 0
  inner_product_param {
    num_output: 512
    weight_filler {
      type: "gaussian"
      std: 0.005
    }
    bias_filler {
      type: "constant"
      value: 1
    }
  }
}
layers {
  bottom: "fc7"
  top: "fc7"
  name: "relu7"
  type: RELU
}
layers {
  bottom: "fc7"
  top: "fc7"
  name: "drop7"
  type: DROPOUT
  dropout_param {
    dropout_ratio: 0.5
  }
}
layers {
  bottom: "fc7"
  top: "fc8"
  name: "fc8"
  type: INNER_PRODUCT
  blobs_lr: 1
  blobs_lr: 2
  weight_decay: 1
  weight_decay: 0
  inner_product_param {
    num_output: 512
    weight_filler {
      type: "gaussian"
      std: 0.005
    }
    bias_filler {
      type: "constant"
      value: 1
    }
  }
}
layers {
  bottom: "fc8"
  top: "fc8"
  name: "relu8"
  type: RELU
}
layers {
  bottom: "fc8"
  top: "fc8"
  name: "drop8"
  type: DROPOUT
  dropout_param {
    dropout_ratio: 0.5
  }
}
layers {
  bottom: "fc8"
  top: "fc9"
  name: "fc9"
  type: INNER_PRODUCT
  blobs_lr: 1
  blobs_lr: 2
  weight_decay: 1
  weight_decay: 0
  inner_product_param {
    num_output: 24
    weight_filler {
      type: "gaussian"
      std: 0.01
    }
    bias_filler {
      type: "constant"
      value: 0
    }
  }
}
layers {
  bottom: "fc9"
  top: "fc10"
  name: "fc10"
  type: INNER_PRODUCT
  blobs_lr: 1
  blobs_lr: 2
  weight_decay: 1
  weight_decay: 0
  inner_product_param {
    num_output: 2
    weight_filler {
      type: "gaussian"
      std: 0.01
    }
    bias_filler {
      type: "constant"
      value: 0
    }
  }
}
layers {
  bottom: "fc10"
  top: "prob"
  name: "prob"
  type: SOFTMAX
}
input: "data"
input_dim: 10
input_dim: 3
input_dim: 227
input_dim: 227
I0905 17:26:26.182168 31808 net.cpp:292] Input 0 -> data
I0905 17:26:26.182193 31808 net.cpp:66] Creating Layer conv1
I0905 17:26:26.182200 31808 net.cpp:329] conv1 <- data
I0905 17:26:26.182209 31808 net.cpp:290] conv1 -> conv1
I0905 17:26:26.183529 31808 net.cpp:83] Top shape: 10 96 55 55 (2904000)
I0905 17:26:26.183547 31808 net.cpp:125] conv1 needs backward computation.
I0905 17:26:26.183555 31808 net.cpp:66] Creating Layer relu1
I0905 17:26:26.183562 31808 net.cpp:329] relu1 <- conv1
I0905 17:26:26.183568 31808 net.cpp:280] relu1 -> conv1 (in-place)
I0905 17:26:26.183576 31808 net.cpp:83] Top shape: 10 96 55 55 (2904000)
I0905 17:26:26.183583 31808 net.cpp:125] relu1 needs backward computation.
I0905 17:26:26.183588 31808 net.cpp:66] Creating Layer pool1
I0905 17:26:26.183598 31808 net.cpp:329] pool1 <- conv1
I0905 17:26:26.183605 31808 net.cpp:290] pool1 -> pool1
I0905 17:26:26.183616 31808 net.cpp:83] Top shape: 10 96 27 27 (699840)
I0905 17:26:26.183622 31808 net.cpp:125] pool1 needs backward computation.
I0905 17:26:26.183629 31808 net.cpp:66] Creating Layer norm1
I0905 17:26:26.183634 31808 net.cpp:329] norm1 <- pool1
I0905 17:26:26.183640 31808 net.cpp:290] norm1 -> norm1
I0905 17:26:26.183650 31808 net.cpp:83] Top shape: 10 96 27 27 (699840)
I0905 17:26:26.183655 31808 net.cpp:125] norm1 needs backward computation.
I0905 17:26:26.183662 31808 net.cpp:66] Creating Layer conv2
I0905 17:26:26.183668 31808 net.cpp:329] conv2 <- norm1
I0905 17:26:26.183676 31808 net.cpp:290] conv2 -> conv2
I0905 17:26:26.192584 31808 net.cpp:83] Top shape: 10 256 27 27 (1866240)
I0905 17:26:26.192597 31808 net.cpp:125] conv2 needs backward computation.
I0905 17:26:26.192605 31808 net.cpp:66] Creating Layer relu2
I0905 17:26:26.192610 31808 net.cpp:329] relu2 <- conv2
I0905 17:26:26.192616 31808 net.cpp:280] relu2 -> conv2 (in-place)
I0905 17:26:26.192623 31808 net.cpp:83] Top shape: 10 256 27 27 (1866240)
I0905 17:26:26.192630 31808 net.cpp:125] relu2 needs backward computation.
I0905 17:26:26.192637 31808 net.cpp:66] Creating Layer pool2
I0905 17:26:26.192643 31808 net.cpp:329] pool2 <- conv2
I0905 17:26:26.192649 31808 net.cpp:290] pool2 -> pool2
I0905 17:26:26.192657 31808 net.cpp:83] Top shape: 10 256 13 13 (432640)
I0905 17:26:26.192663 31808 net.cpp:125] pool2 needs backward computation.
I0905 17:26:26.192670 31808 net.cpp:66] Creating Layer fc7
I0905 17:26:26.192675 31808 net.cpp:329] fc7 <- pool2
I0905 17:26:26.192682 31808 net.cpp:290] fc7 -> fc7
I0905 17:26:26.852005 31808 net.cpp:83] Top shape: 10 512 1 1 (5120)
I0905 17:26:26.852051 31808 net.cpp:125] fc7 needs backward computation.
I0905 17:26:26.852064 31808 net.cpp:66] Creating Layer relu7
I0905 17:26:26.852072 31808 net.cpp:329] relu7 <- fc7
I0905 17:26:26.852082 31808 net.cpp:280] relu7 -> fc7 (in-place)
I0905 17:26:26.852092 31808 net.cpp:83] Top shape: 10 512 1 1 (5120)
I0905 17:26:26.852097 31808 net.cpp:125] relu7 needs backward computation.
I0905 17:26:26.852104 31808 net.cpp:66] Creating Layer drop7
I0905 17:26:26.852109 31808 net.cpp:329] drop7 <- fc7
I0905 17:26:26.852116 31808 net.cpp:280] drop7 -> fc7 (in-place)
I0905 17:26:26.852128 31808 net.cpp:83] Top shape: 10 512 1 1 (5120)
I0905 17:26:26.852133 31808 net.cpp:125] drop7 needs backward computation.
I0905 17:26:26.852141 31808 net.cpp:66] Creating Layer fc8
I0905 17:26:26.852147 31808 net.cpp:329] fc8 <- fc7
I0905 17:26:26.852156 31808 net.cpp:290] fc8 -> fc8
I0905 17:26:26.860283 31808 net.cpp:83] Top shape: 10 512 1 1 (5120)
I0905 17:26:26.860296 31808 net.cpp:125] fc8 needs backward computation.
I0905 17:26:26.860302 31808 net.cpp:66] Creating Layer relu8
I0905 17:26:26.860308 31808 net.cpp:329] relu8 <- fc8
I0905 17:26:26.860316 31808 net.cpp:280] relu8 -> fc8 (in-place)
I0905 17:26:26.860323 31808 net.cpp:83] Top shape: 10 512 1 1 (5120)
I0905 17:26:26.860328 31808 net.cpp:125] relu8 needs backward computation.
I0905 17:26:26.860335 31808 net.cpp:66] Creating Layer drop8
I0905 17:26:26.860340 31808 net.cpp:329] drop8 <- fc8
I0905 17:26:26.860347 31808 net.cpp:280] drop8 -> fc8 (in-place)
I0905 17:26:26.860353 31808 net.cpp:83] Top shape: 10 512 1 1 (5120)
I0905 17:26:26.860358 31808 net.cpp:125] drop8 needs backward computation.
I0905 17:26:26.860368 31808 net.cpp:66] Creating Layer fc9
I0905 17:26:26.860373 31808 net.cpp:329] fc9 <- fc8
I0905 17:26:26.860379 31808 net.cpp:290] fc9 -> fc9
I0905 17:26:26.860757 31808 net.cpp:83] Top shape: 10 24 1 1 (240)
I0905 17:26:26.860769 31808 net.cpp:125] fc9 needs backward computation.
I0905 17:26:26.860777 31808 net.cpp:66] Creating Layer fc10
I0905 17:26:26.860782 31808 net.cpp:329] fc10 <- fc9
I0905 17:26:26.860791 31808 net.cpp:290] fc10 -> fc10
I0905 17:26:26.860802 31808 net.cpp:83] Top shape: 10 2 1 1 (20)
I0905 17:26:26.860810 31808 net.cpp:125] fc10 needs backward computation.
I0905 17:26:26.860817 31808 net.cpp:66] Creating Layer prob
I0905 17:26:26.860832 31808 net.cpp:329] prob <- fc10
I0905 17:26:26.860841 31808 net.cpp:290] prob -> prob
I0905 17:26:26.860849 31808 net.cpp:83] Top shape: 10 2 1 1 (20)
I0905 17:26:26.860855 31808 net.cpp:125] prob needs backward computation.
I0905 17:26:26.860860 31808 net.cpp:156] This network produces output prob
I0905 17:26:26.860872 31808 net.cpp:402] Collecting Learning Rate and Weight Decay.
I0905 17:26:26.860880 31808 net.cpp:167] Network initialization done.
I0905 17:26:26.860885 31808 net.cpp:168] Memory required for data: 6183480
Classifying 240 inputs.
Done in 139.57 s.
Traceback (most recent call last):
  File "distribute/python/classify_m.py", line 156, in <module>
    main(sys.argv)
  File "distribute/python/classify_m.py", line 145, in main
    prediction = predictions[i]
IndexError: index 40 is out of bounds for axis 0 with size 40
WARNING: Logging before InitGoogleLogging() is written to STDERR
E0905 17:28:50.706029 31815 upgrade_proto.cpp:575] Attempting to upgrade input file specified using deprecated V0LayerParameter: distribute/python/../../senti/model4_boost_deploy.prototxt
I0905 17:28:50.706166 31815 upgrade_proto.cpp:582] Successfully upgraded file specified using deprecated V0LayerParameter
E0905 17:28:50.706176 31815 upgrade_proto.cpp:585] Note that future Caffe releases will not support V0NetParameter; use ./build/tools/upgrade_net_proto_text.bin to upgrade this and any other network proto files to the new format.
I0905 17:28:50.706318 31815 net.cpp:38] Initializing net from parameters: 
layers {
  bottom: "data"
  top: "conv1"
  name: "conv1"
  type: CONVOLUTION
  blobs_lr: 1
  blobs_lr: 2
  weight_decay: 1
  weight_decay: 0
  convolution_param {
    num_output: 96
    kernel_size: 11
    stride: 4
    weight_filler {
      type: "gaussian"
      std: 0.01
    }
    bias_filler {
      type: "constant"
      value: 0
    }
  }
}
layers {
  bottom: "conv1"
  top: "conv1"
  name: "relu1"
  type: RELU
}
layers {
  bottom: "conv1"
  top: "pool1"
  name: "pool1"
  type: POOLING
  pooling_param {
    pool: MAX
    kernel_size: 3
    stride: 2
  }
}
layers {
  bottom: "pool1"
  top: "norm1"
  name: "norm1"
  type: LRN
  lrn_param {
    local_size: 5
    alpha: 0.0001
    beta: 0.75
  }
}
layers {
  bottom: "norm1"
  top: "conv2"
  name: "conv2"
  type: CONVOLUTION
  blobs_lr: 1
  blobs_lr: 2
  weight_decay: 1
  weight_decay: 0
  convolution_param {
    num_output: 256
    pad: 2
    kernel_size: 5
    group: 2
    weight_filler {
      type: "gaussian"
      std: 0.01
    }
    bias_filler {
      type: "constant"
      value: 1
    }
  }
}
layers {
  bottom: "conv2"
  top: "conv2"
  name: "relu2"
  type: RELU
}
layers {
  bottom: "conv2"
  top: "pool2"
  name: "pool2"
  type: POOLING
  pooling_param {
    pool: MAX
    kernel_size: 3
    stride: 2
  }
}
layers {
  bottom: "pool2"
  top: "fc7"
  name: "fc7"
  type: INNER_PRODUCT
  blobs_lr: 1
  blobs_lr: 2
  weight_decay: 1
  weight_decay: 0
  inner_product_param {
    num_output: 512
    weight_filler {
      type: "gaussian"
      std: 0.005
    }
    bias_filler {
      type: "constant"
      value: 1
    }
  }
}
layers {
  bottom: "fc7"
  top: "fc7"
  name: "relu7"
  type: RELU
}
layers {
  bottom: "fc7"
  top: "fc7"
  name: "drop7"
  type: DROPOUT
  dropout_param {
    dropout_ratio: 0.5
  }
}
layers {
  bottom: "fc7"
  top: "fc8"
  name: "fc8"
  type: INNER_PRODUCT
  blobs_lr: 1
  blobs_lr: 2
  weight_decay: 1
  weight_decay: 0
  inner_product_param {
    num_output: 512
    weight_filler {
      type: "gaussian"
      std: 0.005
    }
    bias_filler {
      type: "constant"
      value: 1
    }
  }
}
layers {
  bottom: "fc8"
  top: "fc8"
  name: "relu8"
  type: RELU
}
layers {
  bottom: "fc8"
  top: "fc8"
  name: "drop8"
  type: DROPOUT
  dropout_param {
    dropout_ratio: 0.5
  }
}
layers {
  bottom: "fc8"
  top: "fc9"
  name: "fc9"
  type: INNER_PRODUCT
  blobs_lr: 1
  blobs_lr: 2
  weight_decay: 1
  weight_decay: 0
  inner_product_param {
    num_output: 24
    weight_filler {
      type: "gaussian"
      std: 0.01
    }
    bias_filler {
      type: "constant"
      value: 0
    }
  }
}
layers {
  bottom: "fc9"
  top: "fc10"
  name: "fc10"
  type: INNER_PRODUCT
  blobs_lr: 1
  blobs_lr: 2
  weight_decay: 1
  weight_decay: 0
  inner_product_param {
    num_output: 2
    weight_filler {
      type: "gaussian"
      std: 0.01
    }
    bias_filler {
      type: "constant"
      value: 0
    }
  }
}
layers {
  bottom: "fc10"
  top: "prob"
  name: "prob"
  type: SOFTMAX
}
input: "data"
input_dim: 10
input_dim: 3
input_dim: 227
input_dim: 227
I0905 17:28:50.706382 31815 net.cpp:292] Input 0 -> data
I0905 17:28:50.706408 31815 net.cpp:66] Creating Layer conv1
I0905 17:28:50.706415 31815 net.cpp:329] conv1 <- data
I0905 17:28:50.706423 31815 net.cpp:290] conv1 -> conv1
I0905 17:28:50.707747 31815 net.cpp:83] Top shape: 10 96 55 55 (2904000)
I0905 17:28:50.707764 31815 net.cpp:125] conv1 needs backward computation.
I0905 17:28:50.707773 31815 net.cpp:66] Creating Layer relu1
I0905 17:28:50.707779 31815 net.cpp:329] relu1 <- conv1
I0905 17:28:50.707787 31815 net.cpp:280] relu1 -> conv1 (in-place)
I0905 17:28:50.707794 31815 net.cpp:83] Top shape: 10 96 55 55 (2904000)
I0905 17:28:50.707800 31815 net.cpp:125] relu1 needs backward computation.
I0905 17:28:50.707808 31815 net.cpp:66] Creating Layer pool1
I0905 17:28:50.707813 31815 net.cpp:329] pool1 <- conv1
I0905 17:28:50.707819 31815 net.cpp:290] pool1 -> pool1
I0905 17:28:50.707829 31815 net.cpp:83] Top shape: 10 96 27 27 (699840)
I0905 17:28:50.707835 31815 net.cpp:125] pool1 needs backward computation.
I0905 17:28:50.707842 31815 net.cpp:66] Creating Layer norm1
I0905 17:28:50.707847 31815 net.cpp:329] norm1 <- pool1
I0905 17:28:50.707854 31815 net.cpp:290] norm1 -> norm1
I0905 17:28:50.707864 31815 net.cpp:83] Top shape: 10 96 27 27 (699840)
I0905 17:28:50.707870 31815 net.cpp:125] norm1 needs backward computation.
I0905 17:28:50.707876 31815 net.cpp:66] Creating Layer conv2
I0905 17:28:50.707882 31815 net.cpp:329] conv2 <- norm1
I0905 17:28:50.707890 31815 net.cpp:290] conv2 -> conv2
I0905 17:28:50.716815 31815 net.cpp:83] Top shape: 10 256 27 27 (1866240)
I0905 17:28:50.716830 31815 net.cpp:125] conv2 needs backward computation.
I0905 17:28:50.716837 31815 net.cpp:66] Creating Layer relu2
I0905 17:28:50.716843 31815 net.cpp:329] relu2 <- conv2
I0905 17:28:50.716850 31815 net.cpp:280] relu2 -> conv2 (in-place)
I0905 17:28:50.716856 31815 net.cpp:83] Top shape: 10 256 27 27 (1866240)
I0905 17:28:50.716862 31815 net.cpp:125] relu2 needs backward computation.
I0905 17:28:50.716868 31815 net.cpp:66] Creating Layer pool2
I0905 17:28:50.716873 31815 net.cpp:329] pool2 <- conv2
I0905 17:28:50.716881 31815 net.cpp:290] pool2 -> pool2
I0905 17:28:50.716888 31815 net.cpp:83] Top shape: 10 256 13 13 (432640)
I0905 17:28:50.716893 31815 net.cpp:125] pool2 needs backward computation.
I0905 17:28:50.716902 31815 net.cpp:66] Creating Layer fc7
I0905 17:28:50.716908 31815 net.cpp:329] fc7 <- pool2
I0905 17:28:50.716915 31815 net.cpp:290] fc7 -> fc7
I0905 17:28:51.345965 31815 net.cpp:83] Top shape: 10 512 1 1 (5120)
I0905 17:28:51.346012 31815 net.cpp:125] fc7 needs backward computation.
I0905 17:28:51.346025 31815 net.cpp:66] Creating Layer relu7
I0905 17:28:51.346034 31815 net.cpp:329] relu7 <- fc7
I0905 17:28:51.346042 31815 net.cpp:280] relu7 -> fc7 (in-place)
I0905 17:28:51.346053 31815 net.cpp:83] Top shape: 10 512 1 1 (5120)
I0905 17:28:51.346060 31815 net.cpp:125] relu7 needs backward computation.
I0905 17:28:51.346066 31815 net.cpp:66] Creating Layer drop7
I0905 17:28:51.346072 31815 net.cpp:329] drop7 <- fc7
I0905 17:28:51.346079 31815 net.cpp:280] drop7 -> fc7 (in-place)
I0905 17:28:51.346091 31815 net.cpp:83] Top shape: 10 512 1 1 (5120)
I0905 17:28:51.346096 31815 net.cpp:125] drop7 needs backward computation.
I0905 17:28:51.346106 31815 net.cpp:66] Creating Layer fc8
I0905 17:28:51.346110 31815 net.cpp:329] fc8 <- fc7
I0905 17:28:51.346119 31815 net.cpp:290] fc8 -> fc8
I0905 17:28:51.353901 31815 net.cpp:83] Top shape: 10 512 1 1 (5120)
I0905 17:28:51.353914 31815 net.cpp:125] fc8 needs backward computation.
I0905 17:28:51.353930 31815 net.cpp:66] Creating Layer relu8
I0905 17:28:51.353936 31815 net.cpp:329] relu8 <- fc8
I0905 17:28:51.353945 31815 net.cpp:280] relu8 -> fc8 (in-place)
I0905 17:28:51.353952 31815 net.cpp:83] Top shape: 10 512 1 1 (5120)
I0905 17:28:51.353958 31815 net.cpp:125] relu8 needs backward computation.
I0905 17:28:51.353965 31815 net.cpp:66] Creating Layer drop8
I0905 17:28:51.353971 31815 net.cpp:329] drop8 <- fc8
I0905 17:28:51.353976 31815 net.cpp:280] drop8 -> fc8 (in-place)
I0905 17:28:51.353983 31815 net.cpp:83] Top shape: 10 512 1 1 (5120)
I0905 17:28:51.353989 31815 net.cpp:125] drop8 needs backward computation.
I0905 17:28:51.353998 31815 net.cpp:66] Creating Layer fc9
I0905 17:28:51.354003 31815 net.cpp:329] fc9 <- fc8
I0905 17:28:51.354010 31815 net.cpp:290] fc9 -> fc9
I0905 17:28:51.354382 31815 net.cpp:83] Top shape: 10 24 1 1 (240)
I0905 17:28:51.354393 31815 net.cpp:125] fc9 needs backward computation.
I0905 17:28:51.354401 31815 net.cpp:66] Creating Layer fc10
I0905 17:28:51.354408 31815 net.cpp:329] fc10 <- fc9
I0905 17:28:51.354415 31815 net.cpp:290] fc10 -> fc10
I0905 17:28:51.354426 31815 net.cpp:83] Top shape: 10 2 1 1 (20)
I0905 17:28:51.354434 31815 net.cpp:125] fc10 needs backward computation.
I0905 17:28:51.354440 31815 net.cpp:66] Creating Layer prob
I0905 17:28:51.354446 31815 net.cpp:329] prob <- fc10
I0905 17:28:51.354454 31815 net.cpp:290] prob -> prob
I0905 17:28:51.354464 31815 net.cpp:83] Top shape: 10 2 1 1 (20)
I0905 17:28:51.354468 31815 net.cpp:125] prob needs backward computation.
I0905 17:28:51.354473 31815 net.cpp:156] This network produces output prob
I0905 17:28:51.354486 31815 net.cpp:402] Collecting Learning Rate and Weight Decay.
I0905 17:28:51.354495 31815 net.cpp:167] Network initialization done.
I0905 17:28:51.354500 31815 net.cpp:168] Memory required for data: 6183480
Classifying 366 inputs.
…
E0905 17:33:08.531769 31824 upgrade_proto.cpp:575] Attempting to upgrade input file specified using deprecated V0LayerParameter: distribute/python/../../senti/model4_boost_deploy.prototxt
I0905 17:33:08.531918 31824 upgrade_proto.cpp:582] Successfully upgraded file specified using deprecated V0LayerParameter
E0905 17:33:08.531926 31824 upgrade_proto.cpp:585] Note that future Caffe releases will not support V0NetParameter; use ./build/tools/upgrade_net_proto_text.bin to upgrade this and any other network proto files to the new format.
I0905 17:33:08.532071 31824 net.cpp:38] Initializing net from parameters: 
layers {
  bottom: "data"
  top: "conv1"
  name: "conv1"
  type: CONVOLUTION
  blobs_lr: 1
  blobs_lr: 2
  weight_decay: 1
  weight_decay: 0
  convolution_param {
    num_output: 96
    kernel_size: 11
    stride: 4
    weight_filler {
      type: "gaussian"
      std: 0.01
    }
    bias_filler {
      type: "constant"
      value: 0
    }
  }
}
layers {
  bottom: "conv1"
  top: "conv1"
  name: "relu1"
  type: RELU
}
layers {
  bottom: "conv1"
  top: "pool1"
  name: "pool1"
  type: POOLING
  pooling_param {
    pool: MAX
    kernel_size: 3
    stride: 2
  }
}
layers {
  bottom: "pool1"
  top: "norm1"
  name: "norm1"
  type: LRN
  lrn_param {
    local_size: 5
    alpha: 0.0001
    beta: 0.75
  }
}
layers {
  bottom: "norm1"
  top: "conv2"
  name: "conv2"
  type: CONVOLUTION
  blobs_lr: 1
  blobs_lr: 2
  weight_decay: 1
  weight_decay: 0
  convolution_param {
    num_output: 256
    pad: 2
    kernel_size: 5
    group: 2
    weight_filler {
      type: "gaussian"
      std: 0.01
    }
    bias_filler {
      type: "constant"
      value: 1
    }
  }
}
layers {
  bottom: "conv2"
  top: "conv2"
  name: "relu2"
  type: RELU
}
layers {
  bottom: "conv2"
  top: "pool2"
  name: "pool2"
  type: POOLING
  pooling_param {
    pool: MAX
    kernel_size: 3
    stride: 2
  }
}
layers {
  bottom: "pool2"
  top: "fc7"
  name: "fc7"
  type: INNER_PRODUCT
  blobs_lr: 1
  blobs_lr: 2
  weight_decay: 1
  weight_decay: 0
  inner_product_param {
    num_output: 512
    weight_filler {
      type: "gaussian"
      std: 0.005
    }
    bias_filler {
      type: "constant"
      value: 1
    }
  }
}
layers {
  bottom: "fc7"
  top: "fc7"
  name: "relu7"
  type: RELU
}
layers {
  bottom: "fc7"
  top: "fc7"
  name: "drop7"
  type: DROPOUT
  dropout_param {
    dropout_ratio: 0.5
  }
}
layers {
  bottom: "fc7"
  top: "fc8"
  name: "fc8"
  type: INNER_PRODUCT
  blobs_lr: 1
  blobs_lr: 2
  weight_decay: 1
  weight_decay: 0
  inner_product_param {
    num_output: 512
    weight_filler {
      type: "gaussian"
      std: 0.005
    }
    bias_filler {
      type: "constant"
      value: 1
    }
  }
}
layers {
  bottom: "fc8"
  top: "fc8"
  name: "relu8"
  type: RELU
}
layers {
  bottom: "fc8"
  top: "fc8"
  name: "drop8"
  type: DROPOUT
  dropout_param {
    dropout_ratio: 0.5
  }
}
layers {
  bottom: "fc8"
  top: "fc9"
  name: "fc9"
  type: INNER_PRODUCT
  blobs_lr: 1
  blobs_lr: 2
  weight_decay: 1
  weight_decay: 0
  inner_product_param {
    num_output: 24
    weight_filler {
      type: "gaussian"
      std: 0.01
    }
    bias_filler {
      type: "constant"
      value: 0
    }
  }
}
layers {
  bottom: "fc9"
  top: "fc10"
  name: "fc10"
  type: INNER_PRODUCT
  blobs_lr: 1
  blobs_lr: 2
  weight_decay: 1
  weight_decay: 0
  inner_product_param {
    num_output: 2
    weight_filler {
      type: "gaussian"
      std: 0.01
    }
    bias_filler {
      type: "constant"
      value: 0
    }
  }
}
layers {
  bottom: "fc10"
  top: "prob"
  name: "prob"
  type: SOFTMAX
}
input: "data"
input_dim: 10
input_dim: 3
input_dim: 227
input_dim: 227
I0905 17:33:08.532130 31824 net.cpp:292] Input 0 -> data
I0905 17:33:08.532156 31824 net.cpp:66] Creating Layer conv1
I0905 17:33:08.532165 31824 net.cpp:329] conv1 <- data
I0905 17:33:08.532172 31824 net.cpp:290] conv1 -> conv1
I0905 17:33:08.557095 31824 net.cpp:83] Top shape: 10 96 55 55 (2904000)
I0905 17:33:08.557119 31824 net.cpp:125] conv1 needs backward computation.
I0905 17:33:08.557129 31824 net.cpp:66] Creating Layer relu1
I0905 17:33:08.557135 31824 net.cpp:329] relu1 <- conv1
I0905 17:33:08.557142 31824 net.cpp:280] relu1 -> conv1 (in-place)
I0905 17:33:08.557152 31824 net.cpp:83] Top shape: 10 96 55 55 (2904000)
I0905 17:33:08.557157 31824 net.cpp:125] relu1 needs backward computation.
I0905 17:33:08.557164 31824 net.cpp:66] Creating Layer pool1
I0905 17:33:08.557169 31824 net.cpp:329] pool1 <- conv1
I0905 17:33:08.557176 31824 net.cpp:290] pool1 -> pool1
I0905 17:33:08.557188 31824 net.cpp:83] Top shape: 10 96 27 27 (699840)
I0905 17:33:08.557193 31824 net.cpp:125] pool1 needs backward computation.
I0905 17:33:08.557199 31824 net.cpp:66] Creating Layer norm1
I0905 17:33:08.557205 31824 net.cpp:329] norm1 <- pool1
I0905 17:33:08.557212 31824 net.cpp:290] norm1 -> norm1
I0905 17:33:08.557221 31824 net.cpp:83] Top shape: 10 96 27 27 (699840)
I0905 17:33:08.557227 31824 net.cpp:125] norm1 needs backward computation.
I0905 17:33:08.557235 31824 net.cpp:66] Creating Layer conv2
I0905 17:33:08.557240 31824 net.cpp:329] conv2 <- norm1
I0905 17:33:08.557247 31824 net.cpp:290] conv2 -> conv2
I0905 17:33:08.566135 31824 net.cpp:83] Top shape: 10 256 27 27 (1866240)
I0905 17:33:08.566153 31824 net.cpp:125] conv2 needs backward computation.
I0905 17:33:08.566159 31824 net.cpp:66] Creating Layer relu2
I0905 17:33:08.566165 31824 net.cpp:329] relu2 <- conv2
I0905 17:33:08.566172 31824 net.cpp:280] relu2 -> conv2 (in-place)
I0905 17:33:08.566179 31824 net.cpp:83] Top shape: 10 256 27 27 (1866240)
I0905 17:33:08.566184 31824 net.cpp:125] relu2 needs backward computation.
I0905 17:33:08.566190 31824 net.cpp:66] Creating Layer pool2
I0905 17:33:08.566202 31824 net.cpp:329] pool2 <- conv2
I0905 17:33:08.566210 31824 net.cpp:290] pool2 -> pool2
I0905 17:33:08.566218 31824 net.cpp:83] Top shape: 10 256 13 13 (432640)
I0905 17:33:08.566223 31824 net.cpp:125] pool2 needs backward computation.
I0905 17:33:08.566233 31824 net.cpp:66] Creating Layer fc7
I0905 17:33:08.566238 31824 net.cpp:329] fc7 <- pool2
I0905 17:33:08.566246 31824 net.cpp:290] fc7 -> fc7
I0905 17:33:09.193904 31824 net.cpp:83] Top shape: 10 512 1 1 (5120)
I0905 17:33:09.193951 31824 net.cpp:125] fc7 needs backward computation.
I0905 17:33:09.193964 31824 net.cpp:66] Creating Layer relu7
I0905 17:33:09.193971 31824 net.cpp:329] relu7 <- fc7
I0905 17:33:09.193981 31824 net.cpp:280] relu7 -> fc7 (in-place)
I0905 17:33:09.193991 31824 net.cpp:83] Top shape: 10 512 1 1 (5120)
I0905 17:33:09.193997 31824 net.cpp:125] relu7 needs backward computation.
I0905 17:33:09.194005 31824 net.cpp:66] Creating Layer drop7
I0905 17:33:09.194010 31824 net.cpp:329] drop7 <- fc7
I0905 17:33:09.194016 31824 net.cpp:280] drop7 -> fc7 (in-place)
I0905 17:33:09.194027 31824 net.cpp:83] Top shape: 10 512 1 1 (5120)
I0905 17:33:09.194033 31824 net.cpp:125] drop7 needs backward computation.
I0905 17:33:09.194042 31824 net.cpp:66] Creating Layer fc8
I0905 17:33:09.194047 31824 net.cpp:329] fc8 <- fc7
I0905 17:33:09.194056 31824 net.cpp:290] fc8 -> fc8
I0905 17:33:09.201614 31824 net.cpp:83] Top shape: 10 512 1 1 (5120)
I0905 17:33:09.201627 31824 net.cpp:125] fc8 needs backward computation.
I0905 17:33:09.201633 31824 net.cpp:66] Creating Layer relu8
I0905 17:33:09.201639 31824 net.cpp:329] relu8 <- fc8
I0905 17:33:09.201647 31824 net.cpp:280] relu8 -> fc8 (in-place)
I0905 17:33:09.201654 31824 net.cpp:83] Top shape: 10 512 1 1 (5120)
I0905 17:33:09.201659 31824 net.cpp:125] relu8 needs backward computation.
I0905 17:33:09.201666 31824 net.cpp:66] Creating Layer drop8
I0905 17:33:09.201671 31824 net.cpp:329] drop8 <- fc8
I0905 17:33:09.201678 31824 net.cpp:280] drop8 -> fc8 (in-place)
I0905 17:33:09.201685 31824 net.cpp:83] Top shape: 10 512 1 1 (5120)
I0905 17:33:09.201690 31824 net.cpp:125] drop8 needs backward computation.
I0905 17:33:09.201699 31824 net.cpp:66] Creating Layer fc9
I0905 17:33:09.201705 31824 net.cpp:329] fc9 <- fc8
I0905 17:33:09.201712 31824 net.cpp:290] fc9 -> fc9
I0905 17:33:09.202075 31824 net.cpp:83] Top shape: 10 24 1 1 (240)
I0905 17:33:09.202087 31824 net.cpp:125] fc9 needs backward computation.
I0905 17:33:09.202095 31824 net.cpp:66] Creating Layer fc10
I0905 17:33:09.202101 31824 net.cpp:329] fc10 <- fc9
I0905 17:33:09.202110 31824 net.cpp:290] fc10 -> fc10
I0905 17:33:09.202121 31824 net.cpp:83] Top shape: 10 2 1 1 (20)
I0905 17:33:09.202129 31824 net.cpp:125] fc10 needs backward computation.
I0905 17:33:09.202136 31824 net.cpp:66] Creating Layer prob
I0905 17:33:09.202142 31824 net.cpp:329] prob <- fc10
I0905 17:33:09.202149 31824 net.cpp:290] prob -> prob
I0905 17:33:09.202159 31824 net.cpp:83] Top shape: 10 2 1 1 (20)
I0905 17:33:09.202165 31824 net.cpp:125] prob needs backward computation.
I0905 17:33:09.202170 31824 net.cpp:156] This network produces output prob
I0905 17:33:09.202183 31824 net.cpp:402] Collecting Learning Rate and Weight Decay.
I0905 17:33:09.202191 31824 net.cpp:167] Network initialization done.
I0905 17:33:09.202196 31824 net.cpp:168] Memory required for data: 6183480
Classifying 22 inputs.
Done in 13.95 s.
WARNING: Logging before InitGoogleLogging() is written to STDERR
E0905 17:33:26.688029 31827 upgrade_proto.cpp:575] Attempting to upgrade input file specified using deprecated V0LayerParameter: distribute/python/../../senti/model4_boost_deploy.prototxt
I0905 17:33:26.688177 31827 upgrade_proto.cpp:582] Successfully upgraded file specified using deprecated V0LayerParameter
E0905 17:33:26.688187 31827 upgrade_proto.cpp:585] Note that future Caffe releases will not support V0NetParameter; use ./build/tools/upgrade_net_proto_text.bin to upgrade this and any other network proto files to the new format.
I0905 17:33:26.688339 31827 net.cpp:38] Initializing net from parameters: 
layers {
  bottom: "data"
  top: "conv1"
  name: "conv1"
  type: CONVOLUTION
  blobs_lr: 1
  blobs_lr: 2
  weight_decay: 1
  weight_decay: 0
  convolution_param {
    num_output: 96
    kernel_size: 11
    stride: 4
    weight_filler {
      type: "gaussian"
      std: 0.01
    }
    bias_filler {
      type: "constant"
      value: 0
    }
  }
}
layers {
  bottom: "conv1"
  top: "conv1"
  name: "relu1"
  type: RELU
}
layers {
  bottom: "conv1"
  top: "pool1"
  name: "pool1"
  type: POOLING
  pooling_param {
    pool: MAX
    kernel_size: 3
    stride: 2
  }
}
layers {
  bottom: "pool1"
  top: "norm1"
  name: "norm1"
  type: LRN
  lrn_param {
    local_size: 5
    alpha: 0.0001
    beta: 0.75
  }
}
layers {
  bottom: "norm1"
  top: "conv2"
  name: "conv2"
  type: CONVOLUTION
  blobs_lr: 1
  blobs_lr: 2
  weight_decay: 1
  weight_decay: 0
  convolution_param {
    num_output: 256
    pad: 2
    kernel_size: 5
    group: 2
    weight_filler {
      type: "gaussian"
      std: 0.01
    }
    bias_filler {
      type: "constant"
      value: 1
    }
  }
}
layers {
  bottom: "conv2"
  top: "conv2"
  name: "relu2"
  type: RELU
}
layers {
  bottom: "conv2"
  top: "pool2"
  name: "pool2"
  type: POOLING
  pooling_param {
    pool: MAX
    kernel_size: 3
    stride: 2
  }
}
layers {
  bottom: "pool2"
  top: "fc7"
  name: "fc7"
  type: INNER_PRODUCT
  blobs_lr: 1
  blobs_lr: 2
  weight_decay: 1
  weight_decay: 0
  inner_product_param {
    num_output: 512
    weight_filler {
      type: "gaussian"
      std: 0.005
    }
    bias_filler {
      type: "constant"
      value: 1
    }
  }
}
layers {
  bottom: "fc7"
  top: "fc7"
  name: "relu7"
  type: RELU
}
layers {
  bottom: "fc7"
  top: "fc7"
  name: "drop7"
  type: DROPOUT
  dropout_param {
    dropout_ratio: 0.5
  }
}
layers {
  bottom: "fc7"
  top: "fc8"
  name: "fc8"
  type: INNER_PRODUCT
  blobs_lr: 1
  blobs_lr: 2
  weight_decay: 1
  weight_decay: 0
  inner_product_param {
    num_output: 512
    weight_filler {
      type: "gaussian"
      std: 0.005
    }
    bias_filler {
      type: "constant"
      value: 1
    }
  }
}
layers {
  bottom: "fc8"
  top: "fc8"
  name: "relu8"
  type: RELU
}
layers {
  bottom: "fc8"
  top: "fc8"
  name: "drop8"
  type: DROPOUT
  dropout_param {
    dropout_ratio: 0.5
  }
}
layers {
  bottom: "fc8"
  top: "fc9"
  name: "fc9"
  type: INNER_PRODUCT
  blobs_lr: 1
  blobs_lr: 2
  weight_decay: 1
  weight_decay: 0
  inner_product_param {
    num_output: 24
    weight_filler {
      type: "gaussian"
      std: 0.01
    }
    bias_filler {
      type: "constant"
      value: 0
    }
  }
}
layers {
  bottom: "fc9"
  top: "fc10"
  name: "fc10"
  type: INNER_PRODUCT
  blobs_lr: 1
  blobs_lr: 2
  weight_decay: 1
  weight_decay: 0
  inner_product_param {
    num_output: 2
    weight_filler {
      type: "gaussian"
      std: 0.01
    }
    bias_filler {
      type: "constant"
      value: 0
    }
  }
}
layers {
  bottom: "fc10"
  top: "prob"
  name: "prob"
  type: SOFTMAX
}
input: "data"
input_dim: 10
input_dim: 3
input_dim: 227
input_dim: 227
I0905 17:33:26.688400 31827 net.cpp:292] Input 0 -> data
I0905 17:33:26.688427 31827 net.cpp:66] Creating Layer conv1
I0905 17:33:26.688433 31827 net.cpp:329] conv1 <- data
I0905 17:33:26.688441 31827 net.cpp:290] conv1 -> conv1
I0905 17:33:26.689798 31827 net.cpp:83] Top shape: 10 96 55 55 (2904000)
I0905 17:33:26.689816 31827 net.cpp:125] conv1 needs backward computation.
I0905 17:33:26.689826 31827 net.cpp:66] Creating Layer relu1
I0905 17:33:26.689831 31827 net.cpp:329] relu1 <- conv1
I0905 17:33:26.689838 31827 net.cpp:280] relu1 -> conv1 (in-place)
I0905 17:33:26.689846 31827 net.cpp:83] Top shape: 10 96 55 55 (2904000)
I0905 17:33:26.689852 31827 net.cpp:125] relu1 needs backward computation.
I0905 17:33:26.689859 31827 net.cpp:66] Creating Layer pool1
I0905 17:33:26.689864 31827 net.cpp:329] pool1 <- conv1
I0905 17:33:26.689872 31827 net.cpp:290] pool1 -> pool1
I0905 17:33:26.689882 31827 net.cpp:83] Top shape: 10 96 27 27 (699840)
I0905 17:33:26.689888 31827 net.cpp:125] pool1 needs backward computation.
I0905 17:33:26.689900 31827 net.cpp:66] Creating Layer norm1
I0905 17:33:26.689906 31827 net.cpp:329] norm1 <- pool1
I0905 17:33:26.689913 31827 net.cpp:290] norm1 -> norm1
I0905 17:33:26.689923 31827 net.cpp:83] Top shape: 10 96 27 27 (699840)
I0905 17:33:26.689929 31827 net.cpp:125] norm1 needs backward computation.
I0905 17:33:26.689936 31827 net.cpp:66] Creating Layer conv2
I0905 17:33:26.689941 31827 net.cpp:329] conv2 <- norm1
I0905 17:33:26.689949 31827 net.cpp:290] conv2 -> conv2
I0905 17:33:26.698851 31827 net.cpp:83] Top shape: 10 256 27 27 (1866240)
I0905 17:33:26.698865 31827 net.cpp:125] conv2 needs backward computation.
I0905 17:33:26.698873 31827 net.cpp:66] Creating Layer relu2
I0905 17:33:26.698878 31827 net.cpp:329] relu2 <- conv2
I0905 17:33:26.698884 31827 net.cpp:280] relu2 -> conv2 (in-place)
I0905 17:33:26.698891 31827 net.cpp:83] Top shape: 10 256 27 27 (1866240)
I0905 17:33:26.698897 31827 net.cpp:125] relu2 needs backward computation.
I0905 17:33:26.698904 31827 net.cpp:66] Creating Layer pool2
I0905 17:33:26.698909 31827 net.cpp:329] pool2 <- conv2
I0905 17:33:26.698915 31827 net.cpp:290] pool2 -> pool2
I0905 17:33:26.698922 31827 net.cpp:83] Top shape: 10 256 13 13 (432640)
I0905 17:33:26.698928 31827 net.cpp:125] pool2 needs backward computation.
I0905 17:33:26.698937 31827 net.cpp:66] Creating Layer fc7
I0905 17:33:26.698943 31827 net.cpp:329] fc7 <- pool2
I0905 17:33:26.698951 31827 net.cpp:290] fc7 -> fc7
I0905 17:33:27.332007 31827 net.cpp:83] Top shape: 10 512 1 1 (5120)
I0905 17:33:27.332056 31827 net.cpp:125] fc7 needs backward computation.
I0905 17:33:27.332070 31827 net.cpp:66] Creating Layer relu7
I0905 17:33:27.332077 31827 net.cpp:329] relu7 <- fc7
I0905 17:33:27.332087 31827 net.cpp:280] relu7 -> fc7 (in-place)
I0905 17:33:27.332098 31827 net.cpp:83] Top shape: 10 512 1 1 (5120)
I0905 17:33:27.332103 31827 net.cpp:125] relu7 needs backward computation.
I0905 17:33:27.332110 31827 net.cpp:66] Creating Layer drop7
I0905 17:33:27.332116 31827 net.cpp:329] drop7 <- fc7
I0905 17:33:27.332123 31827 net.cpp:280] drop7 -> fc7 (in-place)
I0905 17:33:27.332134 31827 net.cpp:83] Top shape: 10 512 1 1 (5120)
I0905 17:33:27.332140 31827 net.cpp:125] drop7 needs backward computation.
I0905 17:33:27.332149 31827 net.cpp:66] Creating Layer fc8
I0905 17:33:27.332154 31827 net.cpp:329] fc8 <- fc7
I0905 17:33:27.332164 31827 net.cpp:290] fc8 -> fc8
I0905 17:33:27.339931 31827 net.cpp:83] Top shape: 10 512 1 1 (5120)
I0905 17:33:27.339943 31827 net.cpp:125] fc8 needs backward computation.
I0905 17:33:27.339951 31827 net.cpp:66] Creating Layer relu8
I0905 17:33:27.339956 31827 net.cpp:329] relu8 <- fc8
I0905 17:33:27.339967 31827 net.cpp:280] relu8 -> fc8 (in-place)
I0905 17:33:27.339974 31827 net.cpp:83] Top shape: 10 512 1 1 (5120)
I0905 17:33:27.339979 31827 net.cpp:125] relu8 needs backward computation.
I0905 17:33:27.339987 31827 net.cpp:66] Creating Layer drop8
I0905 17:33:27.339993 31827 net.cpp:329] drop8 <- fc8
I0905 17:33:27.339998 31827 net.cpp:280] drop8 -> fc8 (in-place)
I0905 17:33:27.340005 31827 net.cpp:83] Top shape: 10 512 1 1 (5120)
I0905 17:33:27.340011 31827 net.cpp:125] drop8 needs backward computation.
I0905 17:33:27.340019 31827 net.cpp:66] Creating Layer fc9
I0905 17:33:27.340025 31827 net.cpp:329] fc9 <- fc8
I0905 17:33:27.340033 31827 net.cpp:290] fc9 -> fc9
I0905 17:33:27.340405 31827 net.cpp:83] Top shape: 10 24 1 1 (240)
I0905 17:33:27.340417 31827 net.cpp:125] fc9 needs backward computation.
I0905 17:33:27.340425 31827 net.cpp:66] Creating Layer fc10
I0905 17:33:27.340431 31827 net.cpp:329] fc10 <- fc9
I0905 17:33:27.340440 31827 net.cpp:290] fc10 -> fc10
I0905 17:33:27.340451 31827 net.cpp:83] Top shape: 10 2 1 1 (20)
I0905 17:33:27.340459 31827 net.cpp:125] fc10 needs backward computation.
I0905 17:33:27.340466 31827 net.cpp:66] Creating Layer prob
I0905 17:33:27.340472 31827 net.cpp:329] prob <- fc10
I0905 17:33:27.340479 31827 net.cpp:290] prob -> prob
I0905 17:33:27.340489 31827 net.cpp:83] Top shape: 10 2 1 1 (20)
I0905 17:33:27.340495 31827 net.cpp:125] prob needs backward computation.
I0905 17:33:27.340510 31827 net.cpp:156] This network produces output prob
I0905 17:33:27.340523 31827 net.cpp:402] Collecting Learning Rate and Weight Decay.
I0905 17:33:27.340533 31827 net.cpp:167] Network initialization done.
I0905 17:33:27.340538 31827 net.cpp:168] Memory required for data: 6183480
Classifying 308 inputs.
Done in 317.68 s.
Traceback (most recent call last):
  File "distribute/python/classify_m.py", line 156, in <module>
    main(sys.argv)
  File "distribute/python/classify_m.py", line 145, in main
    prediction = predictions[i]
IndexError: index 8 is out of bounds for axis 0 with size 8
WARNING: Logging before InitGoogleLogging() is written to STDERR
E0905 17:39:15.351290 31851 upgrade_proto.cpp:575] Attempting to upgrade input file specified using deprecated V0LayerParameter: distribute/python/../../senti/model4_boost_deploy.prototxt
I0905 17:39:15.351438 31851 upgrade_proto.cpp:582] Successfully upgraded file specified using deprecated V0LayerParameter
E0905 17:39:15.351445 31851 upgrade_proto.cpp:585] Note that future Caffe releases will not support V0NetParameter; use ./build/tools/upgrade_net_proto_text.bin to upgrade this and any other network proto files to the new format.
I0905 17:39:15.351588 31851 net.cpp:38] Initializing net from parameters: 
layers {
  bottom: "data"
  top: "conv1"
  name: "conv1"
  type: CONVOLUTION
  blobs_lr: 1
  blobs_lr: 2
  weight_decay: 1
  weight_decay: 0
  convolution_param {
    num_output: 96
    kernel_size: 11
    stride: 4
    weight_filler {
      type: "gaussian"
      std: 0.01
    }
    bias_filler {
      type: "constant"
      value: 0
    }
  }
}
layers {
  bottom: "conv1"
  top: "conv1"
  name: "relu1"
  type: RELU
}
layers {
  bottom: "conv1"
  top: "pool1"
  name: "pool1"
  type: POOLING
  pooling_param {
    pool: MAX
    kernel_size: 3
    stride: 2
  }
}
layers {
  bottom: "pool1"
  top: "norm1"
  name: "norm1"
  type: LRN
  lrn_param {
    local_size: 5
    alpha: 0.0001
    beta: 0.75
  }
}
layers {
  bottom: "norm1"
  top: "conv2"
  name: "conv2"
  type: CONVOLUTION
  blobs_lr: 1
  blobs_lr: 2
  weight_decay: 1
  weight_decay: 0
  convolution_param {
    num_output: 256
    pad: 2
    kernel_size: 5
    group: 2
    weight_filler {
      type: "gaussian"
      std: 0.01
    }
    bias_filler {
      type: "constant"
      value: 1
    }
  }
}
layers {
  bottom: "conv2"
  top: "conv2"
  name: "relu2"
  type: RELU
}
layers {
  bottom: "conv2"
  top: "pool2"
  name: "pool2"
  type: POOLING
  pooling_param {
    pool: MAX
    kernel_size: 3
    stride: 2
  }
}
layers {
  bottom: "pool2"
  top: "fc7"
  name: "fc7"
  type: INNER_PRODUCT
  blobs_lr: 1
  blobs_lr: 2
  weight_decay: 1
  weight_decay: 0
  inner_product_param {
    num_output: 512
    weight_filler {
      type: "gaussian"
      std: 0.005
    }
    bias_filler {
      type: "constant"
      value: 1
    }
  }
}
layers {
  bottom: "fc7"
  top: "fc7"
  name: "relu7"
  type: RELU
}
layers {
  bottom: "fc7"
  top: "fc7"
  name: "drop7"
  type: DROPOUT
  dropout_param {
    dropout_ratio: 0.5
  }
}
layers {
  bottom: "fc7"
  top: "fc8"
  name: "fc8"
  type: INNER_PRODUCT
  blobs_lr: 1
  blobs_lr: 2
  weight_decay: 1
  weight_decay: 0
  inner_product_param {
    num_output: 512
    weight_filler {
      type: "gaussian"
      std: 0.005
    }
    bias_filler {
      type: "constant"
      value: 1
    }
  }
}
layers {
  bottom: "fc8"
  top: "fc8"
  name: "relu8"
  type: RELU
}
layers {
  bottom: "fc8"
  top: "fc8"
  name: "drop8"
  type: DROPOUT
  dropout_param {
    dropout_ratio: 0.5
  }
}
layers {
  bottom: "fc8"
  top: "fc9"
  name: "fc9"
  type: INNER_PRODUCT
  blobs_lr: 1
  blobs_lr: 2
  weight_decay: 1
  weight_decay: 0
  inner_product_param {
    num_output: 24
    weight_filler {
      type: "gaussian"
      std: 0.01
    }
    bias_filler {
      type: "constant"
      value: 0
    }
  }
}
layers {
  bottom: "fc9"
  top: "fc10"
  name: "fc10"
  type: INNER_PRODUCT
  blobs_lr: 1
  blobs_lr: 2
  weight_decay: 1
  weight_decay: 0
  inner_product_param {
    num_output: 2
    weight_filler {
      type: "gaussian"
      std: 0.01
    }
    bias_filler {
      type: "constant"
      value: 0
    }
  }
}
layers {
  bottom: "fc10"
  top: "prob"
  name: "prob"
  type: SOFTMAX
}
input: "data"
input_dim: 10
input_dim: 3
input_dim: 227
input_dim: 227
I0905 17:39:15.351647 31851 net.cpp:292] Input 0 -> data
I0905 17:39:15.351672 31851 net.cpp:66] Creating Layer conv1
I0905 17:39:15.351680 31851 net.cpp:329] conv1 <- data
I0905 17:39:15.351687 31851 net.cpp:290] conv1 -> conv1
I0905 17:39:15.376541 31851 net.cpp:83] Top shape: 10 96 55 55 (2904000)
I0905 17:39:15.376566 31851 net.cpp:125] conv1 needs backward computation.
I0905 17:39:15.376575 31851 net.cpp:66] Creating Layer relu1
I0905 17:39:15.376581 31851 net.cpp:329] relu1 <- conv1
I0905 17:39:15.376588 31851 net.cpp:280] relu1 -> conv1 (in-place)
I0905 17:39:15.376597 31851 net.cpp:83] Top shape: 10 96 55 55 (2904000)
I0905 17:39:15.376602 31851 net.cpp:125] relu1 needs backward computation.
I0905 17:39:15.376610 31851 net.cpp:66] Creating Layer pool1
I0905 17:39:15.376616 31851 net.cpp:329] pool1 <- conv1
I0905 17:39:15.376621 31851 net.cpp:290] pool1 -> pool1
I0905 17:39:15.376632 31851 net.cpp:83] Top shape: 10 96 27 27 (699840)
I0905 17:39:15.376638 31851 net.cpp:125] pool1 needs backward computation.
I0905 17:39:15.376644 31851 net.cpp:66] Creating Layer norm1
I0905 17:39:15.376651 31851 net.cpp:329] norm1 <- pool1
I0905 17:39:15.376657 31851 net.cpp:290] norm1 -> norm1
I0905 17:39:15.376665 31851 net.cpp:83] Top shape: 10 96 27 27 (699840)
I0905 17:39:15.376672 31851 net.cpp:125] norm1 needs backward computation.
I0905 17:39:15.376678 31851 net.cpp:66] Creating Layer conv2
I0905 17:39:15.376684 31851 net.cpp:329] conv2 <- norm1
I0905 17:39:15.376691 31851 net.cpp:290] conv2 -> conv2
I0905 17:39:15.385527 31851 net.cpp:83] Top shape: 10 256 27 27 (1866240)
I0905 17:39:15.385541 31851 net.cpp:125] conv2 needs backward computation.
I0905 17:39:15.385548 31851 net.cpp:66] Creating Layer relu2
I0905 17:39:15.385553 31851 net.cpp:329] relu2 <- conv2
I0905 17:39:15.385560 31851 net.cpp:280] relu2 -> conv2 (in-place)
I0905 17:39:15.385567 31851 net.cpp:83] Top shape: 10 256 27 27 (1866240)
I0905 17:39:15.385572 31851 net.cpp:125] relu2 needs backward computation.
I0905 17:39:15.385581 31851 net.cpp:66] Creating Layer pool2
I0905 17:39:15.385587 31851 net.cpp:329] pool2 <- conv2
I0905 17:39:15.385594 31851 net.cpp:290] pool2 -> pool2
I0905 17:39:15.385602 31851 net.cpp:83] Top shape: 10 256 13 13 (432640)
I0905 17:39:15.385607 31851 net.cpp:125] pool2 needs backward computation.
I0905 17:39:15.385617 31851 net.cpp:66] Creating Layer fc7
I0905 17:39:15.385622 31851 net.cpp:329] fc7 <- pool2
I0905 17:39:15.385628 31851 net.cpp:290] fc7 -> fc7
I0905 17:39:16.013674 31851 net.cpp:83] Top shape: 10 512 1 1 (5120)
I0905 17:39:16.013718 31851 net.cpp:125] fc7 needs backward computation.
I0905 17:39:16.013731 31851 net.cpp:66] Creating Layer relu7
I0905 17:39:16.013738 31851 net.cpp:329] relu7 <- fc7
I0905 17:39:16.013748 31851 net.cpp:280] relu7 -> fc7 (in-place)
I0905 17:39:16.013758 31851 net.cpp:83] Top shape: 10 512 1 1 (5120)
I0905 17:39:16.013764 31851 net.cpp:125] relu7 needs backward computation.
I0905 17:39:16.013772 31851 net.cpp:66] Creating Layer drop7
I0905 17:39:16.013777 31851 net.cpp:329] drop7 <- fc7
I0905 17:39:16.013783 31851 net.cpp:280] drop7 -> fc7 (in-place)
I0905 17:39:16.013794 31851 net.cpp:83] Top shape: 10 512 1 1 (5120)
I0905 17:39:16.013799 31851 net.cpp:125] drop7 needs backward computation.
I0905 17:39:16.013808 31851 net.cpp:66] Creating Layer fc8
I0905 17:39:16.013813 31851 net.cpp:329] fc8 <- fc7
I0905 17:39:16.013823 31851 net.cpp:290] fc8 -> fc8
I0905 17:39:16.021580 31851 net.cpp:83] Top shape: 10 512 1 1 (5120)
I0905 17:39:16.021592 31851 net.cpp:125] fc8 needs backward computation.
I0905 17:39:16.021600 31851 net.cpp:66] Creating Layer relu8
I0905 17:39:16.021605 31851 net.cpp:329] relu8 <- fc8
I0905 17:39:16.021613 31851 net.cpp:280] relu8 -> fc8 (in-place)
I0905 17:39:16.021620 31851 net.cpp:83] Top shape: 10 512 1 1 (5120)
I0905 17:39:16.021637 31851 net.cpp:125] relu8 needs backward computation.
I0905 17:39:16.021644 31851 net.cpp:66] Creating Layer drop8
I0905 17:39:16.021649 31851 net.cpp:329] drop8 <- fc8
I0905 17:39:16.021656 31851 net.cpp:280] drop8 -> fc8 (in-place)
I0905 17:39:16.021663 31851 net.cpp:83] Top shape: 10 512 1 1 (5120)
I0905 17:39:16.021668 31851 net.cpp:125] drop8 needs backward computation.
I0905 17:39:16.021677 31851 net.cpp:66] Creating Layer fc9
I0905 17:39:16.021682 31851 net.cpp:329] fc9 <- fc8
I0905 17:39:16.021689 31851 net.cpp:290] fc9 -> fc9
I0905 17:39:16.022063 31851 net.cpp:83] Top shape: 10 24 1 1 (240)
I0905 17:39:16.022075 31851 net.cpp:125] fc9 needs backward computation.
I0905 17:39:16.022083 31851 net.cpp:66] Creating Layer fc10
I0905 17:39:16.022089 31851 net.cpp:329] fc10 <- fc9
I0905 17:39:16.022097 31851 net.cpp:290] fc10 -> fc10
I0905 17:39:16.022109 31851 net.cpp:83] Top shape: 10 2 1 1 (20)
I0905 17:39:16.022116 31851 net.cpp:125] fc10 needs backward computation.
I0905 17:39:16.022122 31851 net.cpp:66] Creating Layer prob
I0905 17:39:16.022128 31851 net.cpp:329] prob <- fc10
I0905 17:39:16.022136 31851 net.cpp:290] prob -> prob
I0905 17:39:16.022145 31851 net.cpp:83] Top shape: 10 2 1 1 (20)
I0905 17:39:16.022151 31851 net.cpp:125] prob needs backward computation.
I0905 17:39:16.022156 31851 net.cpp:156] This network produces output prob
I0905 17:39:16.022168 31851 net.cpp:402] Collecting Learning Rate and Weight Decay.
I0905 17:39:16.022176 31851 net.cpp:167] Network initialization done.
I0905 17:39:16.022182 31851 net.cpp:168] Memory required for data: 6183480
Classifying 16 inputs.
Done in 9.73 s.
WARNING: Logging before InitGoogleLogging() is written to STDERR
E0905 17:39:27.978488 31855 upgrade_proto.cpp:575] Attempting to upgrade input file specified using deprecated V0LayerParameter: distribute/python/../../senti/model4_boost_deploy.prototxt
I0905 17:39:27.978627 31855 upgrade_proto.cpp:582] Successfully upgraded file specified using deprecated V0LayerParameter
E0905 17:39:27.978636 31855 upgrade_proto.cpp:585] Note that future Caffe releases will not support V0NetParameter; use ./build/tools/upgrade_net_proto_text.bin to upgrade this and any other network proto files to the new format.
I0905 17:39:27.978782 31855 net.cpp:38] Initializing net from parameters: 
layers {
  bottom: "data"
  top: "conv1"
  name: "conv1"
  type: CONVOLUTION
  blobs_lr: 1
  blobs_lr: 2
  weight_decay: 1
  weight_decay: 0
  convolution_param {
    num_output: 96
    kernel_size: 11
    stride: 4
    weight_filler {
      type: "gaussian"
      std: 0.01
    }
    bias_filler {
      type: "constant"
      value: 0
    }
  }
}
layers {
  bottom: "conv1"
  top: "conv1"
  name: "relu1"
  type: RELU
}
layers {
  bottom: "conv1"
  top: "pool1"
  name: "pool1"
  type: POOLING
  pooling_param {
    pool: MAX
    kernel_size: 3
    stride: 2
  }
}
layers {
  bottom: "pool1"
  top: "norm1"
  name: "norm1"
  type: LRN
  lrn_param {
    local_size: 5
    alpha: 0.0001
    beta: 0.75
  }
}
layers {
  bottom: "norm1"
  top: "conv2"
  name: "conv2"
  type: CONVOLUTION
  blobs_lr: 1
  blobs_lr: 2
  weight_decay: 1
  weight_decay: 0
  convolution_param {
    num_output: 256
    pad: 2
    kernel_size: 5
    group: 2
    weight_filler {
      type: "gaussian"
      std: 0.01
    }
    bias_filler {
      type: "constant"
      value: 1
    }
  }
}
layers {
  bottom: "conv2"
  top: "conv2"
  name: "relu2"
  type: RELU
}
layers {
  bottom: "conv2"
  top: "pool2"
  name: "pool2"
  type: POOLING
  pooling_param {
    pool: MAX
    kernel_size: 3
    stride: 2
  }
}
layers {
  bottom: "pool2"
  top: "fc7"
  name: "fc7"
  type: INNER_PRODUCT
  blobs_lr: 1
  blobs_lr: 2
  weight_decay: 1
  weight_decay: 0
  inner_product_param {
    num_output: 512
    weight_filler {
      type: "gaussian"
      std: 0.005
    }
    bias_filler {
      type: "constant"
      value: 1
    }
  }
}
layers {
  bottom: "fc7"
  top: "fc7"
  name: "relu7"
  type: RELU
}
layers {
  bottom: "fc7"
  top: "fc7"
  name: "drop7"
  type: DROPOUT
  dropout_param {
    dropout_ratio: 0.5
  }
}
layers {
  bottom: "fc7"
  top: "fc8"
  name: "fc8"
  type: INNER_PRODUCT
  blobs_lr: 1
  blobs_lr: 2
  weight_decay: 1
  weight_decay: 0
  inner_product_param {
    num_output: 512
    weight_filler {
      type: "gaussian"
      std: 0.005
    }
    bias_filler {
      type: "constant"
      value: 1
    }
  }
}
layers {
  bottom: "fc8"
  top: "fc8"
  name: "relu8"
  type: RELU
}
layers {
  bottom: "fc8"
  top: "fc8"
  name: "drop8"
  type: DROPOUT
  dropout_param {
    dropout_ratio: 0.5
  }
}
layers {
  bottom: "fc8"
  top: "fc9"
  name: "fc9"
  type: INNER_PRODUCT
  blobs_lr: 1
  blobs_lr: 2
  weight_decay: 1
  weight_decay: 0
  inner_product_param {
    num_output: 24
    weight_filler {
      type: "gaussian"
      std: 0.01
    }
    bias_filler {
      type: "constant"
      value: 0
    }
  }
}
layers {
  bottom: "fc9"
  top: "fc10"
  name: "fc10"
  type: INNER_PRODUCT
  blobs_lr: 1
  blobs_lr: 2
  weight_decay: 1
  weight_decay: 0
  inner_product_param {
    num_output: 2
    weight_filler {
      type: "gaussian"
      std: 0.01
    }
    bias_filler {
      type: "constant"
      value: 0
    }
  }
}
layers {
  bottom: "fc10"
  top: "prob"
  name: "prob"
  type: SOFTMAX
}
input: "data"
input_dim: 10
input_dim: 3
input_dim: 227
input_dim: 227
I0905 17:39:27.978847 31855 net.cpp:292] Input 0 -> data
I0905 17:39:27.978871 31855 net.cpp:66] Creating Layer conv1
I0905 17:39:27.978878 31855 net.cpp:329] conv1 <- data
I0905 17:39:27.978886 31855 net.cpp:290] conv1 -> conv1
I0905 17:39:27.980245 31855 net.cpp:83] Top shape: 10 96 55 55 (2904000)
I0905 17:39:27.980263 31855 net.cpp:125] conv1 needs backward computation.
I0905 17:39:27.980273 31855 net.cpp:66] Creating Layer relu1
I0905 17:39:27.980278 31855 net.cpp:329] relu1 <- conv1
I0905 17:39:27.980284 31855 net.cpp:280] relu1 -> conv1 (in-place)
I0905 17:39:27.980293 31855 net.cpp:83] Top shape: 10 96 55 55 (2904000)
I0905 17:39:27.980299 31855 net.cpp:125] relu1 needs backward computation.
I0905 17:39:27.980306 31855 net.cpp:66] Creating Layer pool1
I0905 17:39:27.980311 31855 net.cpp:329] pool1 <- conv1
I0905 17:39:27.980319 31855 net.cpp:290] pool1 -> pool1
I0905 17:39:27.980329 31855 net.cpp:83] Top shape: 10 96 27 27 (699840)
I0905 17:39:27.980335 31855 net.cpp:125] pool1 needs backward computation.
I0905 17:39:27.980342 31855 net.cpp:66] Creating Layer norm1
I0905 17:39:27.980347 31855 net.cpp:329] norm1 <- pool1
I0905 17:39:27.980355 31855 net.cpp:290] norm1 -> norm1
I0905 17:39:27.980363 31855 net.cpp:83] Top shape: 10 96 27 27 (699840)
I0905 17:39:27.980370 31855 net.cpp:125] norm1 needs backward computation.
I0905 17:39:27.980376 31855 net.cpp:66] Creating Layer conv2
I0905 17:39:27.980382 31855 net.cpp:329] conv2 <- norm1
I0905 17:39:27.980389 31855 net.cpp:290] conv2 -> conv2
I0905 17:39:27.989476 31855 net.cpp:83] Top shape: 10 256 27 27 (1866240)
I0905 17:39:27.989491 31855 net.cpp:125] conv2 needs backward computation.
I0905 17:39:27.989498 31855 net.cpp:66] Creating Layer relu2
I0905 17:39:27.989505 31855 net.cpp:329] relu2 <- conv2
I0905 17:39:27.989511 31855 net.cpp:280] relu2 -> conv2 (in-place)
I0905 17:39:27.989517 31855 net.cpp:83] Top shape: 10 256 27 27 (1866240)
I0905 17:39:27.989523 31855 net.cpp:125] relu2 needs backward computation.
I0905 17:39:27.989533 31855 net.cpp:66] Creating Layer pool2
I0905 17:39:27.989539 31855 net.cpp:329] pool2 <- conv2
I0905 17:39:27.989545 31855 net.cpp:290] pool2 -> pool2
I0905 17:39:27.989553 31855 net.cpp:83] Top shape: 10 256 13 13 (432640)
I0905 17:39:27.989559 31855 net.cpp:125] pool2 needs backward computation.
I0905 17:39:27.989567 31855 net.cpp:66] Creating Layer fc7
I0905 17:39:27.989572 31855 net.cpp:329] fc7 <- pool2
I0905 17:39:27.989586 31855 net.cpp:290] fc7 -> fc7
I0905 17:39:28.622294 31855 net.cpp:83] Top shape: 10 512 1 1 (5120)
I0905 17:39:28.622339 31855 net.cpp:125] fc7 needs backward computation.
I0905 17:39:28.622350 31855 net.cpp:66] Creating Layer relu7
I0905 17:39:28.622357 31855 net.cpp:329] relu7 <- fc7
I0905 17:39:28.622366 31855 net.cpp:280] relu7 -> fc7 (in-place)
I0905 17:39:28.622386 31855 net.cpp:83] Top shape: 10 512 1 1 (5120)
I0905 17:39:28.622392 31855 net.cpp:125] relu7 needs backward computation.
I0905 17:39:28.622400 31855 net.cpp:66] Creating Layer drop7
I0905 17:39:28.622406 31855 net.cpp:329] drop7 <- fc7
I0905 17:39:28.622411 31855 net.cpp:280] drop7 -> fc7 (in-place)
I0905 17:39:28.622421 31855 net.cpp:83] Top shape: 10 512 1 1 (5120)
I0905 17:39:28.622427 31855 net.cpp:125] drop7 needs backward computation.
I0905 17:39:28.622436 31855 net.cpp:66] Creating Layer fc8
I0905 17:39:28.622441 31855 net.cpp:329] fc8 <- fc7
I0905 17:39:28.622449 31855 net.cpp:290] fc8 -> fc8
I0905 17:39:28.630005 31855 net.cpp:83] Top shape: 10 512 1 1 (5120)
I0905 17:39:28.630018 31855 net.cpp:125] fc8 needs backward computation.
I0905 17:39:28.630024 31855 net.cpp:66] Creating Layer relu8
I0905 17:39:28.630030 31855 net.cpp:329] relu8 <- fc8
I0905 17:39:28.630038 31855 net.cpp:280] relu8 -> fc8 (in-place)
I0905 17:39:28.630044 31855 net.cpp:83] Top shape: 10 512 1 1 (5120)
I0905 17:39:28.630050 31855 net.cpp:125] relu8 needs backward computation.
I0905 17:39:28.630056 31855 net.cpp:66] Creating Layer drop8
I0905 17:39:28.630061 31855 net.cpp:329] drop8 <- fc8
I0905 17:39:28.630067 31855 net.cpp:280] drop8 -> fc8 (in-place)
I0905 17:39:28.630074 31855 net.cpp:83] Top shape: 10 512 1 1 (5120)
I0905 17:39:28.630079 31855 net.cpp:125] drop8 needs backward computation.
I0905 17:39:28.630089 31855 net.cpp:66] Creating Layer fc9
I0905 17:39:28.630094 31855 net.cpp:329] fc9 <- fc8
I0905 17:39:28.630100 31855 net.cpp:290] fc9 -> fc9
I0905 17:39:28.630463 31855 net.cpp:83] Top shape: 10 24 1 1 (240)
I0905 17:39:28.630475 31855 net.cpp:125] fc9 needs backward computation.
I0905 17:39:28.630482 31855 net.cpp:66] Creating Layer fc10
I0905 17:39:28.630487 31855 net.cpp:329] fc10 <- fc9
I0905 17:39:28.630496 31855 net.cpp:290] fc10 -> fc10
I0905 17:39:28.630506 31855 net.cpp:83] Top shape: 10 2 1 1 (20)
I0905 17:39:28.630514 31855 net.cpp:125] fc10 needs backward computation.
I0905 17:39:28.630520 31855 net.cpp:66] Creating Layer prob
I0905 17:39:28.630527 31855 net.cpp:329] prob <- fc10
I0905 17:39:28.630533 31855 net.cpp:290] prob -> prob
I0905 17:39:28.630542 31855 net.cpp:83] Top shape: 10 2 1 1 (20)
I0905 17:39:28.630548 31855 net.cpp:125] prob needs backward computation.
I0905 17:39:28.630553 31855 net.cpp:156] This network produces output prob
I0905 17:39:28.630565 31855 net.cpp:402] Collecting Learning Rate and Weight Decay.
I0905 17:39:28.630573 31855 net.cpp:167] Network initialization done.
I0905 17:39:28.630578 31855 net.cpp:168] Memory required for data: 6183480
Classifying 305 inputs.
Done in 183.15 s.
Traceback (most recent call last):
  File "distribute/python/classify_m.py", line 156, in <module>
    main(sys.argv)
  File "distribute/python/classify_m.py", line 145, in main
    prediction = predictions[i]
IndexError: index 5 is out of bounds for axis 0 with size 5
WARNING: Logging before InitGoogleLogging() is written to STDERR
E0905 17:42:39.588510 31869 upgrade_proto.cpp:575] Attempting to upgrade input file specified using deprecated V0LayerParameter: distribute/python/../../senti/model4_boost_deploy.prototxt
I0905 17:42:39.588644 31869 upgrade_proto.cpp:582] Successfully upgraded file specified using deprecated V0LayerParameter
E0905 17:42:39.588654 31869 upgrade_proto.cpp:585] Note that future Caffe releases will not support V0NetParameter; use ./build/tools/upgrade_net_proto_text.bin to upgrade this and any other network proto files to the new format.
I0905 17:42:39.588794 31869 net.cpp:38] Initializing net from parameters: 
layers {
  bottom: "data"
  top: "conv1"
  name: "conv1"
  type: CONVOLUTION
  blobs_lr: 1
  blobs_lr: 2
  weight_decay: 1
  weight_decay: 0
  convolution_param {
    num_output: 96
    kernel_size: 11
    stride: 4
    weight_filler {
      type: "gaussian"
      std: 0.01
    }
    bias_filler {
      type: "constant"
      value: 0
    }
  }
}
layers {
  bottom: "conv1"
  top: "conv1"
  name: "relu1"
  type: RELU
}
layers {
  bottom: "conv1"
  top: "pool1"
  name: "pool1"
  type: POOLING
  pooling_param {
    pool: MAX
    kernel_size: 3
    stride: 2
  }
}
layers {
  bottom: "pool1"
  top: "norm1"
  name: "norm1"
  type: LRN
  lrn_param {
    local_size: 5
    alpha: 0.0001
    beta: 0.75
  }
}
layers {
  bottom: "norm1"
  top: "conv2"
  name: "conv2"
  type: CONVOLUTION
  blobs_lr: 1
  blobs_lr: 2
  weight_decay: 1
  weight_decay: 0
  convolution_param {
    num_output: 256
    pad: 2
    kernel_size: 5
    group: 2
    weight_filler {
      type: "gaussian"
      std: 0.01
    }
    bias_filler {
      type: "constant"
      value: 1
    }
  }
}
layers {
  bottom: "conv2"
  top: "conv2"
  name: "relu2"
  type: RELU
}
layers {
  bottom: "conv2"
  top: "pool2"
  name: "pool2"
  type: POOLING
  pooling_param {
    pool: MAX
    kernel_size: 3
    stride: 2
  }
}
layers {
  bottom: "pool2"
  top: "fc7"
  name: "fc7"
  type: INNER_PRODUCT
  blobs_lr: 1
  blobs_lr: 2
  weight_decay: 1
  weight_decay: 0
  inner_product_param {
    num_output: 512
    weight_filler {
      type: "gaussian"
      std: 0.005
    }
    bias_filler {
      type: "constant"
      value: 1
    }
  }
}
layers {
  bottom: "fc7"
  top: "fc7"
  name: "relu7"
  type: RELU
}
layers {
  bottom: "fc7"
  top: "fc7"
  name: "drop7"
  type: DROPOUT
  dropout_param {
    dropout_ratio: 0.5
  }
}
layers {
  bottom: "fc7"
  top: "fc8"
  name: "fc8"
  type: INNER_PRODUCT
  blobs_lr: 1
  blobs_lr: 2
  weight_decay: 1
  weight_decay: 0
  inner_product_param {
    num_output: 512
    weight_filler {
      type: "gaussian"
      std: 0.005
    }
    bias_filler {
      type: "constant"
      value: 1
    }
  }
}
layers {
  bottom: "fc8"
  top: "fc8"
  name: "relu8"
  type: RELU
}
layers {
  bottom: "fc8"
  top: "fc8"
  name: "drop8"
  type: DROPOUT
  dropout_param {
    dropout_ratio: 0.5
  }
}
layers {
  bottom: "fc8"
  top: "fc9"
  name: "fc9"
  type: INNER_PRODUCT
  blobs_lr: 1
  blobs_lr: 2
  weight_decay: 1
  weight_decay: 0
  inner_product_param {
    num_output: 24
    weight_filler {
      type: "gaussian"
      std: 0.01
    }
    bias_filler {
      type: "constant"
      value: 0
    }
  }
}
layers {
  bottom: "fc9"
  top: "fc10"
  name: "fc10"
  type: INNER_PRODUCT
  blobs_lr: 1
  blobs_lr: 2
  weight_decay: 1
  weight_decay: 0
  inner_product_param {
    num_output: 2
    weight_filler {
      type: "gaussian"
      std: 0.01
    }
    bias_filler {
      type: "constant"
      value: 0
    }
  }
}
layers {
  bottom: "fc10"
  top: "prob"
  name: "prob"
  type: SOFTMAX
}
input: "data"
input_dim: 10
input_dim: 3
input_dim: 227
input_dim: 227
I0905 17:42:39.588856 31869 net.cpp:292] Input 0 -> data
I0905 17:42:39.588882 31869 net.cpp:66] Creating Layer conv1
I0905 17:42:39.588889 31869 net.cpp:329] conv1 <- data
I0905 17:42:39.588897 31869 net.cpp:290] conv1 -> conv1
I0905 17:42:39.590256 31869 net.cpp:83] Top shape: 10 96 55 55 (2904000)
I0905 17:42:39.590275 31869 net.cpp:125] conv1 needs backward computation.
I0905 17:42:39.590283 31869 net.cpp:66] Creating Layer relu1
I0905 17:42:39.590289 31869 net.cpp:329] relu1 <- conv1
I0905 17:42:39.590296 31869 net.cpp:280] relu1 -> conv1 (in-place)
I0905 17:42:39.590304 31869 net.cpp:83] Top shape: 10 96 55 55 (2904000)
I0905 17:42:39.590311 31869 net.cpp:125] relu1 needs backward computation.
I0905 17:42:39.590317 31869 net.cpp:66] Creating Layer pool1
I0905 17:42:39.590322 31869 net.cpp:329] pool1 <- conv1
I0905 17:42:39.590328 31869 net.cpp:290] pool1 -> pool1
I0905 17:42:39.590339 31869 net.cpp:83] Top shape: 10 96 27 27 (699840)
I0905 17:42:39.590344 31869 net.cpp:125] pool1 needs backward computation.
I0905 17:42:39.590351 31869 net.cpp:66] Creating Layer norm1
I0905 17:42:39.590356 31869 net.cpp:329] norm1 <- pool1
I0905 17:42:39.590363 31869 net.cpp:290] norm1 -> norm1
I0905 17:42:39.590373 31869 net.cpp:83] Top shape: 10 96 27 27 (699840)
I0905 17:42:39.590378 31869 net.cpp:125] norm1 needs backward computation.
I0905 17:42:39.590385 31869 net.cpp:66] Creating Layer conv2
I0905 17:42:39.590390 31869 net.cpp:329] conv2 <- norm1
I0905 17:42:39.590402 31869 net.cpp:290] conv2 -> conv2
I0905 17:42:39.599272 31869 net.cpp:83] Top shape: 10 256 27 27 (1866240)
I0905 17:42:39.599287 31869 net.cpp:125] conv2 needs backward computation.
I0905 17:42:39.599294 31869 net.cpp:66] Creating Layer relu2
I0905 17:42:39.599299 31869 net.cpp:329] relu2 <- conv2
I0905 17:42:39.599305 31869 net.cpp:280] relu2 -> conv2 (in-place)
I0905 17:42:39.599313 31869 net.cpp:83] Top shape: 10 256 27 27 (1866240)
I0905 17:42:39.599318 31869 net.cpp:125] relu2 needs backward computation.
I0905 17:42:39.599324 31869 net.cpp:66] Creating Layer pool2
I0905 17:42:39.599329 31869 net.cpp:329] pool2 <- conv2
I0905 17:42:39.599336 31869 net.cpp:290] pool2 -> pool2
I0905 17:42:39.599344 31869 net.cpp:83] Top shape: 10 256 13 13 (432640)
I0905 17:42:39.599349 31869 net.cpp:125] pool2 needs backward computation.
I0905 17:42:39.599359 31869 net.cpp:66] Creating Layer fc7
I0905 17:42:39.599364 31869 net.cpp:329] fc7 <- pool2
I0905 17:42:39.599370 31869 net.cpp:290] fc7 -> fc7
I0905 17:42:40.245232 31869 net.cpp:83] Top shape: 10 512 1 1 (5120)
I0905 17:42:40.245277 31869 net.cpp:125] fc7 needs backward computation.
I0905 17:42:40.245290 31869 net.cpp:66] Creating Layer relu7
I0905 17:42:40.245297 31869 net.cpp:329] relu7 <- fc7
I0905 17:42:40.245306 31869 net.cpp:280] relu7 -> fc7 (in-place)
I0905 17:42:40.245316 31869 net.cpp:83] Top shape: 10 512 1 1 (5120)
I0905 17:42:40.245322 31869 net.cpp:125] relu7 needs backward computation.
I0905 17:42:40.245331 31869 net.cpp:66] Creating Layer drop7
I0905 17:42:40.245335 31869 net.cpp:329] drop7 <- fc7
I0905 17:42:40.245342 31869 net.cpp:280] drop7 -> fc7 (in-place)
I0905 17:42:40.245352 31869 net.cpp:83] Top shape: 10 512 1 1 (5120)
I0905 17:42:40.245358 31869 net.cpp:125] drop7 needs backward computation.
I0905 17:42:40.245367 31869 net.cpp:66] Creating Layer fc8
I0905 17:42:40.245371 31869 net.cpp:329] fc8 <- fc7
I0905 17:42:40.245380 31869 net.cpp:290] fc8 -> fc8
I0905 17:42:40.253353 31869 net.cpp:83] Top shape: 10 512 1 1 (5120)
I0905 17:42:40.253366 31869 net.cpp:125] fc8 needs backward computation.
I0905 17:42:40.253372 31869 net.cpp:66] Creating Layer relu8
I0905 17:42:40.253378 31869 net.cpp:329] relu8 <- fc8
I0905 17:42:40.253386 31869 net.cpp:280] relu8 -> fc8 (in-place)
I0905 17:42:40.253393 31869 net.cpp:83] Top shape: 10 512 1 1 (5120)
I0905 17:42:40.253399 31869 net.cpp:125] relu8 needs backward computation.
I0905 17:42:40.253406 31869 net.cpp:66] Creating Layer drop8
I0905 17:42:40.253411 31869 net.cpp:329] drop8 <- fc8
I0905 17:42:40.253417 31869 net.cpp:280] drop8 -> fc8 (in-place)
I0905 17:42:40.253423 31869 net.cpp:83] Top shape: 10 512 1 1 (5120)
I0905 17:42:40.253429 31869 net.cpp:125] drop8 needs backward computation.
I0905 17:42:40.253437 31869 net.cpp:66] Creating Layer fc9
I0905 17:42:40.253443 31869 net.cpp:329] fc9 <- fc8
I0905 17:42:40.253450 31869 net.cpp:290] fc9 -> fc9
I0905 17:42:40.253840 31869 net.cpp:83] Top shape: 10 24 1 1 (240)
I0905 17:42:40.253854 31869 net.cpp:125] fc9 needs backward computation.
I0905 17:42:40.253862 31869 net.cpp:66] Creating Layer fc10
I0905 17:42:40.253868 31869 net.cpp:329] fc10 <- fc9
I0905 17:42:40.253876 31869 net.cpp:290] fc10 -> fc10
I0905 17:42:40.253888 31869 net.cpp:83] Top shape: 10 2 1 1 (20)
I0905 17:42:40.253896 31869 net.cpp:125] fc10 needs backward computation.
I0905 17:42:40.253903 31869 net.cpp:66] Creating Layer prob
I0905 17:42:40.253908 31869 net.cpp:329] prob <- fc10
I0905 17:42:40.253916 31869 net.cpp:290] prob -> prob
I0905 17:42:40.253926 31869 net.cpp:83] Top shape: 10 2 1 1 (20)
I0905 17:42:40.253931 31869 net.cpp:125] prob needs backward computation.
I0905 17:42:40.253937 31869 net.cpp:156] This network produces output prob
I0905 17:42:40.253950 31869 net.cpp:402] Collecting Learning Rate and Weight Decay.
I0905 17:42:40.253958 31869 net.cpp:167] Network initialization done.
I0905 17:42:40.253963 31869 net.cpp:168] Memory required for data: 6183480
Classifying 139 inputs.
Done in 93.42 s.
Traceback (most recent call last):
  File "distribute/python/classify_m.py", line 156, in <module>
    main(sys.argv)
  File "distribute/python/classify_m.py", line 145, in main
    prediction = predictions[i]
IndexError: index 39 is out of bounds for axis 0 with size 39
WARNING: Logging before InitGoogleLogging() is written to STDERR
E0905 17:44:17.119575 31874 upgrade_proto.cpp:575] Attempting to upgrade input file specified using deprecated V0LayerParameter: distribute/python/../../senti/model4_boost_deploy.prototxt
I0905 17:44:17.119710 31874 upgrade_proto.cpp:582] Successfully upgraded file specified using deprecated V0LayerParameter
E0905 17:44:17.119719 31874 upgrade_proto.cpp:585] Note that future Caffe releases will not support V0NetParameter; use ./build/tools/upgrade_net_proto_text.bin to upgrade this and any other network proto files to the new format.
I0905 17:44:17.119861 31874 net.cpp:38] Initializing net from parameters: 
layers {
  bottom: "data"
  top: "conv1"
  name: "conv1"
  type: CONVOLUTION
  blobs_lr: 1
  blobs_lr: 2
  weight_decay: 1
  weight_decay: 0
  convolution_param {
    num_output: 96
    kernel_size: 11
    stride: 4
    weight_filler {
      type: "gaussian"
      std: 0.01
    }
    bias_filler {
      type: "constant"
      value: 0
    }
  }
}
layers {
  bottom: "conv1"
  top: "conv1"
  name: "relu1"
  type: RELU
}
layers {
  bottom: "conv1"
  top: "pool1"
  name: "pool1"
  type: POOLING
  pooling_param {
    pool: MAX
    kernel_size: 3
    stride: 2
  }
}
layers {
  bottom: "pool1"
  top: "norm1"
  name: "norm1"
  type: LRN
  lrn_param {
    local_size: 5
    alpha: 0.0001
    beta: 0.75
  }
}
layers {
  bottom: "norm1"
  top: "conv2"
  name: "conv2"
  type: CONVOLUTION
  blobs_lr: 1
  blobs_lr: 2
  weight_decay: 1
  weight_decay: 0
  convolution_param {
    num_output: 256
    pad: 2
    kernel_size: 5
    group: 2
    weight_filler {
      type: "gaussian"
      std: 0.01
    }
    bias_filler {
      type: "constant"
      value: 1
    }
  }
}
layers {
  bottom: "conv2"
  top: "conv2"
  name: "relu2"
  type: RELU
}
layers {
  bottom: "conv2"
  top: "pool2"
  name: "pool2"
  type: POOLING
  pooling_param {
    pool: MAX
    kernel_size: 3
    stride: 2
  }
}
layers {
  bottom: "pool2"
  top: "fc7"
  name: "fc7"
  type: INNER_PRODUCT
  blobs_lr: 1
  blobs_lr: 2
  weight_decay: 1
  weight_decay: 0
  inner_product_param {
    num_output: 512
    weight_filler {
      type: "gaussian"
      std: 0.005
    }
    bias_filler {
      type: "constant"
      value: 1
    }
  }
}
layers {
  bottom: "fc7"
  top: "fc7"
  name: "relu7"
  type: RELU
}
layers {
  bottom: "fc7"
  top: "fc7"
  name: "drop7"
  type: DROPOUT
  dropout_param {
    dropout_ratio: 0.5
  }
}
layers {
  bottom: "fc7"
  top: "fc8"
  name: "fc8"
  type: INNER_PRODUCT
  blobs_lr: 1
  blobs_lr: 2
  weight_decay: 1
  weight_decay: 0
  inner_product_param {
    num_output: 512
    weight_filler {
      type: "gaussian"
      std: 0.005
    }
    bias_filler {
      type: "constant"
      value: 1
    }
  }
}
layers {
  bottom: "fc8"
  top: "fc8"
  name: "relu8"
  type: RELU
}
layers {
  bottom: "fc8"
  top: "fc8"
  name: "drop8"
  type: DROPOUT
  dropout_param {
    dropout_ratio: 0.5
  }
}
layers {
  bottom: "fc8"
  top: "fc9"
  name: "fc9"
  type: INNER_PRODUCT
  blobs_lr: 1
  blobs_lr: 2
  weight_decay: 1
  weight_decay: 0
  inner_product_param {
    num_output: 24
    weight_filler {
      type: "gaussian"
      std: 0.01
    }
    bias_filler {
      type: "constant"
      value: 0
    }
  }
}
layers {
  bottom: "fc9"
  top: "fc10"
  name: "fc10"
  type: INNER_PRODUCT
  blobs_lr: 1
  blobs_lr: 2
  weight_decay: 1
  weight_decay: 0
  inner_product_param {
    num_output: 2
    weight_filler {
      type: "gaussian"
      std: 0.01
    }
    bias_filler {
      type: "constant"
      value: 0
    }
  }
}
layers {
  bottom: "fc10"
  top: "prob"
  name: "prob"
  type: SOFTMAX
}
input: "data"
input_dim: 10
input_dim: 3
input_dim: 227
input_dim: 227
I0905 17:44:17.119914 31874 net.cpp:292] Input 0 -> data
I0905 17:44:17.119938 31874 net.cpp:66] Creating Layer conv1
I0905 17:44:17.119956 31874 net.cpp:329] conv1 <- data
I0905 17:44:17.119963 31874 net.cpp:290] conv1 -> conv1
I0905 17:44:17.121284 31874 net.cpp:83] Top shape: 10 96 55 55 (2904000)
I0905 17:44:17.121301 31874 net.cpp:125] conv1 needs backward computation.
I0905 17:44:17.121310 31874 net.cpp:66] Creating Layer relu1
I0905 17:44:17.121316 31874 net.cpp:329] relu1 <- conv1
I0905 17:44:17.121322 31874 net.cpp:280] relu1 -> conv1 (in-place)
I0905 17:44:17.121331 31874 net.cpp:83] Top shape: 10 96 55 55 (2904000)
I0905 17:44:17.121336 31874 net.cpp:125] relu1 needs backward computation.
I0905 17:44:17.121343 31874 net.cpp:66] Creating Layer pool1
I0905 17:44:17.121348 31874 net.cpp:329] pool1 <- conv1
I0905 17:44:17.121354 31874 net.cpp:290] pool1 -> pool1
I0905 17:44:17.121366 31874 net.cpp:83] Top shape: 10 96 27 27 (699840)
I0905 17:44:17.121371 31874 net.cpp:125] pool1 needs backward computation.
I0905 17:44:17.121377 31874 net.cpp:66] Creating Layer norm1
I0905 17:44:17.121383 31874 net.cpp:329] norm1 <- pool1
I0905 17:44:17.121389 31874 net.cpp:290] norm1 -> norm1
I0905 17:44:17.121399 31874 net.cpp:83] Top shape: 10 96 27 27 (699840)
I0905 17:44:17.121404 31874 net.cpp:125] norm1 needs backward computation.
I0905 17:44:17.121412 31874 net.cpp:66] Creating Layer conv2
I0905 17:44:17.121417 31874 net.cpp:329] conv2 <- norm1
I0905 17:44:17.121424 31874 net.cpp:290] conv2 -> conv2
I0905 17:44:17.130333 31874 net.cpp:83] Top shape: 10 256 27 27 (1866240)
I0905 17:44:17.130347 31874 net.cpp:125] conv2 needs backward computation.
I0905 17:44:17.130354 31874 net.cpp:66] Creating Layer relu2
I0905 17:44:17.130359 31874 net.cpp:329] relu2 <- conv2
I0905 17:44:17.130367 31874 net.cpp:280] relu2 -> conv2 (in-place)
I0905 17:44:17.130373 31874 net.cpp:83] Top shape: 10 256 27 27 (1866240)
I0905 17:44:17.130378 31874 net.cpp:125] relu2 needs backward computation.
I0905 17:44:17.130386 31874 net.cpp:66] Creating Layer pool2
I0905 17:44:17.130393 31874 net.cpp:329] pool2 <- conv2
I0905 17:44:17.130398 31874 net.cpp:290] pool2 -> pool2
I0905 17:44:17.130406 31874 net.cpp:83] Top shape: 10 256 13 13 (432640)
I0905 17:44:17.130411 31874 net.cpp:125] pool2 needs backward computation.
I0905 17:44:17.130419 31874 net.cpp:66] Creating Layer fc7
I0905 17:44:17.130424 31874 net.cpp:329] fc7 <- pool2
I0905 17:44:17.130430 31874 net.cpp:290] fc7 -> fc7
I0905 17:44:17.757050 31874 net.cpp:83] Top shape: 10 512 1 1 (5120)
I0905 17:44:17.757093 31874 net.cpp:125] fc7 needs backward computation.
I0905 17:44:17.757107 31874 net.cpp:66] Creating Layer relu7
I0905 17:44:17.757113 31874 net.cpp:329] relu7 <- fc7
I0905 17:44:17.757122 31874 net.cpp:280] relu7 -> fc7 (in-place)
I0905 17:44:17.757133 31874 net.cpp:83] Top shape: 10 512 1 1 (5120)
I0905 17:44:17.757138 31874 net.cpp:125] relu7 needs backward computation.
I0905 17:44:17.757145 31874 net.cpp:66] Creating Layer drop7
I0905 17:44:17.757150 31874 net.cpp:329] drop7 <- fc7
I0905 17:44:17.757158 31874 net.cpp:280] drop7 -> fc7 (in-place)
I0905 17:44:17.757169 31874 net.cpp:83] Top shape: 10 512 1 1 (5120)
I0905 17:44:17.757174 31874 net.cpp:125] drop7 needs backward computation.
I0905 17:44:17.757182 31874 net.cpp:66] Creating Layer fc8
I0905 17:44:17.757187 31874 net.cpp:329] fc8 <- fc7
I0905 17:44:17.757196 31874 net.cpp:290] fc8 -> fc8
I0905 17:44:17.764969 31874 net.cpp:83] Top shape: 10 512 1 1 (5120)
I0905 17:44:17.764982 31874 net.cpp:125] fc8 needs backward computation.
I0905 17:44:17.764989 31874 net.cpp:66] Creating Layer relu8
I0905 17:44:17.764996 31874 net.cpp:329] relu8 <- fc8
I0905 17:44:17.765003 31874 net.cpp:280] relu8 -> fc8 (in-place)
I0905 17:44:17.765010 31874 net.cpp:83] Top shape: 10 512 1 1 (5120)
I0905 17:44:17.765015 31874 net.cpp:125] relu8 needs backward computation.
I0905 17:44:17.765022 31874 net.cpp:66] Creating Layer drop8
I0905 17:44:17.765027 31874 net.cpp:329] drop8 <- fc8
I0905 17:44:17.765033 31874 net.cpp:280] drop8 -> fc8 (in-place)
I0905 17:44:17.765040 31874 net.cpp:83] Top shape: 10 512 1 1 (5120)
I0905 17:44:17.765045 31874 net.cpp:125] drop8 needs backward computation.
I0905 17:44:17.765064 31874 net.cpp:66] Creating Layer fc9
I0905 17:44:17.765071 31874 net.cpp:329] fc9 <- fc8
I0905 17:44:17.765079 31874 net.cpp:290] fc9 -> fc9
I0905 17:44:17.765452 31874 net.cpp:83] Top shape: 10 24 1 1 (240)
I0905 17:44:17.765465 31874 net.cpp:125] fc9 needs backward computation.
I0905 17:44:17.765471 31874 net.cpp:66] Creating Layer fc10
I0905 17:44:17.765477 31874 net.cpp:329] fc10 <- fc9
I0905 17:44:17.765486 31874 net.cpp:290] fc10 -> fc10
I0905 17:44:17.765497 31874 net.cpp:83] Top shape: 10 2 1 1 (20)
I0905 17:44:17.765504 31874 net.cpp:125] fc10 needs backward computation.
I0905 17:44:17.765511 31874 net.cpp:66] Creating Layer prob
I0905 17:44:17.765517 31874 net.cpp:329] prob <- fc10
I0905 17:44:17.765524 31874 net.cpp:290] prob -> prob
I0905 17:44:17.765534 31874 net.cpp:83] Top shape: 10 2 1 1 (20)
I0905 17:44:17.765540 31874 net.cpp:125] prob needs backward computation.
I0905 17:44:17.765545 31874 net.cpp:156] This network produces output prob
I0905 17:44:17.765558 31874 net.cpp:402] Collecting Learning Rate and Weight Decay.
I0905 17:44:17.765565 31874 net.cpp:167] Network initialization done.
I0905 17:44:17.765570 31874 net.cpp:168] Memory required for data: 6183480
Classifying 362 inputs.
Done in 219.64 s.
Traceback (most recent call last):
  File "distribute/python/classify_m.py", line 156, in <module>
    main(sys.argv)
  File "distribute/python/classify_m.py", line 145, in main
    prediction = predictions[i]
IndexError: index 62 is out of bounds for axis 0 with size 62
WARNING: Logging before InitGoogleLogging() is written to STDERR
E0905 17:48:13.489087 31881 upgrade_proto.cpp:575] Attempting to upgrade input file specified using deprecated V0LayerParameter: distribute/python/../../senti/model4_boost_deploy.prototxt
I0905 17:48:13.489238 31881 upgrade_proto.cpp:582] Successfully upgraded file specified using deprecated V0LayerParameter
E0905 17:48:13.489246 31881 upgrade_proto.cpp:585] Note that future Caffe releases will not support V0NetParameter; use ./build/tools/upgrade_net_proto_text.bin to upgrade this and any other network proto files to the new format.
I0905 17:48:13.489390 31881 net.cpp:38] Initializing net from parameters: 
layers {
  bottom: "data"
  top: "conv1"
  name: "conv1"
  type: CONVOLUTION
  blobs_lr: 1
  blobs_lr: 2
  weight_decay: 1
  weight_decay: 0
  convolution_param {
    num_output: 96
    kernel_size: 11
    stride: 4
    weight_filler {
      type: "gaussian"
      std: 0.01
    }
    bias_filler {
      type: "constant"
      value: 0
    }
  }
}
layers {
  bottom: "conv1"
  top: "conv1"
  name: "relu1"
  type: RELU
}
layers {
  bottom: "conv1"
  top: "pool1"
  name: "pool1"
  type: POOLING
  pooling_param {
    pool: MAX
    kernel_size: 3
    stride: 2
  }
}
layers {
  bottom: "pool1"
  top: "norm1"
  name: "norm1"
  type: LRN
  lrn_param {
    local_size: 5
    alpha: 0.0001
    beta: 0.75
  }
}
layers {
  bottom: "norm1"
  top: "conv2"
  name: "conv2"
  type: CONVOLUTION
  blobs_lr: 1
  blobs_lr: 2
  weight_decay: 1
  weight_decay: 0
  convolution_param {
    num_output: 256
    pad: 2
    kernel_size: 5
    group: 2
    weight_filler {
      type: "gaussian"
      std: 0.01
    }
    bias_filler {
      type: "constant"
      value: 1
    }
  }
}
layers {
  bottom: "conv2"
  top: "conv2"
  name: "relu2"
  type: RELU
}
layers {
  bottom: "conv2"
  top: "pool2"
  name: "pool2"
  type: POOLING
  pooling_param {
    pool: MAX
    kernel_size: 3
    stride: 2
  }
}
layers {
  bottom: "pool2"
  top: "fc7"
  name: "fc7"
  type: INNER_PRODUCT
  blobs_lr: 1
  blobs_lr: 2
  weight_decay: 1
  weight_decay: 0
  inner_product_param {
    num_output: 512
    weight_filler {
      type: "gaussian"
      std: 0.005
    }
    bias_filler {
      type: "constant"
      value: 1
    }
  }
}
layers {
  bottom: "fc7"
  top: "fc7"
  name: "relu7"
  type: RELU
}
layers {
  bottom: "fc7"
  top: "fc7"
  name: "drop7"
  type: DROPOUT
  dropout_param {
    dropout_ratio: 0.5
  }
}
layers {
  bottom: "fc7"
  top: "fc8"
  name: "fc8"
  type: INNER_PRODUCT
  blobs_lr: 1
  blobs_lr: 2
  weight_decay: 1
  weight_decay: 0
  inner_product_param {
    num_output: 512
    weight_filler {
      type: "gaussian"
      std: 0.005
    }
    bias_filler {
      type: "constant"
      value: 1
    }
  }
}
layers {
  bottom: "fc8"
  top: "fc8"
  name: "relu8"
  type: RELU
}
layers {
  bottom: "fc8"
  top: "fc8"
  name: "drop8"
  type: DROPOUT
  dropout_param {
    dropout_ratio: 0.5
  }
}
layers {
  bottom: "fc8"
  top: "fc9"
  name: "fc9"
  type: INNER_PRODUCT
  blobs_lr: 1
  blobs_lr: 2
  weight_decay: 1
  weight_decay: 0
  inner_product_param {
    num_output: 24
    weight_filler {
      type: "gaussian"
      std: 0.01
    }
    bias_filler {
      type: "constant"
      value: 0
    }
  }
}
layers {
  bottom: "fc9"
  top: "fc10"
  name: "fc10"
  type: INNER_PRODUCT
  blobs_lr: 1
  blobs_lr: 2
  weight_decay: 1
  weight_decay: 0
  inner_product_param {
    num_output: 2
    weight_filler {
      type: "gaussian"
      std: 0.01
    }
    bias_filler {
      type: "constant"
      value: 0
    }
  }
}
layers {
  bottom: "fc10"
  top: "prob"
  name: "prob"
  type: SOFTMAX
}
input: "data"
input_dim: 10
input_dim: 3
input_dim: 227
input_dim: 227
I0905 17:48:13.489452 31881 net.cpp:292] Input 0 -> data
I0905 17:48:13.489477 31881 net.cpp:66] Creating Layer conv1
I0905 17:48:13.489485 31881 net.cpp:329] conv1 <- data
I0905 17:48:13.489492 31881 net.cpp:290] conv1 -> conv1
I0905 17:48:13.490875 31881 net.cpp:83] Top shape: 10 96 55 55 (2904000)
I0905 17:48:13.490892 31881 net.cpp:125] conv1 needs backward computation.
I0905 17:48:13.490901 31881 net.cpp:66] Creating Layer relu1
I0905 17:48:13.490907 31881 net.cpp:329] relu1 <- conv1
I0905 17:48:13.490913 31881 net.cpp:280] relu1 -> conv1 (in-place)
I0905 17:48:13.490922 31881 net.cpp:83] Top shape: 10 96 55 55 (2904000)
I0905 17:48:13.490927 31881 net.cpp:125] relu1 needs backward computation.
I0905 17:48:13.490934 31881 net.cpp:66] Creating Layer pool1
I0905 17:48:13.490939 31881 net.cpp:329] pool1 <- conv1
I0905 17:48:13.490947 31881 net.cpp:290] pool1 -> pool1
I0905 17:48:13.490957 31881 net.cpp:83] Top shape: 10 96 27 27 (699840)
I0905 17:48:13.490962 31881 net.cpp:125] pool1 needs backward computation.
I0905 17:48:13.490969 31881 net.cpp:66] Creating Layer norm1
I0905 17:48:13.490974 31881 net.cpp:329] norm1 <- pool1
I0905 17:48:13.490981 31881 net.cpp:290] norm1 -> norm1
I0905 17:48:13.490990 31881 net.cpp:83] Top shape: 10 96 27 27 (699840)
I0905 17:48:13.490996 31881 net.cpp:125] norm1 needs backward computation.
I0905 17:48:13.491003 31881 net.cpp:66] Creating Layer conv2
I0905 17:48:13.491008 31881 net.cpp:329] conv2 <- norm1
I0905 17:48:13.491015 31881 net.cpp:290] conv2 -> conv2
I0905 17:48:13.499868 31881 net.cpp:83] Top shape: 10 256 27 27 (1866240)
I0905 17:48:13.499883 31881 net.cpp:125] conv2 needs backward computation.
I0905 17:48:13.499891 31881 net.cpp:66] Creating Layer relu2
I0905 17:48:13.499896 31881 net.cpp:329] relu2 <- conv2
I0905 17:48:13.499902 31881 net.cpp:280] relu2 -> conv2 (in-place)
I0905 17:48:13.499909 31881 net.cpp:83] Top shape: 10 256 27 27 (1866240)
I0905 17:48:13.499914 31881 net.cpp:125] relu2 needs backward computation.
I0905 17:48:13.499922 31881 net.cpp:66] Creating Layer pool2
I0905 17:48:13.499928 31881 net.cpp:329] pool2 <- conv2
I0905 17:48:13.499934 31881 net.cpp:290] pool2 -> pool2
I0905 17:48:13.499943 31881 net.cpp:83] Top shape: 10 256 13 13 (432640)
I0905 17:48:13.499948 31881 net.cpp:125] pool2 needs backward computation.
I0905 17:48:13.499954 31881 net.cpp:66] Creating Layer fc7
I0905 17:48:13.499959 31881 net.cpp:329] fc7 <- pool2
I0905 17:48:13.499966 31881 net.cpp:290] fc7 -> fc7
I0905 17:48:14.132918 31881 net.cpp:83] Top shape: 10 512 1 1 (5120)
I0905 17:48:14.132961 31881 net.cpp:125] fc7 needs backward computation.
I0905 17:48:14.132972 31881 net.cpp:66] Creating Layer relu7
I0905 17:48:14.132979 31881 net.cpp:329] relu7 <- fc7
I0905 17:48:14.132987 31881 net.cpp:280] relu7 -> fc7 (in-place)
I0905 17:48:14.132997 31881 net.cpp:83] Top shape: 10 512 1 1 (5120)
I0905 17:48:14.133003 31881 net.cpp:125] relu7 needs backward computation.
I0905 17:48:14.133021 31881 net.cpp:66] Creating Layer drop7
I0905 17:48:14.133028 31881 net.cpp:329] drop7 <- fc7
I0905 17:48:14.133033 31881 net.cpp:280] drop7 -> fc7 (in-place)
I0905 17:48:14.133044 31881 net.cpp:83] Top shape: 10 512 1 1 (5120)
I0905 17:48:14.133049 31881 net.cpp:125] drop7 needs backward computation.
I0905 17:48:14.133057 31881 net.cpp:66] Creating Layer fc8
I0905 17:48:14.133062 31881 net.cpp:329] fc8 <- fc7
I0905 17:48:14.133071 31881 net.cpp:290] fc8 -> fc8
I0905 17:48:14.140637 31881 net.cpp:83] Top shape: 10 512 1 1 (5120)
I0905 17:48:14.140650 31881 net.cpp:125] fc8 needs backward computation.
I0905 17:48:14.140656 31881 net.cpp:66] Creating Layer relu8
I0905 17:48:14.140662 31881 net.cpp:329] relu8 <- fc8
I0905 17:48:14.140669 31881 net.cpp:280] relu8 -> fc8 (in-place)
I0905 17:48:14.140676 31881 net.cpp:83] Top shape: 10 512 1 1 (5120)
I0905 17:48:14.140682 31881 net.cpp:125] relu8 needs backward computation.
I0905 17:48:14.140688 31881 net.cpp:66] Creating Layer drop8
I0905 17:48:14.140693 31881 net.cpp:329] drop8 <- fc8
I0905 17:48:14.140699 31881 net.cpp:280] drop8 -> fc8 (in-place)
I0905 17:48:14.140707 31881 net.cpp:83] Top shape: 10 512 1 1 (5120)
I0905 17:48:14.140712 31881 net.cpp:125] drop8 needs backward computation.
I0905 17:48:14.140719 31881 net.cpp:66] Creating Layer fc9
I0905 17:48:14.140725 31881 net.cpp:329] fc9 <- fc8
I0905 17:48:14.140732 31881 net.cpp:290] fc9 -> fc9
I0905 17:48:14.141094 31881 net.cpp:83] Top shape: 10 24 1 1 (240)
I0905 17:48:14.141105 31881 net.cpp:125] fc9 needs backward computation.
I0905 17:48:14.141113 31881 net.cpp:66] Creating Layer fc10
I0905 17:48:14.141119 31881 net.cpp:329] fc10 <- fc9
I0905 17:48:14.141126 31881 net.cpp:290] fc10 -> fc10
I0905 17:48:14.141139 31881 net.cpp:83] Top shape: 10 2 1 1 (20)
I0905 17:48:14.141145 31881 net.cpp:125] fc10 needs backward computation.
I0905 17:48:14.141151 31881 net.cpp:66] Creating Layer prob
I0905 17:48:14.141157 31881 net.cpp:329] prob <- fc10
I0905 17:48:14.141165 31881 net.cpp:290] prob -> prob
I0905 17:48:14.141175 31881 net.cpp:83] Top shape: 10 2 1 1 (20)
I0905 17:48:14.141180 31881 net.cpp:125] prob needs backward computation.
I0905 17:48:14.141185 31881 net.cpp:156] This network produces output prob
I0905 17:48:14.141197 31881 net.cpp:402] Collecting Learning Rate and Weight Decay.
I0905 17:48:14.141206 31881 net.cpp:167] Network initialization done.
I0905 17:48:14.141211 31881 net.cpp:168] Memory required for data: 6183480
Classifying 423 inputs.
Done in 266.16 s.
Traceback (most recent call last):
  File "distribute/python/classify_m.py", line 156, in <module>
    main(sys.argv)
  File "distribute/python/classify_m.py", line 145, in main
    prediction = predictions[i]
IndexError: index 23 is out of bounds for axis 0 with size 23
WARNING: Logging before InitGoogleLogging() is written to STDERR
E0905 17:52:58.719993 31892 upgrade_proto.cpp:575] Attempting to upgrade input file specified using deprecated V0LayerParameter: distribute/python/../../senti/model4_boost_deploy.prototxt
I0905 17:52:58.720142 31892 upgrade_proto.cpp:582] Successfully upgraded file specified using deprecated V0LayerParameter
E0905 17:52:58.720151 31892 upgrade_proto.cpp:585] Note that future Caffe releases will not support V0NetParameter; use ./build/tools/upgrade_net_proto_text.bin to upgrade this and any other network proto files to the new format.
I0905 17:52:58.720296 31892 net.cpp:38] Initializing net from parameters: 
layers {
  bottom: "data"
  top: "conv1"
  name: "conv1"
  type: CONVOLUTION
  blobs_lr: 1
  blobs_lr: 2
  weight_decay: 1
  weight_decay: 0
  convolution_param {
    num_output: 96
    kernel_size: 11
    stride: 4
    weight_filler {
      type: "gaussian"
      std: 0.01
    }
    bias_filler {
      type: "constant"
      value: 0
    }
  }
}
layers {
  bottom: "conv1"
  top: "conv1"
  name: "relu1"
  type: RELU
}
layers {
  bottom: "conv1"
  top: "pool1"
  name: "pool1"
  type: POOLING
  pooling_param {
    pool: MAX
    kernel_size: 3
    stride: 2
  }
}
layers {
  bottom: "pool1"
  top: "norm1"
  name: "norm1"
  type: LRN
  lrn_param {
    local_size: 5
    alpha: 0.0001
    beta: 0.75
  }
}
layers {
  bottom: "norm1"
  top: "conv2"
  name: "conv2"
  type: CONVOLUTION
  blobs_lr: 1
  blobs_lr: 2
  weight_decay: 1
  weight_decay: 0
  convolution_param {
    num_output: 256
    pad: 2
    kernel_size: 5
    group: 2
    weight_filler {
      type: "gaussian"
      std: 0.01
    }
    bias_filler {
      type: "constant"
      value: 1
    }
  }
}
layers {
  bottom: "conv2"
  top: "conv2"
  name: "relu2"
  type: RELU
}
layers {
  bottom: "conv2"
  top: "pool2"
  name: "pool2"
  type: POOLING
  pooling_param {
    pool: MAX
    kernel_size: 3
    stride: 2
  }
}
layers {
  bottom: "pool2"
  top: "fc7"
  name: "fc7"
  type: INNER_PRODUCT
  blobs_lr: 1
  blobs_lr: 2
  weight_decay: 1
  weight_decay: 0
  inner_product_param {
    num_output: 512
    weight_filler {
      type: "gaussian"
      std: 0.005
    }
    bias_filler {
      type: "constant"
      value: 1
    }
  }
}
layers {
  bottom: "fc7"
  top: "fc7"
  name: "relu7"
  type: RELU
}
layers {
  bottom: "fc7"
  top: "fc7"
  name: "drop7"
  type: DROPOUT
  dropout_param {
    dropout_ratio: 0.5
  }
}
layers {
  bottom: "fc7"
  top: "fc8"
  name: "fc8"
  type: INNER_PRODUCT
  blobs_lr: 1
  blobs_lr: 2
  weight_decay: 1
  weight_decay: 0
  inner_product_param {
    num_output: 512
    weight_filler {
      type: "gaussian"
      std: 0.005
    }
    bias_filler {
      type: "constant"
      value: 1
    }
  }
}
layers {
  bottom: "fc8"
  top: "fc8"
  name: "relu8"
  type: RELU
}
layers {
  bottom: "fc8"
  top: "fc8"
  name: "drop8"
  type: DROPOUT
  dropout_param {
    dropout_ratio: 0.5
  }
}
layers {
  bottom: "fc8"
  top: "fc9"
  name: "fc9"
  type: INNER_PRODUCT
  blobs_lr: 1
  blobs_lr: 2
  weight_decay: 1
  weight_decay: 0
  inner_product_param {
    num_output: 24
    weight_filler {
      type: "gaussian"
      std: 0.01
    }
    bias_filler {
      type: "constant"
      value: 0
    }
  }
}
layers {
  bottom: "fc9"
  top: "fc10"
  name: "fc10"
  type: INNER_PRODUCT
  blobs_lr: 1
  blobs_lr: 2
  weight_decay: 1
  weight_decay: 0
  inner_product_param {
    num_output: 2
    weight_filler {
      type: "gaussian"
      std: 0.01
    }
    bias_filler {
      type: "constant"
      value: 0
    }
  }
}
layers {
  bottom: "fc10"
  top: "prob"
  name: "prob"
  type: SOFTMAX
}
input: "data"
input_dim: 10
input_dim: 3
input_dim: 227
input_dim: 227
I0905 17:52:58.720357 31892 net.cpp:292] Input 0 -> data
I0905 17:52:58.720382 31892 net.cpp:66] Creating Layer conv1
I0905 17:52:58.720389 31892 net.cpp:329] conv1 <- data
I0905 17:52:58.720396 31892 net.cpp:290] conv1 -> conv1
I0905 17:52:58.721762 31892 net.cpp:83] Top shape: 10 96 55 55 (2904000)
I0905 17:52:58.721781 31892 net.cpp:125] conv1 needs backward computation.
I0905 17:52:58.721788 31892 net.cpp:66] Creating Layer relu1
I0905 17:52:58.721794 31892 net.cpp:329] relu1 <- conv1
I0905 17:52:58.721801 31892 net.cpp:280] relu1 -> conv1 (in-place)
I0905 17:52:58.721810 31892 net.cpp:83] Top shape: 10 96 55 55 (2904000)
I0905 17:52:58.721815 31892 net.cpp:125] relu1 needs backward computation.
I0905 17:52:58.721822 31892 net.cpp:66] Creating Layer pool1
I0905 17:52:58.721828 31892 net.cpp:329] pool1 <- conv1
I0905 17:52:58.721834 31892 net.cpp:290] pool1 -> pool1
I0905 17:52:58.721845 31892 net.cpp:83] Top shape: 10 96 27 27 (699840)
I0905 17:52:58.721850 31892 net.cpp:125] pool1 needs backward computation.
I0905 17:52:58.721858 31892 net.cpp:66] Creating Layer norm1
I0905 17:52:58.721863 31892 net.cpp:329] norm1 <- pool1
I0905 17:52:58.721869 31892 net.cpp:290] norm1 -> norm1
I0905 17:52:58.721879 31892 net.cpp:83] Top shape: 10 96 27 27 (699840)
I0905 17:52:58.721884 31892 net.cpp:125] norm1 needs backward computation.
I0905 17:52:58.721891 31892 net.cpp:66] Creating Layer conv2
I0905 17:52:58.721897 31892 net.cpp:329] conv2 <- norm1
I0905 17:52:58.721904 31892 net.cpp:290] conv2 -> conv2
I0905 17:52:58.730736 31892 net.cpp:83] Top shape: 10 256 27 27 (1866240)
I0905 17:52:58.730754 31892 net.cpp:125] conv2 needs backward computation.
I0905 17:52:58.730762 31892 net.cpp:66] Creating Layer relu2
I0905 17:52:58.730767 31892 net.cpp:329] relu2 <- conv2
I0905 17:52:58.730773 31892 net.cpp:280] relu2 -> conv2 (in-place)
I0905 17:52:58.730780 31892 net.cpp:83] Top shape: 10 256 27 27 (1866240)
I0905 17:52:58.730785 31892 net.cpp:125] relu2 needs backward computation.
I0905 17:52:58.730794 31892 net.cpp:66] Creating Layer pool2
I0905 17:52:58.730799 31892 net.cpp:329] pool2 <- conv2
I0905 17:52:58.730806 31892 net.cpp:290] pool2 -> pool2
I0905 17:52:58.730813 31892 net.cpp:83] Top shape: 10 256 13 13 (432640)
I0905 17:52:58.730819 31892 net.cpp:125] pool2 needs backward computation.
I0905 17:52:58.730826 31892 net.cpp:66] Creating Layer fc7
I0905 17:52:58.730831 31892 net.cpp:329] fc7 <- pool2
I0905 17:52:58.730839 31892 net.cpp:290] fc7 -> fc7
I0905 17:52:59.358824 31892 net.cpp:83] Top shape: 10 512 1 1 (5120)
I0905 17:52:59.358868 31892 net.cpp:125] fc7 needs backward computation.
I0905 17:52:59.358881 31892 net.cpp:66] Creating Layer relu7
I0905 17:52:59.358888 31892 net.cpp:329] relu7 <- fc7
I0905 17:52:59.358898 31892 net.cpp:280] relu7 -> fc7 (in-place)
I0905 17:52:59.358908 31892 net.cpp:83] Top shape: 10 512 1 1 (5120)
I0905 17:52:59.358914 31892 net.cpp:125] relu7 needs backward computation.
I0905 17:52:59.358922 31892 net.cpp:66] Creating Layer drop7
I0905 17:52:59.358927 31892 net.cpp:329] drop7 <- fc7
I0905 17:52:59.358933 31892 net.cpp:280] drop7 -> fc7 (in-place)
I0905 17:52:59.358944 31892 net.cpp:83] Top shape: 10 512 1 1 (5120)
I0905 17:52:59.358950 31892 net.cpp:125] drop7 needs backward computation.
I0905 17:52:59.358958 31892 net.cpp:66] Creating Layer fc8
I0905 17:52:59.358964 31892 net.cpp:329] fc8 <- fc7
I0905 17:52:59.358973 31892 net.cpp:290] fc8 -> fc8
I0905 17:52:59.366582 31892 net.cpp:83] Top shape: 10 512 1 1 (5120)
I0905 17:52:59.366595 31892 net.cpp:125] fc8 needs backward computation.
I0905 17:52:59.366608 31892 net.cpp:66] Creating Layer relu8
I0905 17:52:59.366613 31892 net.cpp:329] relu8 <- fc8
I0905 17:52:59.366622 31892 net.cpp:280] relu8 -> fc8 (in-place)
I0905 17:52:59.366629 31892 net.cpp:83] Top shape: 10 512 1 1 (5120)
I0905 17:52:59.366641 31892 net.cpp:125] relu8 needs backward computation.
I0905 17:52:59.366647 31892 net.cpp:66] Creating Layer drop8
I0905 17:52:59.366653 31892 net.cpp:329] drop8 <- fc8
I0905 17:52:59.366659 31892 net.cpp:280] drop8 -> fc8 (in-place)
I0905 17:52:59.366665 31892 net.cpp:83] Top shape: 10 512 1 1 (5120)
I0905 17:52:59.366672 31892 net.cpp:125] drop8 needs backward computation.
I0905 17:52:59.366679 31892 net.cpp:66] Creating Layer fc9
I0905 17:52:59.366684 31892 net.cpp:329] fc9 <- fc8
I0905 17:52:59.366691 31892 net.cpp:290] fc9 -> fc9
I0905 17:52:59.367053 31892 net.cpp:83] Top shape: 10 24 1 1 (240)
I0905 17:52:59.367065 31892 net.cpp:125] fc9 needs backward computation.
I0905 17:52:59.367074 31892 net.cpp:66] Creating Layer fc10
I0905 17:52:59.367079 31892 net.cpp:329] fc10 <- fc9
I0905 17:52:59.367086 31892 net.cpp:290] fc10 -> fc10
I0905 17:52:59.367097 31892 net.cpp:83] Top shape: 10 2 1 1 (20)
I0905 17:52:59.367105 31892 net.cpp:125] fc10 needs backward computation.
I0905 17:52:59.367111 31892 net.cpp:66] Creating Layer prob
I0905 17:52:59.367116 31892 net.cpp:329] prob <- fc10
I0905 17:52:59.367125 31892 net.cpp:290] prob -> prob
I0905 17:52:59.367133 31892 net.cpp:83] Top shape: 10 2 1 1 (20)
I0905 17:52:59.367140 31892 net.cpp:125] prob needs backward computation.
I0905 17:52:59.367144 31892 net.cpp:156] This network produces output prob
I0905 17:52:59.367156 31892 net.cpp:402] Collecting Learning Rate and Weight Decay.
I0905 17:52:59.367164 31892 net.cpp:167] Network initialization done.
I0905 17:52:59.367169 31892 net.cpp:168] Memory required for data: 6183480
Classifying 18 inputs.
Done in 11.23 s.
WARNING: Logging before InitGoogleLogging() is written to STDERR
E0905 17:53:13.341261 31895 upgrade_proto.cpp:575] Attempting to upgrade input file specified using deprecated V0LayerParameter: distribute/python/../../senti/model4_boost_deploy.prototxt
I0905 17:53:13.341408 31895 upgrade_proto.cpp:582] Successfully upgraded file specified using deprecated V0LayerParameter
E0905 17:53:13.341416 31895 upgrade_proto.cpp:585] Note that future Caffe releases will not support V0NetParameter; use ./build/tools/upgrade_net_proto_text.bin to upgrade this and any other network proto files to the new format.
I0905 17:53:13.341559 31895 net.cpp:38] Initializing net from parameters: 
layers {
  bottom: "data"
  top: "conv1"
  name: "conv1"
  type: CONVOLUTION
  blobs_lr: 1
  blobs_lr: 2
  weight_decay: 1
  weight_decay: 0
  convolution_param {
    num_output: 96
    kernel_size: 11
    stride: 4
    weight_filler {
      type: "gaussian"
      std: 0.01
    }
    bias_filler {
      type: "constant"
      value: 0
    }
  }
}
layers {
  bottom: "conv1"
  top: "conv1"
  name: "relu1"
  type: RELU
}
layers {
  bottom: "conv1"
  top: "pool1"
  name: "pool1"
  type: POOLING
  pooling_param {
    pool: MAX
    kernel_size: 3
    stride: 2
  }
}
layers {
  bottom: "pool1"
  top: "norm1"
  name: "norm1"
  type: LRN
  lrn_param {
    local_size: 5
    alpha: 0.0001
    beta: 0.75
  }
}
layers {
  bottom: "norm1"
  top: "conv2"
  name: "conv2"
  type: CONVOLUTION
  blobs_lr: 1
  blobs_lr: 2
  weight_decay: 1
  weight_decay: 0
  convolution_param {
    num_output: 256
    pad: 2
    kernel_size: 5
    group: 2
    weight_filler {
      type: "gaussian"
      std: 0.01
    }
    bias_filler {
      type: "constant"
      value: 1
    }
  }
}
layers {
  bottom: "conv2"
  top: "conv2"
  name: "relu2"
  type: RELU
}
layers {
  bottom: "conv2"
  top: "pool2"
  name: "pool2"
  type: POOLING
  pooling_param {
    pool: MAX
    kernel_size: 3
    stride: 2
  }
}
layers {
  bottom: "pool2"
  top: "fc7"
  name: "fc7"
  type: INNER_PRODUCT
  blobs_lr: 1
  blobs_lr: 2
  weight_decay: 1
  weight_decay: 0
  inner_product_param {
    num_output: 512
    weight_filler {
      type: "gaussian"
      std: 0.005
    }
    bias_filler {
      type: "constant"
      value: 1
    }
  }
}
layers {
  bottom: "fc7"
  top: "fc7"
  name: "relu7"
  type: RELU
}
layers {
  bottom: "fc7"
  top: "fc7"
  name: "drop7"
  type: DROPOUT
  dropout_param {
    dropout_ratio: 0.5
  }
}
layers {
  bottom: "fc7"
  top: "fc8"
  name: "fc8"
  type: INNER_PRODUCT
  blobs_lr: 1
  blobs_lr: 2
  weight_decay: 1
  weight_decay: 0
  inner_product_param {
    num_output: 512
    weight_filler {
      type: "gaussian"
      std: 0.005
    }
    bias_filler {
      type: "constant"
      value: 1
    }
  }
}
layers {
  bottom: "fc8"
  top: "fc8"
  name: "relu8"
  type: RELU
}
layers {
  bottom: "fc8"
  top: "fc8"
  name: "drop8"
  type: DROPOUT
  dropout_param {
    dropout_ratio: 0.5
  }
}
layers {
  bottom: "fc8"
  top: "fc9"
  name: "fc9"
  type: INNER_PRODUCT
  blobs_lr: 1
  blobs_lr: 2
  weight_decay: 1
  weight_decay: 0
  inner_product_param {
    num_output: 24
    weight_filler {
      type: "gaussian"
      std: 0.01
    }
    bias_filler {
      type: "constant"
      value: 0
    }
  }
}
layers {
  bottom: "fc9"
  top: "fc10"
  name: "fc10"
  type: INNER_PRODUCT
  blobs_lr: 1
  blobs_lr: 2
  weight_decay: 1
  weight_decay: 0
  inner_product_param {
    num_output: 2
    weight_filler {
      type: "gaussian"
      std: 0.01
    }
    bias_filler {
      type: "constant"
      value: 0
    }
  }
}
layers {
  bottom: "fc10"
  top: "prob"
  name: "prob"
  type: SOFTMAX
}
input: "data"
input_dim: 10
input_dim: 3
input_dim: 227
input_dim: 227
I0905 17:53:13.341637 31895 net.cpp:292] Input 0 -> data
I0905 17:53:13.341675 31895 net.cpp:66] Creating Layer conv1
I0905 17:53:13.341682 31895 net.cpp:329] conv1 <- data
I0905 17:53:13.341691 31895 net.cpp:290] conv1 -> conv1
I0905 17:53:13.343034 31895 net.cpp:83] Top shape: 10 96 55 55 (2904000)
I0905 17:53:13.343051 31895 net.cpp:125] conv1 needs backward computation.
I0905 17:53:13.343060 31895 net.cpp:66] Creating Layer relu1
I0905 17:53:13.343066 31895 net.cpp:329] relu1 <- conv1
I0905 17:53:13.343073 31895 net.cpp:280] relu1 -> conv1 (in-place)
I0905 17:53:13.343086 31895 net.cpp:83] Top shape: 10 96 55 55 (2904000)
I0905 17:53:13.343092 31895 net.cpp:125] relu1 needs backward computation.
I0905 17:53:13.343099 31895 net.cpp:66] Creating Layer pool1
I0905 17:53:13.343106 31895 net.cpp:329] pool1 <- conv1
I0905 17:53:13.343112 31895 net.cpp:290] pool1 -> pool1
I0905 17:53:13.343123 31895 net.cpp:83] Top shape: 10 96 27 27 (699840)
I0905 17:53:13.343129 31895 net.cpp:125] pool1 needs backward computation.
I0905 17:53:13.343137 31895 net.cpp:66] Creating Layer norm1
I0905 17:53:13.343142 31895 net.cpp:329] norm1 <- pool1
I0905 17:53:13.343148 31895 net.cpp:290] norm1 -> norm1
I0905 17:53:13.343158 31895 net.cpp:83] Top shape: 10 96 27 27 (699840)
I0905 17:53:13.343163 31895 net.cpp:125] norm1 needs backward computation.
I0905 17:53:13.343170 31895 net.cpp:66] Creating Layer conv2
I0905 17:53:13.343176 31895 net.cpp:329] conv2 <- norm1
I0905 17:53:13.343183 31895 net.cpp:290] conv2 -> conv2
I0905 17:53:13.352092 31895 net.cpp:83] Top shape: 10 256 27 27 (1866240)
I0905 17:53:13.352108 31895 net.cpp:125] conv2 needs backward computation.
I0905 17:53:13.352114 31895 net.cpp:66] Creating Layer relu2
I0905 17:53:13.352119 31895 net.cpp:329] relu2 <- conv2
I0905 17:53:13.352126 31895 net.cpp:280] relu2 -> conv2 (in-place)
I0905 17:53:13.352133 31895 net.cpp:83] Top shape: 10 256 27 27 (1866240)
I0905 17:53:13.352139 31895 net.cpp:125] relu2 needs backward computation.
I0905 17:53:13.352145 31895 net.cpp:66] Creating Layer pool2
I0905 17:53:13.352151 31895 net.cpp:329] pool2 <- conv2
I0905 17:53:13.352157 31895 net.cpp:290] pool2 -> pool2
I0905 17:53:13.352165 31895 net.cpp:83] Top shape: 10 256 13 13 (432640)
I0905 17:53:13.352171 31895 net.cpp:125] pool2 needs backward computation.
I0905 17:53:13.352180 31895 net.cpp:66] Creating Layer fc7
I0905 17:53:13.352186 31895 net.cpp:329] fc7 <- pool2
I0905 17:53:13.352193 31895 net.cpp:290] fc7 -> fc7
I0905 17:53:13.982576 31895 net.cpp:83] Top shape: 10 512 1 1 (5120)
I0905 17:53:13.982624 31895 net.cpp:125] fc7 needs backward computation.
I0905 17:53:13.982636 31895 net.cpp:66] Creating Layer relu7
I0905 17:53:13.982643 31895 net.cpp:329] relu7 <- fc7
I0905 17:53:13.982653 31895 net.cpp:280] relu7 -> fc7 (in-place)
I0905 17:53:13.982663 31895 net.cpp:83] Top shape: 10 512 1 1 (5120)
I0905 17:53:13.982669 31895 net.cpp:125] relu7 needs backward computation.
I0905 17:53:13.982677 31895 net.cpp:66] Creating Layer drop7
I0905 17:53:13.982682 31895 net.cpp:329] drop7 <- fc7
I0905 17:53:13.982689 31895 net.cpp:280] drop7 -> fc7 (in-place)
I0905 17:53:13.982700 31895 net.cpp:83] Top shape: 10 512 1 1 (5120)
I0905 17:53:13.982707 31895 net.cpp:125] drop7 needs backward computation.
I0905 17:53:13.982715 31895 net.cpp:66] Creating Layer fc8
I0905 17:53:13.982720 31895 net.cpp:329] fc8 <- fc7
I0905 17:53:13.982730 31895 net.cpp:290] fc8 -> fc8
I0905 17:53:13.990500 31895 net.cpp:83] Top shape: 10 512 1 1 (5120)
I0905 17:53:13.990512 31895 net.cpp:125] fc8 needs backward computation.
I0905 17:53:13.990520 31895 net.cpp:66] Creating Layer relu8
I0905 17:53:13.990525 31895 net.cpp:329] relu8 <- fc8
I0905 17:53:13.990533 31895 net.cpp:280] relu8 -> fc8 (in-place)
I0905 17:53:13.990541 31895 net.cpp:83] Top shape: 10 512 1 1 (5120)
I0905 17:53:13.990547 31895 net.cpp:125] relu8 needs backward computation.
I0905 17:53:13.990555 31895 net.cpp:66] Creating Layer drop8
I0905 17:53:13.990560 31895 net.cpp:329] drop8 <- fc8
I0905 17:53:13.990566 31895 net.cpp:280] drop8 -> fc8 (in-place)
I0905 17:53:13.990572 31895 net.cpp:83] Top shape: 10 512 1 1 (5120)
I0905 17:53:13.990578 31895 net.cpp:125] drop8 needs backward computation.
I0905 17:53:13.990587 31895 net.cpp:66] Creating Layer fc9
I0905 17:53:13.990593 31895 net.cpp:329] fc9 <- fc8
I0905 17:53:13.990600 31895 net.cpp:290] fc9 -> fc9
I0905 17:53:13.990975 31895 net.cpp:83] Top shape: 10 24 1 1 (240)
I0905 17:53:13.990988 31895 net.cpp:125] fc9 needs backward computation.
I0905 17:53:13.990996 31895 net.cpp:66] Creating Layer fc10
I0905 17:53:13.991001 31895 net.cpp:329] fc10 <- fc9
I0905 17:53:13.991021 31895 net.cpp:290] fc10 -> fc10
I0905 17:53:13.991034 31895 net.cpp:83] Top shape: 10 2 1 1 (20)
I0905 17:53:13.991041 31895 net.cpp:125] fc10 needs backward computation.
I0905 17:53:13.991049 31895 net.cpp:66] Creating Layer prob
I0905 17:53:13.991053 31895 net.cpp:329] prob <- fc10
I0905 17:53:13.991062 31895 net.cpp:290] prob -> prob
I0905 17:53:13.991071 31895 net.cpp:83] Top shape: 10 2 1 1 (20)
I0905 17:53:13.991077 31895 net.cpp:125] prob needs backward computation.
I0905 17:53:13.991082 31895 net.cpp:156] This network produces output prob
I0905 17:53:13.991096 31895 net.cpp:402] Collecting Learning Rate and Weight Decay.
I0905 17:53:13.991103 31895 net.cpp:167] Network initialization done.
I0905 17:53:13.991109 31895 net.cpp:168] Memory required for data: 6183480
Classifying 204 inputs.
Done in 121.74 s.
Traceback (most recent call last):
  File "distribute/python/classify_m.py", line 156, in <module>
    main(sys.argv)
  File "distribute/python/classify_m.py", line 145, in main
    prediction = predictions[i]
IndexError: index 4 is out of bounds for axis 0 with size 4
WARNING: Logging before InitGoogleLogging() is written to STDERR
E0905 17:55:23.127615 31901 upgrade_proto.cpp:575] Attempting to upgrade input file specified using deprecated V0LayerParameter: distribute/python/../../senti/model4_boost_deploy.prototxt
I0905 17:55:23.127753 31901 upgrade_proto.cpp:582] Successfully upgraded file specified using deprecated V0LayerParameter
E0905 17:55:23.127761 31901 upgrade_proto.cpp:585] Note that future Caffe releases will not support V0NetParameter; use ./build/tools/upgrade_net_proto_text.bin to upgrade this and any other network proto files to the new format.
I0905 17:55:23.127904 31901 net.cpp:38] Initializing net from parameters: 
layers {
  bottom: "data"
  top: "conv1"
  name: "conv1"
  type: CONVOLUTION
  blobs_lr: 1
  blobs_lr: 2
  weight_decay: 1
  weight_decay: 0
  convolution_param {
    num_output: 96
    kernel_size: 11
    stride: 4
    weight_filler {
      type: "gaussian"
      std: 0.01
    }
    bias_filler {
      type: "constant"
      value: 0
    }
  }
}
layers {
  bottom: "conv1"
  top: "conv1"
  name: "relu1"
  type: RELU
}
layers {
  bottom: "conv1"
  top: "pool1"
  name: "pool1"
  type: POOLING
  pooling_param {
    pool: MAX
    kernel_size: 3
    stride: 2
  }
}
layers {
  bottom: "pool1"
  top: "norm1"
  name: "norm1"
  type: LRN
  lrn_param {
    local_size: 5
    alpha: 0.0001
    beta: 0.75
  }
}
layers {
  bottom: "norm1"
  top: "conv2"
  name: "conv2"
  type: CONVOLUTION
  blobs_lr: 1
  blobs_lr: 2
  weight_decay: 1
  weight_decay: 0
  convolution_param {
    num_output: 256
    pad: 2
    kernel_size: 5
    group: 2
    weight_filler {
      type: "gaussian"
      std: 0.01
    }
    bias_filler {
      type: "constant"
      value: 1
    }
  }
}
layers {
  bottom: "conv2"
  top: "conv2"
  name: "relu2"
  type: RELU
}
layers {
  bottom: "conv2"
  top: "pool2"
  name: "pool2"
  type: POOLING
  pooling_param {
    pool: MAX
    kernel_size: 3
    stride: 2
  }
}
layers {
  bottom: "pool2"
  top: "fc7"
  name: "fc7"
  type: INNER_PRODUCT
  blobs_lr: 1
  blobs_lr: 2
  weight_decay: 1
  weight_decay: 0
  inner_product_param {
    num_output: 512
    weight_filler {
      type: "gaussian"
      std: 0.005
    }
    bias_filler {
      type: "constant"
      value: 1
    }
  }
}
layers {
  bottom: "fc7"
  top: "fc7"
  name: "relu7"
  type: RELU
}
layers {
  bottom: "fc7"
  top: "fc7"
  name: "drop7"
  type: DROPOUT
  dropout_param {
    dropout_ratio: 0.5
  }
}
layers {
  bottom: "fc7"
  top: "fc8"
  name: "fc8"
  type: INNER_PRODUCT
  blobs_lr: 1
  blobs_lr: 2
  weight_decay: 1
  weight_decay: 0
  inner_product_param {
    num_output: 512
    weight_filler {
      type: "gaussian"
      std: 0.005
    }
    bias_filler {
      type: "constant"
      value: 1
    }
  }
}
layers {
  bottom: "fc8"
  top: "fc8"
  name: "relu8"
  type: RELU
}
layers {
  bottom: "fc8"
  top: "fc8"
  name: "drop8"
  type: DROPOUT
  dropout_param {
    dropout_ratio: 0.5
  }
}
layers {
  bottom: "fc8"
  top: "fc9"
  name: "fc9"
  type: INNER_PRODUCT
  blobs_lr: 1
  blobs_lr: 2
  weight_decay: 1
  weight_decay: 0
  inner_product_param {
    num_output: 24
    weight_filler {
      type: "gaussian"
      std: 0.01
    }
    bias_filler {
      type: "constant"
      value: 0
    }
  }
}
layers {
  bottom: "fc9"
  top: "fc10"
  name: "fc10"
  type: INNER_PRODUCT
  blobs_lr: 1
  blobs_lr: 2
  weight_decay: 1
  weight_decay: 0
  inner_product_param {
    num_output: 2
    weight_filler {
      type: "gaussian"
      std: 0.01
    }
    bias_filler {
      type: "constant"
      value: 0
    }
  }
}
layers {
  bottom: "fc10"
  top: "prob"
  name: "prob"
  type: SOFTMAX
}
input: "data"
input_dim: 10
input_dim: 3
input_dim: 227
input_dim: 227
I0905 17:55:23.127967 31901 net.cpp:292] Input 0 -> data
I0905 17:55:23.127992 31901 net.cpp:66] Creating Layer conv1
I0905 17:55:23.128000 31901 net.cpp:329] conv1 <- data
I0905 17:55:23.128007 31901 net.cpp:290] conv1 -> conv1
I0905 17:55:23.129328 31901 net.cpp:83] Top shape: 10 96 55 55 (2904000)
I0905 17:55:23.129348 31901 net.cpp:125] conv1 needs backward computation.
I0905 17:55:23.129355 31901 net.cpp:66] Creating Layer relu1
I0905 17:55:23.129361 31901 net.cpp:329] relu1 <- conv1
I0905 17:55:23.129369 31901 net.cpp:280] relu1 -> conv1 (in-place)
I0905 17:55:23.129376 31901 net.cpp:83] Top shape: 10 96 55 55 (2904000)
I0905 17:55:23.129382 31901 net.cpp:125] relu1 needs backward computation.
I0905 17:55:23.129389 31901 net.cpp:66] Creating Layer pool1
I0905 17:55:23.129395 31901 net.cpp:329] pool1 <- conv1
I0905 17:55:23.129400 31901 net.cpp:290] pool1 -> pool1
I0905 17:55:23.129411 31901 net.cpp:83] Top shape: 10 96 27 27 (699840)
I0905 17:55:23.129417 31901 net.cpp:125] pool1 needs backward computation.
I0905 17:55:23.129423 31901 net.cpp:66] Creating Layer norm1
I0905 17:55:23.129428 31901 net.cpp:329] norm1 <- pool1
I0905 17:55:23.129436 31901 net.cpp:290] norm1 -> norm1
I0905 17:55:23.129444 31901 net.cpp:83] Top shape: 10 96 27 27 (699840)
I0905 17:55:23.129449 31901 net.cpp:125] norm1 needs backward computation.
I0905 17:55:23.129456 31901 net.cpp:66] Creating Layer conv2
I0905 17:55:23.129462 31901 net.cpp:329] conv2 <- norm1
I0905 17:55:23.129468 31901 net.cpp:290] conv2 -> conv2
I0905 17:55:23.138380 31901 net.cpp:83] Top shape: 10 256 27 27 (1866240)
I0905 17:55:23.138394 31901 net.cpp:125] conv2 needs backward computation.
I0905 17:55:23.138401 31901 net.cpp:66] Creating Layer relu2
I0905 17:55:23.138406 31901 net.cpp:329] relu2 <- conv2
I0905 17:55:23.138413 31901 net.cpp:280] relu2 -> conv2 (in-place)
I0905 17:55:23.138419 31901 net.cpp:83] Top shape: 10 256 27 27 (1866240)
I0905 17:55:23.138425 31901 net.cpp:125] relu2 needs backward computation.
I0905 17:55:23.138433 31901 net.cpp:66] Creating Layer pool2
I0905 17:55:23.138439 31901 net.cpp:329] pool2 <- conv2
I0905 17:55:23.138445 31901 net.cpp:290] pool2 -> pool2
I0905 17:55:23.138453 31901 net.cpp:83] Top shape: 10 256 13 13 (432640)
I0905 17:55:23.138458 31901 net.cpp:125] pool2 needs backward computation.
I0905 17:55:23.138465 31901 net.cpp:66] Creating Layer fc7
I0905 17:55:23.138470 31901 net.cpp:329] fc7 <- pool2
I0905 17:55:23.138478 31901 net.cpp:290] fc7 -> fc7
I0905 17:55:23.767309 31901 net.cpp:83] Top shape: 10 512 1 1 (5120)
I0905 17:55:23.767369 31901 net.cpp:125] fc7 needs backward computation.
I0905 17:55:23.767387 31901 net.cpp:66] Creating Layer relu7
I0905 17:55:23.767395 31901 net.cpp:329] relu7 <- fc7
I0905 17:55:23.767405 31901 net.cpp:280] relu7 -> fc7 (in-place)
I0905 17:55:23.767421 31901 net.cpp:83] Top shape: 10 512 1 1 (5120)
I0905 17:55:23.767427 31901 net.cpp:125] relu7 needs backward computation.
I0905 17:55:23.767434 31901 net.cpp:66] Creating Layer drop7
I0905 17:55:23.767439 31901 net.cpp:329] drop7 <- fc7
I0905 17:55:23.767446 31901 net.cpp:280] drop7 -> fc7 (in-place)
I0905 17:55:23.767457 31901 net.cpp:83] Top shape: 10 512 1 1 (5120)
I0905 17:55:23.767462 31901 net.cpp:125] drop7 needs backward computation.
I0905 17:55:23.767470 31901 net.cpp:66] Creating Layer fc8
I0905 17:55:23.767484 31901 net.cpp:329] fc8 <- fc7
I0905 17:55:23.767494 31901 net.cpp:290] fc8 -> fc8
I0905 17:55:23.775905 31901 net.cpp:83] Top shape: 10 512 1 1 (5120)
I0905 17:55:23.775959 31901 net.cpp:125] fc8 needs backward computation.
I0905 17:55:23.776005 31901 net.cpp:66] Creating Layer relu8
I0905 17:55:23.776044 31901 net.cpp:329] relu8 <- fc8
I0905 17:55:23.776067 31901 net.cpp:280] relu8 -> fc8 (in-place)
I0905 17:55:23.776077 31901 net.cpp:83] Top shape: 10 512 1 1 (5120)
I0905 17:55:23.776083 31901 net.cpp:125] relu8 needs backward computation.
I0905 17:55:23.776089 31901 net.cpp:66] Creating Layer drop8
I0905 17:55:23.776095 31901 net.cpp:329] drop8 <- fc8
I0905 17:55:23.776101 31901 net.cpp:280] drop8 -> fc8 (in-place)
I0905 17:55:23.776108 31901 net.cpp:83] Top shape: 10 512 1 1 (5120)
I0905 17:55:23.776114 31901 net.cpp:125] drop8 needs backward computation.
I0905 17:55:23.776124 31901 net.cpp:66] Creating Layer fc9
I0905 17:55:23.776139 31901 net.cpp:329] fc9 <- fc8
I0905 17:55:23.776185 31901 net.cpp:290] fc9 -> fc9
I0905 17:55:23.776888 31901 net.cpp:83] Top shape: 10 24 1 1 (240)
I0905 17:55:23.776903 31901 net.cpp:125] fc9 needs backward computation.
I0905 17:55:23.776912 31901 net.cpp:66] Creating Layer fc10
I0905 17:55:23.776917 31901 net.cpp:329] fc10 <- fc9
I0905 17:55:23.776934 31901 net.cpp:290] fc10 -> fc10
I0905 17:55:23.776999 31901 net.cpp:83] Top shape: 10 2 1 1 (20)
I0905 17:55:23.777040 31901 net.cpp:125] fc10 needs backward computation.
I0905 17:55:23.777067 31901 net.cpp:66] Creating Layer prob
I0905 17:55:23.777075 31901 net.cpp:329] prob <- fc10
I0905 17:55:23.777082 31901 net.cpp:290] prob -> prob
I0905 17:55:23.777093 31901 net.cpp:83] Top shape: 10 2 1 1 (20)
I0905 17:55:23.777099 31901 net.cpp:125] prob needs backward computation.
I0905 17:55:23.777104 31901 net.cpp:156] This network produces output prob
I0905 17:55:23.777117 31901 net.cpp:402] Collecting Learning Rate and Weight Decay.
I0905 17:55:23.777127 31901 net.cpp:167] Network initialization done.
I0905 17:55:23.777130 31901 net.cpp:168] Memory required for data: 6183480
Classifying 85 inputs.
Done in 53.52 s.
WARNING: Logging before InitGoogleLogging() is written to STDERR
E0905 17:56:23.330459 31905 upgrade_proto.cpp:575] Attempting to upgrade input file specified using deprecated V0LayerParameter: distribute/python/../../senti/model4_boost_deploy.prototxt
I0905 17:56:23.330596 31905 upgrade_proto.cpp:582] Successfully upgraded file specified using deprecated V0LayerParameter
E0905 17:56:23.330605 31905 upgrade_proto.cpp:585] Note that future Caffe releases will not support V0NetParameter; use ./build/tools/upgrade_net_proto_text.bin to upgrade this and any other network proto files to the new format.
I0905 17:56:23.330749 31905 net.cpp:38] Initializing net from parameters: 
layers {
  bottom: "data"
  top: "conv1"
  name: "conv1"
  type: CONVOLUTION
  blobs_lr: 1
  blobs_lr: 2
  weight_decay: 1
  weight_decay: 0
  convolution_param {
    num_output: 96
    kernel_size: 11
    stride: 4
    weight_filler {
      type: "gaussian"
      std: 0.01
    }
    bias_filler {
      type: "constant"
      value: 0
    }
  }
}
layers {
  bottom: "conv1"
  top: "conv1"
  name: "relu1"
  type: RELU
}
layers {
  bottom: "conv1"
  top: "pool1"
  name: "pool1"
  type: POOLING
  pooling_param {
    pool: MAX
    kernel_size: 3
    stride: 2
  }
}
layers {
  bottom: "pool1"
  top: "norm1"
  name: "norm1"
  type: LRN
  lrn_param {
    local_size: 5
    alpha: 0.0001
    beta: 0.75
  }
}
layers {
  bottom: "norm1"
  top: "conv2"
  name: "conv2"
  type: CONVOLUTION
  blobs_lr: 1
  blobs_lr: 2
  weight_decay: 1
  weight_decay: 0
  convolution_param {
    num_output: 256
    pad: 2
    kernel_size: 5
    group: 2
    weight_filler {
      type: "gaussian"
      std: 0.01
    }
    bias_filler {
      type: "constant"
      value: 1
    }
  }
}
layers {
  bottom: "conv2"
  top: "conv2"
  name: "relu2"
  type: RELU
}
layers {
  bottom: "conv2"
  top: "pool2"
  name: "pool2"
  type: POOLING
  pooling_param {
    pool: MAX
    kernel_size: 3
    stride: 2
  }
}
layers {
  bottom: "pool2"
  top: "fc7"
  name: "fc7"
  type: INNER_PRODUCT
  blobs_lr: 1
  blobs_lr: 2
  weight_decay: 1
  weight_decay: 0
  inner_product_param {
    num_output: 512
    weight_filler {
      type: "gaussian"
      std: 0.005
    }
    bias_filler {
      type: "constant"
      value: 1
    }
  }
}
layers {
  bottom: "fc7"
  top: "fc7"
  name: "relu7"
  type: RELU
}
layers {
  bottom: "fc7"
  top: "fc7"
  name: "drop7"
  type: DROPOUT
  dropout_param {
    dropout_ratio: 0.5
  }
}
layers {
  bottom: "fc7"
  top: "fc8"
  name: "fc8"
  type: INNER_PRODUCT
  blobs_lr: 1
  blobs_lr: 2
  weight_decay: 1
  weight_decay: 0
  inner_product_param {
    num_output: 512
    weight_filler {
      type: "gaussian"
      std: 0.005
    }
    bias_filler {
      type: "constant"
      value: 1
    }
  }
}
layers {
  bottom: "fc8"
  top: "fc8"
  name: "relu8"
  type: RELU
}
layers {
  bottom: "fc8"
  top: "fc8"
  name: "drop8"
  type: DROPOUT
  dropout_param {
    dropout_ratio: 0.5
  }
}
layers {
  bottom: "fc8"
  top: "fc9"
  name: "fc9"
  type: INNER_PRODUCT
  blobs_lr: 1
  blobs_lr: 2
  weight_decay: 1
  weight_decay: 0
  inner_product_param {
    num_output: 24
    weight_filler {
      type: "gaussian"
      std: 0.01
    }
    bias_filler {
      type: "constant"
      value: 0
    }
  }
}
layers {
  bottom: "fc9"
  top: "fc10"
  name: "fc10"
  type: INNER_PRODUCT
  blobs_lr: 1
  blobs_lr: 2
  weight_decay: 1
  weight_decay: 0
  inner_product_param {
    num_output: 2
    weight_filler {
      type: "gaussian"
      std: 0.01
    }
    bias_filler {
      type: "constant"
      value: 0
    }
  }
}
layers {
  bottom: "fc10"
  top: "prob"
  name: "prob"
  type: SOFTMAX
}
input: "data"
input_dim: 10
input_dim: 3
input_dim: 227
input_dim: 227
I0905 17:56:23.330811 31905 net.cpp:292] Input 0 -> data
I0905 17:56:23.330835 31905 net.cpp:66] Creating Layer conv1
I0905 17:56:23.330842 31905 net.cpp:329] conv1 <- data
I0905 17:56:23.330850 31905 net.cpp:290] conv1 -> conv1
I0905 17:56:23.332170 31905 net.cpp:83] Top shape: 10 96 55 55 (2904000)
I0905 17:56:23.332186 31905 net.cpp:125] conv1 needs backward computation.
I0905 17:56:23.332195 31905 net.cpp:66] Creating Layer relu1
I0905 17:56:23.332201 31905 net.cpp:329] relu1 <- conv1
I0905 17:56:23.332207 31905 net.cpp:280] relu1 -> conv1 (in-place)
I0905 17:56:23.332216 31905 net.cpp:83] Top shape: 10 96 55 55 (2904000)
I0905 17:56:23.332221 31905 net.cpp:125] relu1 needs backward computation.
I0905 17:56:23.332228 31905 net.cpp:66] Creating Layer pool1
I0905 17:56:23.332233 31905 net.cpp:329] pool1 <- conv1
I0905 17:56:23.332240 31905 net.cpp:290] pool1 -> pool1
I0905 17:56:23.332250 31905 net.cpp:83] Top shape: 10 96 27 27 (699840)
I0905 17:56:23.332257 31905 net.cpp:125] pool1 needs backward computation.
I0905 17:56:23.332262 31905 net.cpp:66] Creating Layer norm1
I0905 17:56:23.332268 31905 net.cpp:329] norm1 <- pool1
I0905 17:56:23.332274 31905 net.cpp:290] norm1 -> norm1
I0905 17:56:23.332283 31905 net.cpp:83] Top shape: 10 96 27 27 (699840)
I0905 17:56:23.332289 31905 net.cpp:125] norm1 needs backward computation.
I0905 17:56:23.332296 31905 net.cpp:66] Creating Layer conv2
I0905 17:56:23.332303 31905 net.cpp:329] conv2 <- norm1
I0905 17:56:23.332309 31905 net.cpp:290] conv2 -> conv2
I0905 17:56:23.341186 31905 net.cpp:83] Top shape: 10 256 27 27 (1866240)
I0905 17:56:23.341200 31905 net.cpp:125] conv2 needs backward computation.
I0905 17:56:23.341207 31905 net.cpp:66] Creating Layer relu2
I0905 17:56:23.341212 31905 net.cpp:329] relu2 <- conv2
I0905 17:56:23.341219 31905 net.cpp:280] relu2 -> conv2 (in-place)
I0905 17:56:23.341225 31905 net.cpp:83] Top shape: 10 256 27 27 (1866240)
I0905 17:56:23.341231 31905 net.cpp:125] relu2 needs backward computation.
I0905 17:56:23.341239 31905 net.cpp:66] Creating Layer pool2
I0905 17:56:23.341244 31905 net.cpp:329] pool2 <- conv2
I0905 17:56:23.341251 31905 net.cpp:290] pool2 -> pool2
I0905 17:56:23.341259 31905 net.cpp:83] Top shape: 10 256 13 13 (432640)
I0905 17:56:23.341264 31905 net.cpp:125] pool2 needs backward computation.
I0905 17:56:23.341276 31905 net.cpp:66] Creating Layer fc7
I0905 17:56:23.341281 31905 net.cpp:329] fc7 <- pool2
I0905 17:56:23.341289 31905 net.cpp:290] fc7 -> fc7
I0905 17:56:23.970156 31905 net.cpp:83] Top shape: 10 512 1 1 (5120)
I0905 17:56:23.970201 31905 net.cpp:125] fc7 needs backward computation.
I0905 17:56:23.970213 31905 net.cpp:66] Creating Layer relu7
I0905 17:56:23.970221 31905 net.cpp:329] relu7 <- fc7
I0905 17:56:23.970230 31905 net.cpp:280] relu7 -> fc7 (in-place)
I0905 17:56:23.970240 31905 net.cpp:83] Top shape: 10 512 1 1 (5120)
I0905 17:56:23.970245 31905 net.cpp:125] relu7 needs backward computation.
I0905 17:56:23.970253 31905 net.cpp:66] Creating Layer drop7
I0905 17:56:23.970258 31905 net.cpp:329] drop7 <- fc7
I0905 17:56:23.970264 31905 net.cpp:280] drop7 -> fc7 (in-place)
I0905 17:56:23.970275 31905 net.cpp:83] Top shape: 10 512 1 1 (5120)
I0905 17:56:23.970281 31905 net.cpp:125] drop7 needs backward computation.
I0905 17:56:23.970289 31905 net.cpp:66] Creating Layer fc8
I0905 17:56:23.970294 31905 net.cpp:329] fc8 <- fc7
I0905 17:56:23.970304 31905 net.cpp:290] fc8 -> fc8
I0905 17:56:23.977869 31905 net.cpp:83] Top shape: 10 512 1 1 (5120)
I0905 17:56:23.977881 31905 net.cpp:125] fc8 needs backward computation.
I0905 17:56:23.977888 31905 net.cpp:66] Creating Layer relu8
I0905 17:56:23.977895 31905 net.cpp:329] relu8 <- fc8
I0905 17:56:23.977902 31905 net.cpp:280] relu8 -> fc8 (in-place)
I0905 17:56:23.977910 31905 net.cpp:83] Top shape: 10 512 1 1 (5120)
I0905 17:56:23.977915 31905 net.cpp:125] relu8 needs backward computation.
I0905 17:56:23.977921 31905 net.cpp:66] Creating Layer drop8
I0905 17:56:23.977926 31905 net.cpp:329] drop8 <- fc8
I0905 17:56:23.977932 31905 net.cpp:280] drop8 -> fc8 (in-place)
I0905 17:56:23.977938 31905 net.cpp:83] Top shape: 10 512 1 1 (5120)
I0905 17:56:23.977944 31905 net.cpp:125] drop8 needs backward computation.
I0905 17:56:23.977952 31905 net.cpp:66] Creating Layer fc9
I0905 17:56:23.977958 31905 net.cpp:329] fc9 <- fc8
I0905 17:56:23.977965 31905 net.cpp:290] fc9 -> fc9
I0905 17:56:23.978327 31905 net.cpp:83] Top shape: 10 24 1 1 (240)
I0905 17:56:23.978338 31905 net.cpp:125] fc9 needs backward computation.
I0905 17:56:23.978346 31905 net.cpp:66] Creating Layer fc10
I0905 17:56:23.978351 31905 net.cpp:329] fc10 <- fc9
I0905 17:56:23.978359 31905 net.cpp:290] fc10 -> fc10
I0905 17:56:23.978370 31905 net.cpp:83] Top shape: 10 2 1 1 (20)
I0905 17:56:23.978379 31905 net.cpp:125] fc10 needs backward computation.
I0905 17:56:23.978385 31905 net.cpp:66] Creating Layer prob
I0905 17:56:23.978390 31905 net.cpp:329] prob <- fc10
I0905 17:56:23.978397 31905 net.cpp:290] prob -> prob
I0905 17:56:23.978406 31905 net.cpp:83] Top shape: 10 2 1 1 (20)
I0905 17:56:23.978412 31905 net.cpp:125] prob needs backward computation.
I0905 17:56:23.978417 31905 net.cpp:156] This network produces output prob
I0905 17:56:23.978430 31905 net.cpp:402] Collecting Learning Rate and Weight Decay.
…
I0905 22:57:49.780609   466 net.cpp:125] pool2 needs backward computation.
I0905 22:57:49.780616   466 net.cpp:66] Creating Layer fc7
I0905 22:57:49.780622   466 net.cpp:329] fc7 <- pool2
I0905 22:57:49.780628   466 net.cpp:290] fc7 -> fc7
I0905 22:57:50.431299   466 net.cpp:83] Top shape: 10 512 1 1 (5120)
I0905 22:57:50.431345   466 net.cpp:125] fc7 needs backward computation.
I0905 22:57:50.431359   466 net.cpp:66] Creating Layer relu7
I0905 22:57:50.431365   466 net.cpp:329] relu7 <- fc7
I0905 22:57:50.431375   466 net.cpp:280] relu7 -> fc7 (in-place)
I0905 22:57:50.431385   466 net.cpp:83] Top shape: 10 512 1 1 (5120)
I0905 22:57:50.431391   466 net.cpp:125] relu7 needs backward computation.
I0905 22:57:50.431398   466 net.cpp:66] Creating Layer drop7
I0905 22:57:50.431404   466 net.cpp:329] drop7 <- fc7
I0905 22:57:50.431411   466 net.cpp:280] drop7 -> fc7 (in-place)
I0905 22:57:50.431421   466 net.cpp:83] Top shape: 10 512 1 1 (5120)
I0905 22:57:50.431427   466 net.cpp:125] drop7 needs backward computation.
I0905 22:57:50.431434   466 net.cpp:66] Creating Layer fc8
I0905 22:57:50.431440   466 net.cpp:329] fc8 <- fc7
I0905 22:57:50.431449   466 net.cpp:290] fc8 -> fc8
I0905 22:57:50.439244   466 net.cpp:83] Top shape: 10 512 1 1 (5120)
I0905 22:57:50.439255   466 net.cpp:125] fc8 needs backward computation.
I0905 22:57:50.439262   466 net.cpp:66] Creating Layer relu8
I0905 22:57:50.439267   466 net.cpp:329] relu8 <- fc8
I0905 22:57:50.439275   466 net.cpp:280] relu8 -> fc8 (in-place)
I0905 22:57:50.439282   466 net.cpp:83] Top shape: 10 512 1 1 (5120)
I0905 22:57:50.439288   466 net.cpp:125] relu8 needs backward computation.
I0905 22:57:50.439295   466 net.cpp:66] Creating Layer drop8
I0905 22:57:50.439299   466 net.cpp:329] drop8 <- fc8
I0905 22:57:50.439306   466 net.cpp:280] drop8 -> fc8 (in-place)
I0905 22:57:50.439313   466 net.cpp:83] Top shape: 10 512 1 1 (5120)
I0905 22:57:50.439318   466 net.cpp:125] drop8 needs backward computation.
I0905 22:57:50.439327   466 net.cpp:66] Creating Layer fc9
I0905 22:57:50.439332   466 net.cpp:329] fc9 <- fc8
I0905 22:57:50.439339   466 net.cpp:290] fc9 -> fc9
I0905 22:57:50.439730   466 net.cpp:83] Top shape: 10 24 1 1 (240)
I0905 22:57:50.439743   466 net.cpp:125] fc9 needs backward computation.
I0905 22:57:50.439750   466 net.cpp:66] Creating Layer fc10
I0905 22:57:50.439756   466 net.cpp:329] fc10 <- fc9
I0905 22:57:50.439764   466 net.cpp:290] fc10 -> fc10
I0905 22:57:50.439776   466 net.cpp:83] Top shape: 10 2 1 1 (20)
I0905 22:57:50.439784   466 net.cpp:125] fc10 needs backward computation.
I0905 22:57:50.439800   466 net.cpp:66] Creating Layer prob
I0905 22:57:50.439806   466 net.cpp:329] prob <- fc10
I0905 22:57:50.439815   466 net.cpp:290] prob -> prob
I0905 22:57:50.439823   466 net.cpp:83] Top shape: 10 2 1 1 (20)
I0905 22:57:50.439829   466 net.cpp:125] prob needs backward computation.
I0905 22:57:50.439833   466 net.cpp:156] This network produces output prob
I0905 22:57:50.439846   466 net.cpp:402] Collecting Learning Rate and Weight Decay.
I0905 22:57:50.439856   466 net.cpp:167] Network initialization done.
I0905 22:57:50.439860   466 net.cpp:168] Memory required for data: 6183480
Classifying 126 inputs.
Done in 76.28 s.
Traceback (most recent call last):
  File "distribute/python/classify_m.py", line 156, in <module>
    main(sys.argv)
  File "distribute/python/classify_m.py", line 145, in main
    prediction = predictions[i]
IndexError: index 26 is out of bounds for axis 0 with size 26
WARNING: Logging before InitGoogleLogging() is written to STDERR
E0905 22:59:10.212877   473 upgrade_proto.cpp:575] Attempting to upgrade input file specified using deprecated V0LayerParameter: distribute/python/../../senti/model4_boost_deploy.prototxt
I0905 22:59:10.213018   473 upgrade_proto.cpp:582] Successfully upgraded file specified using deprecated V0LayerParameter
E0905 22:59:10.213027   473 upgrade_proto.cpp:585] Note that future Caffe releases will not support V0NetParameter; use ./build/tools/upgrade_net_proto_text.bin to upgrade this and any other network proto files to the new format.
I0905 22:59:10.213174   473 net.cpp:38] Initializing net from parameters: 
layers {
  bottom: "data"
  top: "conv1"
  name: "conv1"
  type: CONVOLUTION
  blobs_lr: 1
  blobs_lr: 2
  weight_decay: 1
  weight_decay: 0
  convolution_param {
    num_output: 96
    kernel_size: 11
    stride: 4
    weight_filler {
      type: "gaussian"
      std: 0.01
    }
    bias_filler {
      type: "constant"
      value: 0
    }
  }
}
layers {
  bottom: "conv1"
  top: "conv1"
  name: "relu1"
  type: RELU
}
layers {
  bottom: "conv1"
  top: "pool1"
  name: "pool1"
  type: POOLING
  pooling_param {
    pool: MAX
    kernel_size: 3
    stride: 2
  }
}
layers {
  bottom: "pool1"
  top: "norm1"
  name: "norm1"
  type: LRN
  lrn_param {
    local_size: 5
    alpha: 0.0001
    beta: 0.75
  }
}
layers {
  bottom: "norm1"
  top: "conv2"
  name: "conv2"
  type: CONVOLUTION
  blobs_lr: 1
  blobs_lr: 2
  weight_decay: 1
  weight_decay: 0
  convolution_param {
    num_output: 256
    pad: 2
    kernel_size: 5
    group: 2
    weight_filler {
      type: "gaussian"
      std: 0.01
    }
    bias_filler {
      type: "constant"
      value: 1
    }
  }
}
layers {
  bottom: "conv2"
  top: "conv2"
  name: "relu2"
  type: RELU
}
layers {
  bottom: "conv2"
  top: "pool2"
  name: "pool2"
  type: POOLING
  pooling_param {
    pool: MAX
    kernel_size: 3
    stride: 2
  }
}
layers {
  bottom: "pool2"
  top: "fc7"
  name: "fc7"
  type: INNER_PRODUCT
  blobs_lr: 1
  blobs_lr: 2
  weight_decay: 1
  weight_decay: 0
  inner_product_param {
    num_output: 512
    weight_filler {
      type: "gaussian"
      std: 0.005
    }
    bias_filler {
      type: "constant"
      value: 1
    }
  }
}
layers {
  bottom: "fc7"
  top: "fc7"
  name: "relu7"
  type: RELU
}
layers {
  bottom: "fc7"
  top: "fc7"
  name: "drop7"
  type: DROPOUT
  dropout_param {
    dropout_ratio: 0.5
  }
}
layers {
  bottom: "fc7"
  top: "fc8"
  name: "fc8"
  type: INNER_PRODUCT
  blobs_lr: 1
  blobs_lr: 2
  weight_decay: 1
  weight_decay: 0
  inner_product_param {
    num_output: 512
    weight_filler {
      type: "gaussian"
      std: 0.005
    }
    bias_filler {
      type: "constant"
      value: 1
    }
  }
}
layers {
  bottom: "fc8"
  top: "fc8"
  name: "relu8"
  type: RELU
}
layers {
  bottom: "fc8"
  top: "fc8"
  name: "drop8"
  type: DROPOUT
  dropout_param {
    dropout_ratio: 0.5
  }
}
layers {
  bottom: "fc8"
  top: "fc9"
  name: "fc9"
  type: INNER_PRODUCT
  blobs_lr: 1
  blobs_lr: 2
  weight_decay: 1
  weight_decay: 0
  inner_product_param {
    num_output: 24
    weight_filler {
      type: "gaussian"
      std: 0.01
    }
    bias_filler {
      type: "constant"
      value: 0
    }
  }
}
layers {
  bottom: "fc9"
  top: "fc10"
  name: "fc10"
  type: INNER_PRODUCT
  blobs_lr: 1
  blobs_lr: 2
  weight_decay: 1
  weight_decay: 0
  inner_product_param {
    num_output: 2
    weight_filler {
      type: "gaussian"
      std: 0.01
    }
    bias_filler {
      type: "constant"
      value: 0
    }
  }
}
layers {
  bottom: "fc10"
  top: "prob"
  name: "prob"
  type: SOFTMAX
}
input: "data"
input_dim: 10
input_dim: 3
input_dim: 227
input_dim: 227
I0905 22:59:10.213238   473 net.cpp:292] Input 0 -> data
I0905 22:59:10.213264   473 net.cpp:66] Creating Layer conv1
I0905 22:59:10.213271   473 net.cpp:329] conv1 <- data
I0905 22:59:10.213279   473 net.cpp:290] conv1 -> conv1
I0905 22:59:10.214654   473 net.cpp:83] Top shape: 10 96 55 55 (2904000)
I0905 22:59:10.214673   473 net.cpp:125] conv1 needs backward computation.
I0905 22:59:10.214682   473 net.cpp:66] Creating Layer relu1
I0905 22:59:10.214689   473 net.cpp:329] relu1 <- conv1
I0905 22:59:10.214695   473 net.cpp:280] relu1 -> conv1 (in-place)
I0905 22:59:10.214704   473 net.cpp:83] Top shape: 10 96 55 55 (2904000)
I0905 22:59:10.214710   473 net.cpp:125] relu1 needs backward computation.
I0905 22:59:10.214716   473 net.cpp:66] Creating Layer pool1
I0905 22:59:10.214722   473 net.cpp:329] pool1 <- conv1
I0905 22:59:10.214730   473 net.cpp:290] pool1 -> pool1
I0905 22:59:10.214740   473 net.cpp:83] Top shape: 10 96 27 27 (699840)
I0905 22:59:10.214746   473 net.cpp:125] pool1 needs backward computation.
I0905 22:59:10.214752   473 net.cpp:66] Creating Layer norm1
I0905 22:59:10.214758   473 net.cpp:329] norm1 <- pool1
I0905 22:59:10.214764   473 net.cpp:290] norm1 -> norm1
I0905 22:59:10.214774   473 net.cpp:83] Top shape: 10 96 27 27 (699840)
I0905 22:59:10.214781   473 net.cpp:125] norm1 needs backward computation.
I0905 22:59:10.214787   473 net.cpp:66] Creating Layer conv2
I0905 22:59:10.214793   473 net.cpp:329] conv2 <- norm1
I0905 22:59:10.214800   473 net.cpp:290] conv2 -> conv2
I0905 22:59:10.223970   473 net.cpp:83] Top shape: 10 256 27 27 (1866240)
I0905 22:59:10.223985   473 net.cpp:125] conv2 needs backward computation.
I0905 22:59:10.223994   473 net.cpp:66] Creating Layer relu2
I0905 22:59:10.223999   473 net.cpp:329] relu2 <- conv2
I0905 22:59:10.224005   473 net.cpp:280] relu2 -> conv2 (in-place)
I0905 22:59:10.224014   473 net.cpp:83] Top shape: 10 256 27 27 (1866240)
I0905 22:59:10.224019   473 net.cpp:125] relu2 needs backward computation.
I0905 22:59:10.224025   473 net.cpp:66] Creating Layer pool2
I0905 22:59:10.224030   473 net.cpp:329] pool2 <- conv2
I0905 22:59:10.224036   473 net.cpp:290] pool2 -> pool2
I0905 22:59:10.224045   473 net.cpp:83] Top shape: 10 256 13 13 (432640)
I0905 22:59:10.224050   473 net.cpp:125] pool2 needs backward computation.
I0905 22:59:10.224061   473 net.cpp:66] Creating Layer fc7
I0905 22:59:10.224066   473 net.cpp:329] fc7 <- pool2
I0905 22:59:10.224072   473 net.cpp:290] fc7 -> fc7
I0905 22:59:10.872578   473 net.cpp:83] Top shape: 10 512 1 1 (5120)
I0905 22:59:10.872623   473 net.cpp:125] fc7 needs backward computation.
I0905 22:59:10.872637   473 net.cpp:66] Creating Layer relu7
I0905 22:59:10.872643   473 net.cpp:329] relu7 <- fc7
I0905 22:59:10.872653   473 net.cpp:280] relu7 -> fc7 (in-place)
I0905 22:59:10.872663   473 net.cpp:83] Top shape: 10 512 1 1 (5120)
I0905 22:59:10.872668   473 net.cpp:125] relu7 needs backward computation.
I0905 22:59:10.872675   473 net.cpp:66] Creating Layer drop7
I0905 22:59:10.872680   473 net.cpp:329] drop7 <- fc7
I0905 22:59:10.872688   473 net.cpp:280] drop7 -> fc7 (in-place)
I0905 22:59:10.872697   473 net.cpp:83] Top shape: 10 512 1 1 (5120)
I0905 22:59:10.872704   473 net.cpp:125] drop7 needs backward computation.
I0905 22:59:10.872712   473 net.cpp:66] Creating Layer fc8
I0905 22:59:10.872717   473 net.cpp:329] fc8 <- fc7
I0905 22:59:10.872730   473 net.cpp:290] fc8 -> fc8
I0905 22:59:10.880609   473 net.cpp:83] Top shape: 10 512 1 1 (5120)
I0905 22:59:10.880632   473 net.cpp:125] fc8 needs backward computation.
I0905 22:59:10.880640   473 net.cpp:66] Creating Layer relu8
I0905 22:59:10.880645   473 net.cpp:329] relu8 <- fc8
I0905 22:59:10.880653   473 net.cpp:280] relu8 -> fc8 (in-place)
I0905 22:59:10.880661   473 net.cpp:83] Top shape: 10 512 1 1 (5120)
I0905 22:59:10.880667   473 net.cpp:125] relu8 needs backward computation.
I0905 22:59:10.880673   473 net.cpp:66] Creating Layer drop8
I0905 22:59:10.880679   473 net.cpp:329] drop8 <- fc8
I0905 22:59:10.880686   473 net.cpp:280] drop8 -> fc8 (in-place)
I0905 22:59:10.880692   473 net.cpp:83] Top shape: 10 512 1 1 (5120)
I0905 22:59:10.880698   473 net.cpp:125] drop8 needs backward computation.
I0905 22:59:10.880707   473 net.cpp:66] Creating Layer fc9
I0905 22:59:10.880713   473 net.cpp:329] fc9 <- fc8
I0905 22:59:10.880720   473 net.cpp:290] fc9 -> fc9
I0905 22:59:10.881105   473 net.cpp:83] Top shape: 10 24 1 1 (240)
I0905 22:59:10.881117   473 net.cpp:125] fc9 needs backward computation.
I0905 22:59:10.881125   473 net.cpp:66] Creating Layer fc10
I0905 22:59:10.881131   473 net.cpp:329] fc10 <- fc9
I0905 22:59:10.881139   473 net.cpp:290] fc10 -> fc10
I0905 22:59:10.881151   473 net.cpp:83] Top shape: 10 2 1 1 (20)
I0905 22:59:10.881160   473 net.cpp:125] fc10 needs backward computation.
I0905 22:59:10.881166   473 net.cpp:66] Creating Layer prob
I0905 22:59:10.881172   473 net.cpp:329] prob <- fc10
I0905 22:59:10.881181   473 net.cpp:290] prob -> prob
I0905 22:59:10.881191   473 net.cpp:83] Top shape: 10 2 1 1 (20)
I0905 22:59:10.881196   473 net.cpp:125] prob needs backward computation.
I0905 22:59:10.881201   473 net.cpp:156] This network produces output prob
I0905 22:59:10.881214   473 net.cpp:402] Collecting Learning Rate and Weight Decay.
I0905 22:59:10.881222   473 net.cpp:167] Network initialization done.
I0905 22:59:10.881228   473 net.cpp:168] Memory required for data: 6183480
Killed
WARNING: Logging before InitGoogleLogging() is written to STDERR
E0905 23:03:13.838733   483 upgrade_proto.cpp:575] Attempting to upgrade input file specified using deprecated V0LayerParameter: distribute/python/../../senti/model4_boost_deploy.prototxt
I0905 23:03:13.838937   483 upgrade_proto.cpp:582] Successfully upgraded file specified using deprecated V0LayerParameter
E0905 23:03:13.838948   483 upgrade_proto.cpp:585] Note that future Caffe releases will not support V0NetParameter; use ./build/tools/upgrade_net_proto_text.bin to upgrade this and any other network proto files to the new format.
I0905 23:03:13.839176   483 net.cpp:38] Initializing net from parameters: 
layers {
  bottom: "data"
  top: "conv1"
  name: "conv1"
  type: CONVOLUTION
  blobs_lr: 1
  blobs_lr: 2
  weight_decay: 1
  weight_decay: 0
  convolution_param {
    num_output: 96
    kernel_size: 11
    stride: 4
    weight_filler {
      type: "gaussian"
      std: 0.01
    }
    bias_filler {
      type: "constant"
      value: 0
    }
  }
}
layers {
  bottom: "conv1"
  top: "conv1"
  name: "relu1"
  type: RELU
}
layers {
  bottom: "conv1"
  top: "pool1"
  name: "pool1"
  type: POOLING
  pooling_param {
    pool: MAX
    kernel_size: 3
    stride: 2
  }
}
layers {
  bottom: "pool1"
  top: "norm1"
  name: "norm1"
  type: LRN
  lrn_param {
    local_size: 5
    alpha: 0.0001
    beta: 0.75
  }
}
layers {
  bottom: "norm1"
  top: "conv2"
  name: "conv2"
  type: CONVOLUTION
  blobs_lr: 1
  blobs_lr: 2
  weight_decay: 1
  weight_decay: 0
  convolution_param {
    num_output: 256
    pad: 2
    kernel_size: 5
    group: 2
    weight_filler {
      type: "gaussian"
      std: 0.01
    }
    bias_filler {
      type: "constant"
      value: 1
    }
  }
}
layers {
  bottom: "conv2"
  top: "conv2"
  name: "relu2"
  type: RELU
}
layers {
  bottom: "conv2"
  top: "pool2"
  name: "pool2"
  type: POOLING
  pooling_param {
    pool: MAX
    kernel_size: 3
    stride: 2
  }
}
layers {
  bottom: "pool2"
  top: "fc7"
  name: "fc7"
  type: INNER_PRODUCT
  blobs_lr: 1
  blobs_lr: 2
  weight_decay: 1
  weight_decay: 0
  inner_product_param {
    num_output: 512
    weight_filler {
      type: "gaussian"
      std: 0.005
    }
    bias_filler {
      type: "constant"
      value: 1
    }
  }
}
layers {
  bottom: "fc7"
  top: "fc7"
  name: "relu7"
  type: RELU
}
layers {
  bottom: "fc7"
  top: "fc7"
  name: "drop7"
  type: DROPOUT
  dropout_param {
    dropout_ratio: 0.5
  }
}
layers {
  bottom: "fc7"
  top: "fc8"
  name: "fc8"
  type: INNER_PRODUCT
  blobs_lr: 1
  blobs_lr: 2
  weight_decay: 1
  weight_decay: 0
  inner_product_param {
    num_output: 512
    weight_filler {
      type: "gaussian"
      std: 0.005
    }
    bias_filler {
      type: "constant"
      value: 1
    }
  }
}
layers {
  bottom: "fc8"
  top: "fc8"
  name: "relu8"
  type: RELU
}
layers {
  bottom: "fc8"
  top: "fc8"
  name: "drop8"
  type: DROPOUT
  dropout_param {
    dropout_ratio: 0.5
  }
}
layers {
  bottom: "fc8"
  top: "fc9"
  name: "fc9"
  type: INNER_PRODUCT
  blobs_lr: 1
  blobs_lr: 2
  weight_decay: 1
  weight_decay: 0
  inner_product_param {
    num_output: 24
    weight_filler {
      type: "gaussian"
      std: 0.01
    }
    bias_filler {
      type: "constant"
      value: 0
    }
  }
}
layers {
  bottom: "fc9"
  top: "fc10"
  name: "fc10"
  type: INNER_PRODUCT
  blobs_lr: 1
  blobs_lr: 2
  weight_decay: 1
  weight_decay: 0
  inner_product_param {
    num_output: 2
    weight_filler {
      type: "gaussian"
      std: 0.01
    }
    bias_filler {
      type: "constant"
      value: 0
    }
  }
}
layers {
  bottom: "fc10"
  top: "prob"
  name: "prob"
  type: SOFTMAX
}
input: "data"
input_dim: 10
input_dim: 3
input_dim: 227
input_dim: 227
I0905 23:03:13.839239   483 net.cpp:292] Input 0 -> data
I0905 23:03:13.839284   483 net.cpp:66] Creating Layer conv1
I0905 23:03:13.839293   483 net.cpp:329] conv1 <- data
I0905 23:03:13.839303   483 net.cpp:290] conv1 -> conv1
I0905 23:03:13.871459   483 net.cpp:83] Top shape: 10 96 55 55 (2904000)
I0905 23:03:13.871484   483 net.cpp:125] conv1 needs backward computation.
I0905 23:03:13.871495   483 net.cpp:66] Creating Layer relu1
I0905 23:03:13.871500   483 net.cpp:329] relu1 <- conv1
I0905 23:03:13.871507   483 net.cpp:280] relu1 -> conv1 (in-place)
I0905 23:03:13.871516   483 net.cpp:83] Top shape: 10 96 55 55 (2904000)
I0905 23:03:13.871522   483 net.cpp:125] relu1 needs backward computation.
I0905 23:03:13.871529   483 net.cpp:66] Creating Layer pool1
I0905 23:03:13.871534   483 net.cpp:329] pool1 <- conv1
I0905 23:03:13.871541   483 net.cpp:290] pool1 -> pool1
I0905 23:03:13.871552   483 net.cpp:83] Top shape: 10 96 27 27 (699840)
I0905 23:03:13.871558   483 net.cpp:125] pool1 needs backward computation.
I0905 23:03:13.871565   483 net.cpp:66] Creating Layer norm1
I0905 23:03:13.871570   483 net.cpp:329] norm1 <- pool1
I0905 23:03:13.871577   483 net.cpp:290] norm1 -> norm1
I0905 23:03:13.871587   483 net.cpp:83] Top shape: 10 96 27 27 (699840)
I0905 23:03:13.871592   483 net.cpp:125] norm1 needs backward computation.
I0905 23:03:13.871600   483 net.cpp:66] Creating Layer conv2
I0905 23:03:13.871606   483 net.cpp:329] conv2 <- norm1
I0905 23:03:13.871613   483 net.cpp:290] conv2 -> conv2
I0905 23:03:13.880735   483 net.cpp:83] Top shape: 10 256 27 27 (1866240)
I0905 23:03:13.880751   483 net.cpp:125] conv2 needs backward computation.
I0905 23:03:13.880759   483 net.cpp:66] Creating Layer relu2
I0905 23:03:13.880764   483 net.cpp:329] relu2 <- conv2
I0905 23:03:13.880771   483 net.cpp:280] relu2 -> conv2 (in-place)
I0905 23:03:13.880779   483 net.cpp:83] Top shape: 10 256 27 27 (1866240)
I0905 23:03:13.880784   483 net.cpp:125] relu2 needs backward computation.
I0905 23:03:13.880790   483 net.cpp:66] Creating Layer pool2
I0905 23:03:13.880796   483 net.cpp:329] pool2 <- conv2
I0905 23:03:13.880802   483 net.cpp:290] pool2 -> pool2
I0905 23:03:13.880810   483 net.cpp:83] Top shape: 10 256 13 13 (432640)
I0905 23:03:13.880816   483 net.cpp:125] pool2 needs backward computation.
I0905 23:03:13.880825   483 net.cpp:66] Creating Layer fc7
I0905 23:03:13.880831   483 net.cpp:329] fc7 <- pool2
I0905 23:03:13.880839   483 net.cpp:290] fc7 -> fc7
I0905 23:03:14.559916   483 net.cpp:83] Top shape: 10 512 1 1 (5120)
I0905 23:03:14.559962   483 net.cpp:125] fc7 needs backward computation.
I0905 23:03:14.559974   483 net.cpp:66] Creating Layer relu7
I0905 23:03:14.559983   483 net.cpp:329] relu7 <- fc7
I0905 23:03:14.559991   483 net.cpp:280] relu7 -> fc7 (in-place)
I0905 23:03:14.560003   483 net.cpp:83] Top shape: 10 512 1 1 (5120)
I0905 23:03:14.560008   483 net.cpp:125] relu7 needs backward computation.
I0905 23:03:14.560015   483 net.cpp:66] Creating Layer drop7
I0905 23:03:14.560020   483 net.cpp:329] drop7 <- fc7
I0905 23:03:14.560027   483 net.cpp:280] drop7 -> fc7 (in-place)
I0905 23:03:14.560037   483 net.cpp:83] Top shape: 10 512 1 1 (5120)
I0905 23:03:14.560044   483 net.cpp:125] drop7 needs backward computation.
I0905 23:03:14.560052   483 net.cpp:66] Creating Layer fc8
I0905 23:03:14.560057   483 net.cpp:329] fc8 <- fc7
I0905 23:03:14.560066   483 net.cpp:290] fc8 -> fc8
I0905 23:03:14.568192   483 net.cpp:83] Top shape: 10 512 1 1 (5120)
I0905 23:03:14.568203   483 net.cpp:125] fc8 needs backward computation.
I0905 23:03:14.568210   483 net.cpp:66] Creating Layer relu8
I0905 23:03:14.568217   483 net.cpp:329] relu8 <- fc8
I0905 23:03:14.568224   483 net.cpp:280] relu8 -> fc8 (in-place)
I0905 23:03:14.568231   483 net.cpp:83] Top shape: 10 512 1 1 (5120)
I0905 23:03:14.568238   483 net.cpp:125] relu8 needs backward computation.
I0905 23:03:14.568243   483 net.cpp:66] Creating Layer drop8
I0905 23:03:14.568249   483 net.cpp:329] drop8 <- fc8
I0905 23:03:14.568255   483 net.cpp:280] drop8 -> fc8 (in-place)
I0905 23:03:14.568261   483 net.cpp:83] Top shape: 10 512 1 1 (5120)
I0905 23:03:14.568267   483 net.cpp:125] drop8 needs backward computation.
I0905 23:03:14.568276   483 net.cpp:66] Creating Layer fc9
I0905 23:03:14.568282   483 net.cpp:329] fc9 <- fc8
I0905 23:03:14.568289   483 net.cpp:290] fc9 -> fc9
I0905 23:03:14.568681   483 net.cpp:83] Top shape: 10 24 1 1 (240)
I0905 23:03:14.568693   483 net.cpp:125] fc9 needs backward computation.
I0905 23:03:14.568701   483 net.cpp:66] Creating Layer fc10
I0905 23:03:14.568707   483 net.cpp:329] fc10 <- fc9
I0905 23:03:14.568716   483 net.cpp:290] fc10 -> fc10
I0905 23:03:14.568728   483 net.cpp:83] Top shape: 10 2 1 1 (20)
I0905 23:03:14.568737   483 net.cpp:125] fc10 needs backward computation.
I0905 23:03:14.568742   483 net.cpp:66] Creating Layer prob
I0905 23:03:14.568748   483 net.cpp:329] prob <- fc10
I0905 23:03:14.568755   483 net.cpp:290] prob -> prob
I0905 23:03:14.568765   483 net.cpp:83] Top shape: 10 2 1 1 (20)
I0905 23:03:14.568771   483 net.cpp:125] prob needs backward computation.
I0905 23:03:14.568776   483 net.cpp:156] This network produces output prob
I0905 23:03:14.568789   483 net.cpp:402] Collecting Learning Rate and Weight Decay.
I0905 23:03:14.568797   483 net.cpp:167] Network initialization done.
I0905 23:03:14.568804   483 net.cpp:168] Memory required for data: 6183480
Classifying 59 inputs.
Done in 39.78 s.
WARNING: Logging before InitGoogleLogging() is written to STDERR
E0905 23:03:59.711007   490 upgrade_proto.cpp:575] Attempting to upgrade input file specified using deprecated V0LayerParameter: distribute/python/../../senti/model4_boost_deploy.prototxt
I0905 23:03:59.711144   490 upgrade_proto.cpp:582] Successfully upgraded file specified using deprecated V0LayerParameter
E0905 23:03:59.711153   490 upgrade_proto.cpp:585] Note that future Caffe releases will not support V0NetParameter; use ./build/tools/upgrade_net_proto_text.bin to upgrade this and any other network proto files to the new format.
I0905 23:03:59.711299   490 net.cpp:38] Initializing net from parameters: 
layers {
  bottom: "data"
  top: "conv1"
  name: "conv1"
  type: CONVOLUTION
  blobs_lr: 1
  blobs_lr: 2
  weight_decay: 1
  weight_decay: 0
  convolution_param {
    num_output: 96
    kernel_size: 11
    stride: 4
    weight_filler {
      type: "gaussian"
      std: 0.01
    }
    bias_filler {
      type: "constant"
      value: 0
    }
  }
}
layers {
  bottom: "conv1"
  top: "conv1"
  name: "relu1"
  type: RELU
}
layers {
  bottom: "conv1"
  top: "pool1"
  name: "pool1"
  type: POOLING
  pooling_param {
    pool: MAX
    kernel_size: 3
    stride: 2
  }
}
layers {
  bottom: "pool1"
  top: "norm1"
  name: "norm1"
  type: LRN
  lrn_param {
    local_size: 5
    alpha: 0.0001
    beta: 0.75
  }
}
layers {
  bottom: "norm1"
  top: "conv2"
  name: "conv2"
  type: CONVOLUTION
  blobs_lr: 1
  blobs_lr: 2
  weight_decay: 1
  weight_decay: 0
  convolution_param {
    num_output: 256
    pad: 2
    kernel_size: 5
    group: 2
    weight_filler {
      type: "gaussian"
      std: 0.01
    }
    bias_filler {
      type: "constant"
      value: 1
    }
  }
}
layers {
  bottom: "conv2"
  top: "conv2"
  name: "relu2"
  type: RELU
}
layers {
  bottom: "conv2"
  top: "pool2"
  name: "pool2"
  type: POOLING
  pooling_param {
    pool: MAX
    kernel_size: 3
    stride: 2
  }
}
layers {
  bottom: "pool2"
  top: "fc7"
  name: "fc7"
  type: INNER_PRODUCT
  blobs_lr: 1
  blobs_lr: 2
  weight_decay: 1
  weight_decay: 0
  inner_product_param {
    num_output: 512
    weight_filler {
      type: "gaussian"
      std: 0.005
    }
    bias_filler {
      type: "constant"
      value: 1
    }
  }
}
layers {
  bottom: "fc7"
  top: "fc7"
  name: "relu7"
  type: RELU
}
layers {
  bottom: "fc7"
  top: "fc7"
  name: "drop7"
  type: DROPOUT
  dropout_param {
    dropout_ratio: 0.5
  }
}
layers {
  bottom: "fc7"
  top: "fc8"
  name: "fc8"
  type: INNER_PRODUCT
  blobs_lr: 1
  blobs_lr: 2
  weight_decay: 1
  weight_decay: 0
  inner_product_param {
    num_output: 512
    weight_filler {
      type: "gaussian"
      std: 0.005
    }
    bias_filler {
      type: "constant"
      value: 1
    }
  }
}
layers {
  bottom: "fc8"
  top: "fc8"
  name: "relu8"
  type: RELU
}
layers {
  bottom: "fc8"
  top: "fc8"
  name: "drop8"
  type: DROPOUT
  dropout_param {
    dropout_ratio: 0.5
  }
}
layers {
  bottom: "fc8"
  top: "fc9"
  name: "fc9"
  type: INNER_PRODUCT
  blobs_lr: 1
  blobs_lr: 2
  weight_decay: 1
  weight_decay: 0
  inner_product_param {
    num_output: 24
    weight_filler {
      type: "gaussian"
      std: 0.01
    }
    bias_filler {
      type: "constant"
      value: 0
    }
  }
}
layers {
  bottom: "fc9"
  top: "fc10"
  name: "fc10"
  type: INNER_PRODUCT
  blobs_lr: 1
  blobs_lr: 2
  weight_decay: 1
  weight_decay: 0
  inner_product_param {
    num_output: 2
    weight_filler {
      type: "gaussian"
      std: 0.01
    }
    bias_filler {
      type: "constant"
      value: 0
    }
  }
}
layers {
  bottom: "fc10"
  top: "prob"
  name: "prob"
  type: SOFTMAX
}
input: "data"
input_dim: 10
input_dim: 3
input_dim: 227
input_dim: 227
I0905 23:03:59.711364   490 net.cpp:292] Input 0 -> data
I0905 23:03:59.711390   490 net.cpp:66] Creating Layer conv1
I0905 23:03:59.711396   490 net.cpp:329] conv1 <- data
I0905 23:03:59.711405   490 net.cpp:290] conv1 -> conv1
I0905 23:03:59.712765   490 net.cpp:83] Top shape: 10 96 55 55 (2904000)
I0905 23:03:59.712784   490 net.cpp:125] conv1 needs backward computation.
I0905 23:03:59.712792   490 net.cpp:66] Creating Layer relu1
I0905 23:03:59.712798   490 net.cpp:329] relu1 <- conv1
I0905 23:03:59.712805   490 net.cpp:280] relu1 -> conv1 (in-place)
I0905 23:03:59.712815   490 net.cpp:83] Top shape: 10 96 55 55 (2904000)
I0905 23:03:59.712820   490 net.cpp:125] relu1 needs backward computation.
I0905 23:03:59.712826   490 net.cpp:66] Creating Layer pool1
I0905 23:03:59.712832   490 net.cpp:329] pool1 <- conv1
I0905 23:03:59.712839   490 net.cpp:290] pool1 -> pool1
I0905 23:03:59.712851   490 net.cpp:83] Top shape: 10 96 27 27 (699840)
I0905 23:03:59.712857   490 net.cpp:125] pool1 needs backward computation.
I0905 23:03:59.712863   490 net.cpp:66] Creating Layer norm1
I0905 23:03:59.712868   490 net.cpp:329] norm1 <- pool1
I0905 23:03:59.712875   490 net.cpp:290] norm1 -> norm1
I0905 23:03:59.712885   490 net.cpp:83] Top shape: 10 96 27 27 (699840)
I0905 23:03:59.712891   490 net.cpp:125] norm1 needs backward computation.
I0905 23:03:59.712898   490 net.cpp:66] Creating Layer conv2
I0905 23:03:59.712909   490 net.cpp:329] conv2 <- norm1
I0905 23:03:59.712916   490 net.cpp:290] conv2 -> conv2
I0905 23:03:59.722225   490 net.cpp:83] Top shape: 10 256 27 27 (1866240)
I0905 23:03:59.722241   490 net.cpp:125] conv2 needs backward computation.
I0905 23:03:59.722249   490 net.cpp:66] Creating Layer relu2
I0905 23:03:59.722254   490 net.cpp:329] relu2 <- conv2
I0905 23:03:59.722261   490 net.cpp:280] relu2 -> conv2 (in-place)
I0905 23:03:59.722270   490 net.cpp:83] Top shape: 10 256 27 27 (1866240)
I0905 23:03:59.722275   490 net.cpp:125] relu2 needs backward computation.
I0905 23:03:59.722281   490 net.cpp:66] Creating Layer pool2
I0905 23:03:59.722287   490 net.cpp:329] pool2 <- conv2
I0905 23:03:59.722295   490 net.cpp:290] pool2 -> pool2
I0905 23:03:59.722302   490 net.cpp:83] Top shape: 10 256 13 13 (432640)
I0905 23:03:59.722308   490 net.cpp:125] pool2 needs backward computation.
I0905 23:03:59.722317   490 net.cpp:66] Creating Layer fc7
I0905 23:03:59.722323   490 net.cpp:329] fc7 <- pool2
I0905 23:03:59.722332   490 net.cpp:290] fc7 -> fc7
I0905 23:04:00.433845   490 net.cpp:83] Top shape: 10 512 1 1 (5120)
I0905 23:04:00.433897   490 net.cpp:125] fc7 needs backward computation.
I0905 23:04:00.433910   490 net.cpp:66] Creating Layer relu7
I0905 23:04:00.433917   490 net.cpp:329] relu7 <- fc7
I0905 23:04:00.433928   490 net.cpp:280] relu7 -> fc7 (in-place)
I0905 23:04:00.433938   490 net.cpp:83] Top shape: 10 512 1 1 (5120)
I0905 23:04:00.433944   490 net.cpp:125] relu7 needs backward computation.
I0905 23:04:00.433951   490 net.cpp:66] Creating Layer drop7
I0905 23:04:00.433958   490 net.cpp:329] drop7 <- fc7
I0905 23:04:00.433964   490 net.cpp:280] drop7 -> fc7 (in-place)
I0905 23:04:00.433974   490 net.cpp:83] Top shape: 10 512 1 1 (5120)
I0905 23:04:00.433980   490 net.cpp:125] drop7 needs backward computation.
I0905 23:04:00.433990   490 net.cpp:66] Creating Layer fc8
I0905 23:04:00.433995   490 net.cpp:329] fc8 <- fc7
I0905 23:04:00.434003   490 net.cpp:290] fc8 -> fc8
I0905 23:04:00.441768   490 net.cpp:83] Top shape: 10 512 1 1 (5120)
I0905 23:04:00.441781   490 net.cpp:125] fc8 needs backward computation.
I0905 23:04:00.441788   490 net.cpp:66] Creating Layer relu8
I0905 23:04:00.441794   490 net.cpp:329] relu8 <- fc8
I0905 23:04:00.441802   490 net.cpp:280] relu8 -> fc8 (in-place)
I0905 23:04:00.441809   490 net.cpp:83] Top shape: 10 512 1 1 (5120)
I0905 23:04:00.441815   490 net.cpp:125] relu8 needs backward computation.
I0905 23:04:00.441822   490 net.cpp:66] Creating Layer drop8
I0905 23:04:00.441828   490 net.cpp:329] drop8 <- fc8
I0905 23:04:00.441833   490 net.cpp:280] drop8 -> fc8 (in-place)
I0905 23:04:00.441840   490 net.cpp:83] Top shape: 10 512 1 1 (5120)
I0905 23:04:00.441845   490 net.cpp:125] drop8 needs backward computation.
I0905 23:04:00.441855   490 net.cpp:66] Creating Layer fc9
I0905 23:04:00.441861   490 net.cpp:329] fc9 <- fc8
I0905 23:04:00.441869   490 net.cpp:290] fc9 -> fc9
I0905 23:04:00.442240   490 net.cpp:83] Top shape: 10 24 1 1 (240)
I0905 23:04:00.442252   490 net.cpp:125] fc9 needs backward computation.
I0905 23:04:00.442260   490 net.cpp:66] Creating Layer fc10
I0905 23:04:00.442266   490 net.cpp:329] fc10 <- fc9
I0905 23:04:00.442275   490 net.cpp:290] fc10 -> fc10
I0905 23:04:00.442286   490 net.cpp:83] Top shape: 10 2 1 1 (20)
I0905 23:04:00.442293   490 net.cpp:125] fc10 needs backward computation.
I0905 23:04:00.442301   490 net.cpp:66] Creating Layer prob
I0905 23:04:00.442306   490 net.cpp:329] prob <- fc10
I0905 23:04:00.442314   490 net.cpp:290] prob -> prob
I0905 23:04:00.442323   490 net.cpp:83] Top shape: 10 2 1 1 (20)
I0905 23:04:00.442329   490 net.cpp:125] prob needs backward computation.
I0905 23:04:00.442334   490 net.cpp:156] This network produces output prob
I0905 23:04:00.442347   490 net.cpp:402] Collecting Learning Rate and Weight Decay.
I0905 23:04:00.442355   490 net.cpp:167] Network initialization done.
I0905 23:04:00.442360   490 net.cpp:168] Memory required for data: 6183480
Classifying 10 inputs.
Done in 6.62 s.
WARNING: Logging before InitGoogleLogging() is written to STDERR
E0905 23:04:07.936662   495 upgrade_proto.cpp:575] Attempting to upgrade input file specified using deprecated V0LayerParameter: distribute/python/../../senti/model4_boost_deploy.prototxt
I0905 23:04:07.936810   495 upgrade_proto.cpp:582] Successfully upgraded file specified using deprecated V0LayerParameter
E0905 23:04:07.936818   495 upgrade_proto.cpp:585] Note that future Caffe releases will not support V0NetParameter; use ./build/tools/upgrade_net_proto_text.bin to upgrade this and any other network proto files to the new format.
I0905 23:04:07.936965   495 net.cpp:38] Initializing net from parameters: 
layers {
  bottom: "data"
  top: "conv1"
  name: "conv1"
  type: CONVOLUTION
  blobs_lr: 1
  blobs_lr: 2
  weight_decay: 1
  weight_decay: 0
  convolution_param {
    num_output: 96
    kernel_size: 11
    stride: 4
    weight_filler {
      type: "gaussian"
      std: 0.01
    }
    bias_filler {
      type: "constant"
      value: 0
    }
  }
}
layers {
  bottom: "conv1"
  top: "conv1"
  name: "relu1"
  type: RELU
}
layers {
  bottom: "conv1"
  top: "pool1"
  name: "pool1"
  type: POOLING
  pooling_param {
    pool: MAX
    kernel_size: 3
    stride: 2
  }
}
layers {
  bottom: "pool1"
  top: "norm1"
  name: "norm1"
  type: LRN
  lrn_param {
    local_size: 5
    alpha: 0.0001
    beta: 0.75
  }
}
layers {
  bottom: "norm1"
  top: "conv2"
  name: "conv2"
  type: CONVOLUTION
  blobs_lr: 1
  blobs_lr: 2
  weight_decay: 1
  weight_decay: 0
  convolution_param {
    num_output: 256
    pad: 2
    kernel_size: 5
    group: 2
    weight_filler {
      type: "gaussian"
      std: 0.01
    }
    bias_filler {
      type: "constant"
      value: 1
    }
  }
}
layers {
  bottom: "conv2"
  top: "conv2"
  name: "relu2"
  type: RELU
}
layers {
  bottom: "conv2"
  top: "pool2"
  name: "pool2"
  type: POOLING
  pooling_param {
    pool: MAX
    kernel_size: 3
    stride: 2
  }
}
layers {
  bottom: "pool2"
  top: "fc7"
  name: "fc7"
  type: INNER_PRODUCT
  blobs_lr: 1
  blobs_lr: 2
  weight_decay: 1
  weight_decay: 0
  inner_product_param {
    num_output: 512
    weight_filler {
      type: "gaussian"
      std: 0.005
    }
    bias_filler {
      type: "constant"
      value: 1
    }
  }
}
layers {
  bottom: "fc7"
  top: "fc7"
  name: "relu7"
  type: RELU
}
layers {
  bottom: "fc7"
  top: "fc7"
  name: "drop7"
  type: DROPOUT
  dropout_param {
    dropout_ratio: 0.5
  }
}
layers {
  bottom: "fc7"
  top: "fc8"
  name: "fc8"
  type: INNER_PRODUCT
  blobs_lr: 1
  blobs_lr: 2
  weight_decay: 1
  weight_decay: 0
  inner_product_param {
    num_output: 512
    weight_filler {
      type: "gaussian"
      std: 0.005
    }
    bias_filler {
      type: "constant"
      value: 1
    }
  }
}
layers {
  bottom: "fc8"
  top: "fc8"
  name: "relu8"
  type: RELU
}
layers {
  bottom: "fc8"
  top: "fc8"
  name: "drop8"
  type: DROPOUT
  dropout_param {
    dropout_ratio: 0.5
  }
}
layers {
  bottom: "fc8"
  top: "fc9"
  name: "fc9"
  type: INNER_PRODUCT
  blobs_lr: 1
  blobs_lr: 2
  weight_decay: 1
  weight_decay: 0
  inner_product_param {
    num_output: 24
    weight_filler {
      type: "gaussian"
      std: 0.01
    }
    bias_filler {
      type: "constant"
      value: 0
    }
  }
}
layers {
  bottom: "fc9"
  top: "fc10"
  name: "fc10"
  type: INNER_PRODUCT
  blobs_lr: 1
  blobs_lr: 2
  weight_decay: 1
  weight_decay: 0
  inner_product_param {
    num_output: 2
    weight_filler {
      type: "gaussian"
      std: 0.01
    }
    bias_filler {
      type: "constant"
      value: 0
    }
  }
}
layers {
  bottom: "fc10"
  top: "prob"
  name: "prob"
  type: SOFTMAX
}
input: "data"
input_dim: 10
input_dim: 3
input_dim: 227
input_dim: 227
I0905 23:04:07.937016   495 net.cpp:292] Input 0 -> data
I0905 23:04:07.937042   495 net.cpp:66] Creating Layer conv1
I0905 23:04:07.937049   495 net.cpp:329] conv1 <- data
I0905 23:04:07.937057   495 net.cpp:290] conv1 -> conv1
I0905 23:04:07.938453   495 net.cpp:83] Top shape: 10 96 55 55 (2904000)
I0905 23:04:07.938473   495 net.cpp:125] conv1 needs backward computation.
I0905 23:04:07.938488   495 net.cpp:66] Creating Layer relu1
I0905 23:04:07.938493   495 net.cpp:329] relu1 <- conv1
I0905 23:04:07.938500   495 net.cpp:280] relu1 -> conv1 (in-place)
I0905 23:04:07.938508   495 net.cpp:83] Top shape: 10 96 55 55 (2904000)
I0905 23:04:07.938514   495 net.cpp:125] relu1 needs backward computation.
I0905 23:04:07.938521   495 net.cpp:66] Creating Layer pool1
I0905 23:04:07.938526   495 net.cpp:329] pool1 <- conv1
I0905 23:04:07.938534   495 net.cpp:290] pool1 -> pool1
I0905 23:04:07.938544   495 net.cpp:83] Top shape: 10 96 27 27 (699840)
I0905 23:04:07.938550   495 net.cpp:125] pool1 needs backward computation.
I0905 23:04:07.938557   495 net.cpp:66] Creating Layer norm1
I0905 23:04:07.938562   495 net.cpp:329] norm1 <- pool1
I0905 23:04:07.938570   495 net.cpp:290] norm1 -> norm1
I0905 23:04:07.938580   495 net.cpp:83] Top shape: 10 96 27 27 (699840)
I0905 23:04:07.938585   495 net.cpp:125] norm1 needs backward computation.
I0905 23:04:07.938592   495 net.cpp:66] Creating Layer conv2
I0905 23:04:07.938597   495 net.cpp:329] conv2 <- norm1
I0905 23:04:07.938604   495 net.cpp:290] conv2 -> conv2
I0905 23:04:07.947726   495 net.cpp:83] Top shape: 10 256 27 27 (1866240)
I0905 23:04:07.947741   495 net.cpp:125] conv2 needs backward computation.
I0905 23:04:07.947747   495 net.cpp:66] Creating Layer relu2
I0905 23:04:07.947753   495 net.cpp:329] relu2 <- conv2
I0905 23:04:07.947760   495 net.cpp:280] relu2 -> conv2 (in-place)
I0905 23:04:07.947767   495 net.cpp:83] Top shape: 10 256 27 27 (1866240)
I0905 23:04:07.947773   495 net.cpp:125] relu2 needs backward computation.
I0905 23:04:07.947779   495 net.cpp:66] Creating Layer pool2
I0905 23:04:07.947784   495 net.cpp:329] pool2 <- conv2
I0905 23:04:07.947790   495 net.cpp:290] pool2 -> pool2
I0905 23:04:07.947798   495 net.cpp:83] Top shape: 10 256 13 13 (432640)
I0905 23:04:07.947804   495 net.cpp:125] pool2 needs backward computation.
I0905 23:04:07.947813   495 net.cpp:66] Creating Layer fc7
I0905 23:04:07.947819   495 net.cpp:329] fc7 <- pool2
I0905 23:04:07.947826   495 net.cpp:290] fc7 -> fc7
I0905 23:04:08.598294   495 net.cpp:83] Top shape: 10 512 1 1 (5120)
I0905 23:04:08.598337   495 net.cpp:125] fc7 needs backward computation.
I0905 23:04:08.598351   495 net.cpp:66] Creating Layer relu7
I0905 23:04:08.598357   495 net.cpp:329] relu7 <- fc7
I0905 23:04:08.598366   495 net.cpp:280] relu7 -> fc7 (in-place)
I0905 23:04:08.598376   495 net.cpp:83] Top shape: 10 512 1 1 (5120)
I0905 23:04:08.598382   495 net.cpp:125] relu7 needs backward computation.
I0905 23:04:08.598389   495 net.cpp:66] Creating Layer drop7
I0905 23:04:08.598395   495 net.cpp:329] drop7 <- fc7
I0905 23:04:08.598402   495 net.cpp:280] drop7 -> fc7 (in-place)
I0905 23:04:08.598412   495 net.cpp:83] Top shape: 10 512 1 1 (5120)
I0905 23:04:08.598417   495 net.cpp:125] drop7 needs backward computation.
I0905 23:04:08.598426   495 net.cpp:66] Creating Layer fc8
I0905 23:04:08.598431   495 net.cpp:329] fc8 <- fc7
I0905 23:04:08.598440   495 net.cpp:290] fc8 -> fc8
I0905 23:04:08.606219   495 net.cpp:83] Top shape: 10 512 1 1 (5120)
I0905 23:04:08.606230   495 net.cpp:125] fc8 needs backward computation.
I0905 23:04:08.606237   495 net.cpp:66] Creating Layer relu8
I0905 23:04:08.606243   495 net.cpp:329] relu8 <- fc8
I0905 23:04:08.606252   495 net.cpp:280] relu8 -> fc8 (in-place)
I0905 23:04:08.606259   495 net.cpp:83] Top shape: 10 512 1 1 (5120)
I0905 23:04:08.606266   495 net.cpp:125] relu8 needs backward computation.
I0905 23:04:08.606272   495 net.cpp:66] Creating Layer drop8
I0905 23:04:08.606277   495 net.cpp:329] drop8 <- fc8
I0905 23:04:08.606283   495 net.cpp:280] drop8 -> fc8 (in-place)
I0905 23:04:08.606290   495 net.cpp:83] Top shape: 10 512 1 1 (5120)
I0905 23:04:08.606295   495 net.cpp:125] drop8 needs backward computation.
I0905 23:04:08.606304   495 net.cpp:66] Creating Layer fc9
I0905 23:04:08.606310   495 net.cpp:329] fc9 <- fc8
I0905 23:04:08.606317   495 net.cpp:290] fc9 -> fc9
I0905 23:04:08.606689   495 net.cpp:83] Top shape: 10 24 1 1 (240)
I0905 23:04:08.606710   495 net.cpp:125] fc9 needs backward computation.
I0905 23:04:08.606719   495 net.cpp:66] Creating Layer fc10
I0905 23:04:08.606725   495 net.cpp:329] fc10 <- fc9
I0905 23:04:08.606734   495 net.cpp:290] fc10 -> fc10
I0905 23:04:08.606745   495 net.cpp:83] Top shape: 10 2 1 1 (20)
I0905 23:04:08.606752   495 net.cpp:125] fc10 needs backward computation.
I0905 23:04:08.606760   495 net.cpp:66] Creating Layer prob
I0905 23:04:08.606765   495 net.cpp:329] prob <- fc10
I0905 23:04:08.606772   495 net.cpp:290] prob -> prob
I0905 23:04:08.606782   495 net.cpp:83] Top shape: 10 2 1 1 (20)
I0905 23:04:08.606787   495 net.cpp:125] prob needs backward computation.
I0905 23:04:08.606792   495 net.cpp:156] This network produces output prob
I0905 23:04:08.606806   495 net.cpp:402] Collecting Learning Rate and Weight Decay.
I0905 23:04:08.606813   495 net.cpp:167] Network initialization done.
I0905 23:04:08.606818   495 net.cpp:168] Memory required for data: 6183480
Classifying 478 inputs.
Done in 459.34 s.
Traceback (most recent call last):
  File "distribute/python/classify_m.py", line 156, in <module>
    main(sys.argv)
  File "distribute/python/classify_m.py", line 145, in main
    prediction = predictions[i]
IndexError: index 78 is out of bounds for axis 0 with size 78
WARNING: Logging before InitGoogleLogging() is written to STDERR
E0905 23:12:14.598273   523 upgrade_proto.cpp:575] Attempting to upgrade input file specified using deprecated V0LayerParameter: distribute/python/../../senti/model4_boost_deploy.prototxt
I0905 23:12:14.598487   523 upgrade_proto.cpp:582] Successfully upgraded file specified using deprecated V0LayerParameter
E0905 23:12:14.598501   523 upgrade_proto.cpp:585] Note that future Caffe releases will not support V0NetParameter; use ./build/tools/upgrade_net_proto_text.bin to upgrade this and any other network proto files to the new format.
I0905 23:12:14.598733   523 net.cpp:38] Initializing net from parameters: 
layers {
  bottom: "data"
  top: "conv1"
  name: "conv1"
  type: CONVOLUTION
  blobs_lr: 1
  blobs_lr: 2
  weight_decay: 1
  weight_decay: 0
  convolution_param {
    num_output: 96
    kernel_size: 11
    stride: 4
    weight_filler {
      type: "gaussian"
      std: 0.01
    }
    bias_filler {
      type: "constant"
      value: 0
    }
  }
}
layers {
  bottom: "conv1"
  top: "conv1"
  name: "relu1"
  type: RELU
}
layers {
  bottom: "conv1"
  top: "pool1"
  name: "pool1"
  type: POOLING
  pooling_param {
    pool: MAX
    kernel_size: 3
    stride: 2
  }
}
layers {
  bottom: "pool1"
  top: "norm1"
  name: "norm1"
  type: LRN
  lrn_param {
    local_size: 5
    alpha: 0.0001
    beta: 0.75
  }
}
layers {
  bottom: "norm1"
  top: "conv2"
  name: "conv2"
  type: CONVOLUTION
  blobs_lr: 1
  blobs_lr: 2
  weight_decay: 1
  weight_decay: 0
  convolution_param {
    num_output: 256
    pad: 2
    kernel_size: 5
    group: 2
    weight_filler {
      type: "gaussian"
      std: 0.01
    }
    bias_filler {
      type: "constant"
      value: 1
    }
  }
}
layers {
  bottom: "conv2"
  top: "conv2"
  name: "relu2"
  type: RELU
}
layers {
  bottom: "conv2"
  top: "pool2"
  name: "pool2"
  type: POOLING
  pooling_param {
    pool: MAX
    kernel_size: 3
    stride: 2
  }
}
layers {
  bottom: "pool2"
  top: "fc7"
  name: "fc7"
  type: INNER_PRODUCT
  blobs_lr: 1
  blobs_lr: 2
  weight_decay: 1
  weight_decay: 0
  inner_product_param {
    num_output: 512
    weight_filler {
      type: "gaussian"
      std: 0.005
    }
    bias_filler {
      type: "constant"
      value: 1
    }
  }
}
layers {
  bottom: "fc7"
  top: "fc7"
  name: "relu7"
  type: RELU
}
layers {
  bottom: "fc7"
  top: "fc7"
  name: "drop7"
  type: DROPOUT
  dropout_param {
    dropout_ratio: 0.5
  }
}
layers {
  bottom: "fc7"
  top: "fc8"
  name: "fc8"
  type: INNER_PRODUCT
  blobs_lr: 1
  blobs_lr: 2
  weight_decay: 1
  weight_decay: 0
  inner_product_param {
    num_output: 512
    weight_filler {
      type: "gaussian"
      std: 0.005
    }
    bias_filler {
      type: "constant"
      value: 1
    }
  }
}
layers {
  bottom: "fc8"
  top: "fc8"
  name: "relu8"
  type: RELU
}
layers {
  bottom: "fc8"
  top: "fc8"
  name: "drop8"
  type: DROPOUT
  dropout_param {
    dropout_ratio: 0.5
  }
}
layers {
  bottom: "fc8"
  top: "fc9"
  name: "fc9"
  type: INNER_PRODUCT
  blobs_lr: 1
  blobs_lr: 2
  weight_decay: 1
  weight_decay: 0
  inner_product_param {
    num_output: 24
    weight_filler {
      type: "gaussian"
      std: 0.01
    }
    bias_filler {
      type: "constant"
      value: 0
    }
  }
}
layers {
  bottom: "fc9"
  top: "fc10"
  name: "fc10"
  type: INNER_PRODUCT
  blobs_lr: 1
  blobs_lr: 2
  weight_decay: 1
  weight_decay: 0
  inner_product_param {
    num_output: 2
    weight_filler {
      type: "gaussian"
      std: 0.01
    }
    bias_filler {
      type: "constant"
      value: 0
    }
  }
}
layers {
  bottom: "fc10"
  top: "prob"
  name: "prob"
  type: SOFTMAX
}
input: "data"
input_dim: 10
input_dim: 3
input_dim: 227
input_dim: 227
I0905 23:12:14.598830   523 net.cpp:292] Input 0 -> data
I0905 23:12:14.598870   523 net.cpp:66] Creating Layer conv1
I0905 23:12:14.598881   523 net.cpp:329] conv1 <- data
I0905 23:12:14.598896   523 net.cpp:290] conv1 -> conv1
I0905 23:12:14.615042   523 net.cpp:83] Top shape: 10 96 55 55 (2904000)
I0905 23:12:14.615067   523 net.cpp:125] conv1 needs backward computation.
I0905 23:12:14.615077   523 net.cpp:66] Creating Layer relu1
I0905 23:12:14.615083   523 net.cpp:329] relu1 <- conv1
I0905 23:12:14.615090   523 net.cpp:280] relu1 -> conv1 (in-place)
I0905 23:12:14.615099   523 net.cpp:83] Top shape: 10 96 55 55 (2904000)
I0905 23:12:14.615105   523 net.cpp:125] relu1 needs backward computation.
I0905 23:12:14.615113   523 net.cpp:66] Creating Layer pool1
I0905 23:12:14.615118   523 net.cpp:329] pool1 <- conv1
I0905 23:12:14.615125   523 net.cpp:290] pool1 -> pool1
I0905 23:12:14.615136   523 net.cpp:83] Top shape: 10 96 27 27 (699840)
I0905 23:12:14.615142   523 net.cpp:125] pool1 needs backward computation.
I0905 23:12:14.615149   523 net.cpp:66] Creating Layer norm1
I0905 23:12:14.615154   523 net.cpp:329] norm1 <- pool1
I0905 23:12:14.615161   523 net.cpp:290] norm1 -> norm1
I0905 23:12:14.615171   523 net.cpp:83] Top shape: 10 96 27 27 (699840)
I0905 23:12:14.615177   523 net.cpp:125] norm1 needs backward computation.
I0905 23:12:14.615185   523 net.cpp:66] Creating Layer conv2
I0905 23:12:14.615190   523 net.cpp:329] conv2 <- norm1
I0905 23:12:14.615197   523 net.cpp:290] conv2 -> conv2
I0905 23:12:14.624531   523 net.cpp:83] Top shape: 10 256 27 27 (1866240)
I0905 23:12:14.624547   523 net.cpp:125] conv2 needs backward computation.
I0905 23:12:14.624554   523 net.cpp:66] Creating Layer relu2
I0905 23:12:14.624560   523 net.cpp:329] relu2 <- conv2
I0905 23:12:14.624567   523 net.cpp:280] relu2 -> conv2 (in-place)
I0905 23:12:14.624575   523 net.cpp:83] Top shape: 10 256 27 27 (1866240)
I0905 23:12:14.624582   523 net.cpp:125] relu2 needs backward computation.
I0905 23:12:14.624588   523 net.cpp:66] Creating Layer pool2
I0905 23:12:14.624593   523 net.cpp:329] pool2 <- conv2
I0905 23:12:14.624600   523 net.cpp:290] pool2 -> pool2
I0905 23:12:14.624608   523 net.cpp:83] Top shape: 10 256 13 13 (432640)
I0905 23:12:14.624614   523 net.cpp:125] pool2 needs backward computation.
I0905 23:12:14.624624   523 net.cpp:66] Creating Layer fc7
I0905 23:12:14.624629   523 net.cpp:329] fc7 <- pool2
I0905 23:12:14.624637   523 net.cpp:290] fc7 -> fc7
I0905 23:12:15.270797   523 net.cpp:83] Top shape: 10 512 1 1 (5120)
I0905 23:12:15.270843   523 net.cpp:125] fc7 needs backward computation.
I0905 23:12:15.270856   523 net.cpp:66] Creating Layer relu7
I0905 23:12:15.270864   523 net.cpp:329] relu7 <- fc7
I0905 23:12:15.270872   523 net.cpp:280] relu7 -> fc7 (in-place)
I0905 23:12:15.270882   523 net.cpp:83] Top shape: 10 512 1 1 (5120)
I0905 23:12:15.270889   523 net.cpp:125] relu7 needs backward computation.
I0905 23:12:15.270896   523 net.cpp:66] Creating Layer drop7
I0905 23:12:15.270901   523 net.cpp:329] drop7 <- fc7
I0905 23:12:15.270907   523 net.cpp:280] drop7 -> fc7 (in-place)
I0905 23:12:15.270931   523 net.cpp:83] Top shape: 10 512 1 1 (5120)
I0905 23:12:15.270936   523 net.cpp:125] drop7 needs backward computation.
I0905 23:12:15.270944   523 net.cpp:66] Creating Layer fc8
I0905 23:12:15.270951   523 net.cpp:329] fc8 <- fc7
I0905 23:12:15.270959   523 net.cpp:290] fc8 -> fc8
I0905 23:12:15.278733   523 net.cpp:83] Top shape: 10 512 1 1 (5120)
I0905 23:12:15.278745   523 net.cpp:125] fc8 needs backward computation.
I0905 23:12:15.278753   523 net.cpp:66] Creating Layer relu8
I0905 23:12:15.278758   523 net.cpp:329] relu8 <- fc8
I0905 23:12:15.278765   523 net.cpp:280] relu8 -> fc8 (in-place)
I0905 23:12:15.278774   523 net.cpp:83] Top shape: 10 512 1 1 (5120)
I0905 23:12:15.278779   523 net.cpp:125] relu8 needs backward computation.
I0905 23:12:15.278785   523 net.cpp:66] Creating Layer drop8
I0905 23:12:15.278790   523 net.cpp:329] drop8 <- fc8
I0905 23:12:15.278796   523 net.cpp:280] drop8 -> fc8 (in-place)
I0905 23:12:15.278803   523 net.cpp:83] Top shape: 10 512 1 1 (5120)
I0905 23:12:15.278808   523 net.cpp:125] drop8 needs backward computation.
I0905 23:12:15.278817   523 net.cpp:66] Creating Layer fc9
I0905 23:12:15.278823   523 net.cpp:329] fc9 <- fc8
I0905 23:12:15.278830   523 net.cpp:290] fc9 -> fc9
I0905 23:12:15.279203   523 net.cpp:83] Top shape: 10 24 1 1 (240)
I0905 23:12:15.279214   523 net.cpp:125] fc9 needs backward computation.
I0905 23:12:15.279222   523 net.cpp:66] Creating Layer fc10
I0905 23:12:15.279228   523 net.cpp:329] fc10 <- fc9
I0905 23:12:15.279237   523 net.cpp:290] fc10 -> fc10
I0905 23:12:15.279248   523 net.cpp:83] Top shape: 10 2 1 1 (20)
I0905 23:12:15.279255   523 net.cpp:125] fc10 needs backward computation.
I0905 23:12:15.279263   523 net.cpp:66] Creating Layer prob
I0905 23:12:15.279268   523 net.cpp:329] prob <- fc10
I0905 23:12:15.279276   523 net.cpp:290] prob -> prob
I0905 23:12:15.279286   523 net.cpp:83] Top shape: 10 2 1 1 (20)
I0905 23:12:15.279291   523 net.cpp:125] prob needs backward computation.
I0905 23:12:15.279296   523 net.cpp:156] This network produces output prob
I0905 23:12:15.279309   523 net.cpp:402] Collecting Learning Rate and Weight Decay.
I0905 23:12:15.279317   523 net.cpp:167] Network initialization done.
I0905 23:12:15.279322   523 net.cpp:168] Memory required for data: 6183480
/home/jack/Documents/caffe/testmine/distribute/python/caffe/io.py:48: RuntimeWarning: invalid value encountered in divide
…
