…
E0930 11:14:52.905880 15268 upgrade_proto.cpp:575] Attempting to upgrade input file specified using deprecated V0LayerParameter: /home/jack/Documents/caffe/testmine/feature_extract/senti/model_new.prototxt
I0930 11:14:52.906049 15268 upgrade_proto.cpp:582] Successfully upgraded file specified using deprecated V0LayerParameter
E0930 11:14:52.906057 15268 upgrade_proto.cpp:585] Note that future Caffe releases will not support V0NetParameter; use ./build/tools/upgrade_net_proto_text.bin to upgrade this and any other network proto files to the new format.
I0930 11:14:52.906221 15268 net.cpp:38] Initializing net from parameters: 
layers {
  bottom: "data"
  top: "conv1"
  name: "conv1"
  type: CONVOLUTION
  blobs_lr: 1
  blobs_lr: 2
  weight_decay: 1
  weight_decay: 0
  convolution_param {
    num_output: 96
    kernel_size: 11
    stride: 4
    weight_filler {
      type: "gaussian"
      std: 0.01
    }
    bias_filler {
      type: "constant"
      value: 0
    }
  }
}
layers {
  bottom: "conv1"
  top: "conv1"
  name: "relu1"
  type: RELU
}
layers {
  bottom: "conv1"
  top: "pool1"
  name: "pool1"
  type: POOLING
  pooling_param {
    pool: MAX
    kernel_size: 3
    stride: 2
  }
}
layers {
  bottom: "pool1"
  top: "norm1"
  name: "norm1"
  type: LRN
  lrn_param {
    local_size: 5
    alpha: 0.0001
    beta: 0.75
  }
}
layers {
  bottom: "norm1"
  top: "conv2"
  name: "conv2"
  type: CONVOLUTION
  blobs_lr: 1
  blobs_lr: 2
  weight_decay: 1
  weight_decay: 0
  convolution_param {
    num_output: 256
    pad: 2
    kernel_size: 5
    group: 2
    weight_filler {
      type: "gaussian"
      std: 0.01
    }
    bias_filler {
      type: "constant"
      value: 1
    }
  }
}
layers {
  bottom: "conv2"
  top: "conv2"
  name: "relu2"
  type: RELU
}
layers {
  bottom: "conv2"
  top: "pool2"
  name: "pool2"
  type: POOLING
  pooling_param {
    pool: MAX
    kernel_size: 3
    stride: 2
  }
}
layers {
  bottom: "pool2"
  top: "fc7"
  name: "fc7"
  type: INNER_PRODUCT
  blobs_lr: 1
  blobs_lr: 2
  weight_decay: 1
  weight_decay: 0
  inner_product_param {
    num_output: 512
    weight_filler {
      type: "gaussian"
      std: 0.005
    }
    bias_filler {
      type: "constant"
      value: 1
    }
  }
}
layers {
  bottom: "fc7"
  top: "fc7"
  name: "relu7"
  type: RELU
}
layers {
  bottom: "fc7"
  top: "fc7"
  name: "drop7"
  type: DROPOUT
  dropout_param {
    dropout_ratio: 0.5
  }
}
layers {
  bottom: "fc7"
  top: "fc8"
  name: "fc8"
  type: INNER_PRODUCT
  blobs_lr: 1
  blobs_lr: 2
  weight_decay: 1
  weight_decay: 0
  inner_product_param {
    num_output: 512
    weight_filler {
      type: "gaussian"
      std: 0.005
    }
    bias_filler {
      type: "constant"
      value: 1
    }
  }
}
layers {
  bottom: "fc8"
  top: "fc8"
  name: "relu8"
  type: RELU
}
layers {
  bottom: "fc8"
  top: "fc8"
  name: "drop8"
  type: DROPOUT
  dropout_param {
    dropout_ratio: 0.5
  }
}
layers {
  bottom: "fc8"
  top: "fc9"
  name: "fc9"
  type: INNER_PRODUCT
  blobs_lr: 1
  blobs_lr: 2
  weight_decay: 1
  weight_decay: 0
  inner_product_param {
    num_output: 24
    weight_filler {
      type: "gaussian"
      std: 0.01
    }
    bias_filler {
      type: "constant"
      value: 0
    }
  }
}
layers {
  bottom: "fc9"
  top: "fc10"
  name: "fc10"
  type: INNER_PRODUCT
  blobs_lr: 1
  blobs_lr: 2
  weight_decay: 1
  weight_decay: 0
  inner_product_param {
    num_output: 2
    weight_filler {
      type: "gaussian"
      std: 0.01
    }
    bias_filler {
      type: "constant"
      value: 0
    }
  }
}
layers {
  bottom: "fc10"
  top: "prob"
  name: "prob"
  type: SOFTMAX
}
input: "data"
input_dim: 10
input_dim: 3
input_dim: 227
input_dim: 227
I0930 11:14:52.906277 15268 net.cpp:292] Input 0 -> data
I0930 11:14:52.906303 15268 net.cpp:66] Creating Layer conv1
I0930 11:14:52.906311 15268 net.cpp:329] conv1 <- data
I0930 11:14:52.906319 15268 net.cpp:290] conv1 -> conv1
I0930 11:14:52.923718 15268 net.cpp:83] Top shape: 10 96 55 55 (2904000)
I0930 11:14:52.923771 15268 net.cpp:125] conv1 needs backward computation.
I0930 11:14:52.923796 15268 net.cpp:66] Creating Layer relu1
I0930 11:14:52.923804 15268 net.cpp:329] relu1 <- conv1
I0930 11:14:52.923812 15268 net.cpp:280] relu1 -> conv1 (in-place)
I0930 11:14:52.923825 15268 net.cpp:83] Top shape: 10 96 55 55 (2904000)
I0930 11:14:52.923830 15268 net.cpp:125] relu1 needs backward computation.
I0930 11:14:52.923840 15268 net.cpp:66] Creating Layer pool1
I0930 11:14:52.923846 15268 net.cpp:329] pool1 <- conv1
I0930 11:14:52.923852 15268 net.cpp:290] pool1 -> pool1
I0930 11:14:52.923864 15268 net.cpp:83] Top shape: 10 96 27 27 (699840)
I0930 11:14:52.923871 15268 net.cpp:125] pool1 needs backward computation.
I0930 11:14:52.923879 15268 net.cpp:66] Creating Layer norm1
I0930 11:14:52.923885 15268 net.cpp:329] norm1 <- pool1
I0930 11:14:52.923892 15268 net.cpp:290] norm1 -> norm1
I0930 11:14:52.923902 15268 net.cpp:83] Top shape: 10 96 27 27 (699840)
I0930 11:14:52.923908 15268 net.cpp:125] norm1 needs backward computation.
I0930 11:14:52.923918 15268 net.cpp:66] Creating Layer conv2
I0930 11:14:52.923923 15268 net.cpp:329] conv2 <- norm1
I0930 11:14:52.923930 15268 net.cpp:290] conv2 -> conv2
I0930 11:14:52.933452 15268 net.cpp:83] Top shape: 10 256 27 27 (1866240)
I0930 11:14:52.933528 15268 net.cpp:125] conv2 needs backward computation.
I0930 11:14:52.933540 15268 net.cpp:66] Creating Layer relu2
I0930 11:14:52.933547 15268 net.cpp:329] relu2 <- conv2
I0930 11:14:52.933555 15268 net.cpp:280] relu2 -> conv2 (in-place)
I0930 11:14:52.933565 15268 net.cpp:83] Top shape: 10 256 27 27 (1866240)
I0930 11:14:52.933572 15268 net.cpp:125] relu2 needs backward computation.
I0930 11:14:52.933580 15268 net.cpp:66] Creating Layer pool2
I0930 11:14:52.933585 15268 net.cpp:329] pool2 <- conv2
I0930 11:14:52.933593 15268 net.cpp:290] pool2 -> pool2
I0930 11:14:52.933604 15268 net.cpp:83] Top shape: 10 256 13 13 (432640)
I0930 11:14:52.933609 15268 net.cpp:125] pool2 needs backward computation.
I0930 11:14:52.933619 15268 net.cpp:66] Creating Layer fc7
I0930 11:14:52.933624 15268 net.cpp:329] fc7 <- pool2
I0930 11:14:52.933632 15268 net.cpp:290] fc7 -> fc7
I0930 11:14:53.633167 15268 net.cpp:83] Top shape: 10 512 1 1 (5120)
I0930 11:14:53.633227 15268 net.cpp:125] fc7 needs backward computation.
I0930 11:14:53.633242 15268 net.cpp:66] Creating Layer relu7
I0930 11:14:53.633249 15268 net.cpp:329] relu7 <- fc7
I0930 11:14:53.633258 15268 net.cpp:280] relu7 -> fc7 (in-place)
I0930 11:14:53.633268 15268 net.cpp:83] Top shape: 10 512 1 1 (5120)
I0930 11:14:53.633275 15268 net.cpp:125] relu7 needs backward computation.
I0930 11:14:53.633282 15268 net.cpp:66] Creating Layer drop7
I0930 11:14:53.633287 15268 net.cpp:329] drop7 <- fc7
I0930 11:14:53.633296 15268 net.cpp:280] drop7 -> fc7 (in-place)
I0930 11:14:53.633307 15268 net.cpp:83] Top shape: 10 512 1 1 (5120)
I0930 11:14:53.633313 15268 net.cpp:125] drop7 needs backward computation.
I0930 11:14:53.633322 15268 net.cpp:66] Creating Layer fc8
I0930 11:14:53.633327 15268 net.cpp:329] fc8 <- fc7
I0930 11:14:53.633337 15268 net.cpp:290] fc8 -> fc8
I0930 11:14:53.641715 15268 net.cpp:83] Top shape: 10 512 1 1 (5120)
I0930 11:14:53.641762 15268 net.cpp:125] fc8 needs backward computation.
I0930 11:14:53.641772 15268 net.cpp:66] Creating Layer relu8
I0930 11:14:53.641779 15268 net.cpp:329] relu8 <- fc8
I0930 11:14:53.641789 15268 net.cpp:280] relu8 -> fc8 (in-place)
I0930 11:14:53.641800 15268 net.cpp:83] Top shape: 10 512 1 1 (5120)
I0930 11:14:53.641806 15268 net.cpp:125] relu8 needs backward computation.
I0930 11:14:53.641815 15268 net.cpp:66] Creating Layer drop8
I0930 11:14:53.641820 15268 net.cpp:329] drop8 <- fc8
I0930 11:14:53.641827 15268 net.cpp:280] drop8 -> fc8 (in-place)
I0930 11:14:53.641834 15268 net.cpp:83] Top shape: 10 512 1 1 (5120)
I0930 11:14:53.641840 15268 net.cpp:125] drop8 needs backward computation.
I0930 11:14:53.641849 15268 net.cpp:66] Creating Layer fc9
I0930 11:14:53.641855 15268 net.cpp:329] fc9 <- fc8
I0930 11:14:53.641865 15268 net.cpp:290] fc9 -> fc9
I0930 11:14:53.642256 15268 net.cpp:83] Top shape: 10 24 1 1 (240)
I0930 11:14:53.642279 15268 net.cpp:125] fc9 needs backward computation.
I0930 11:14:53.642288 15268 net.cpp:66] Creating Layer fc10
I0930 11:14:53.642294 15268 net.cpp:329] fc10 <- fc9
I0930 11:14:53.642302 15268 net.cpp:290] fc10 -> fc10
I0930 11:14:53.642314 15268 net.cpp:83] Top shape: 10 2 1 1 (20)
I0930 11:14:53.642323 15268 net.cpp:125] fc10 needs backward computation.
I0930 11:14:53.642330 15268 net.cpp:66] Creating Layer prob
I0930 11:14:53.642335 15268 net.cpp:329] prob <- fc10
I0930 11:14:53.642343 15268 net.cpp:290] prob -> prob
I0930 11:14:53.642354 15268 net.cpp:83] Top shape: 10 2 1 1 (20)
I0930 11:14:53.642361 15268 net.cpp:125] prob needs backward computation.
I0930 11:14:53.642366 15268 net.cpp:156] This network produces output prob
I0930 11:14:53.642379 15268 net.cpp:402] Collecting Learning Rate and Weight Decay.
I0930 11:14:53.642388 15268 net.cpp:167] Network initialization done.
I0930 11:14:53.642393 15268 net.cpp:168] Memory required for data: 6183480
E0930 11:14:54.814517 15268 upgrade_proto.cpp:598] Attempting to upgrade input file specified using deprecated V0LayerParameter: /home/jack/Documents/caffe/testmine/feature_extract/senti/pretrained_model
…
