…
E0930 11:14:08.419893 15251 upgrade_proto.cpp:575] Attempting to upgrade input file specified using deprecated V0LayerParameter: /home/jack/Documents/caffe/testmine/feature_extract/senti/model_new.prototxt
I0930 11:14:08.420116 15251 upgrade_proto.cpp:582] Successfully upgraded file specified using deprecated V0LayerParameter
E0930 11:14:08.420126 15251 upgrade_proto.cpp:585] Note that future Caffe releases will not support V0NetParameter; use ./build/tools/upgrade_net_proto_text.bin to upgrade this and any other network proto files to the new format.
I0930 11:14:08.443258 15251 net.cpp:38] Initializing net from parameters: 
layers {
  bottom: "data"
  top: "conv1"
  name: "conv1"
  type: CONVOLUTION
  blobs_lr: 1
  blobs_lr: 2
  weight_decay: 1
  weight_decay: 0
  convolution_param {
    num_output: 96
    kernel_size: 11
    stride: 4
    weight_filler {
      type: "gaussian"
      std: 0.01
    }
    bias_filler {
      type: "constant"
      value: 0
    }
  }
}
layers {
  bottom: "conv1"
  top: "conv1"
  name: "relu1"
  type: RELU
}
layers {
  bottom: "conv1"
  top: "pool1"
  name: "pool1"
  type: POOLING
  pooling_param {
    pool: MAX
    kernel_size: 3
    stride: 2
  }
}
layers {
  bottom: "pool1"
  top: "norm1"
  name: "norm1"
  type: LRN
  lrn_param {
    local_size: 5
    alpha: 0.0001
    beta: 0.75
  }
}
layers {
  bottom: "norm1"
  top: "conv2"
  name: "conv2"
  type: CONVOLUTION
  blobs_lr: 1
  blobs_lr: 2
  weight_decay: 1
  weight_decay: 0
  convolution_param {
    num_output: 256
    pad: 2
    kernel_size: 5
    group: 2
    weight_filler {
      type: "gaussian"
      std: 0.01
    }
    bias_filler {
      type: "constant"
      value: 1
    }
  }
}
layers {
  bottom: "conv2"
  top: "conv2"
  name: "relu2"
  type: RELU
}
layers {
  bottom: "conv2"
  top: "pool2"
  name: "pool2"
  type: POOLING
  pooling_param {
    pool: MAX
    kernel_size: 3
    stride: 2
  }
}
layers {
  bottom: "pool2"
  top: "fc7"
  name: "fc7"
  type: INNER_PRODUCT
  blobs_lr: 1
  blobs_lr: 2
  weight_decay: 1
  weight_decay: 0
  inner_product_param {
    num_output: 512
    weight_filler {
      type: "gaussian"
      std: 0.005
    }
    bias_filler {
      type: "constant"
      value: 1
    }
  }
}
layers {
  bottom: "fc7"
  top: "fc7"
  name: "relu7"
  type: RELU
}
layers {
  bottom: "fc7"
  top: "fc7"
  name: "drop7"
  type: DROPOUT
  dropout_param {
    dropout_ratio: 0.5
  }
}
layers {
  bottom: "fc7"
  top: "fc8"
  name: "fc8"
  type: INNER_PRODUCT
  blobs_lr: 1
  blobs_lr: 2
  weight_decay: 1
  weight_decay: 0
  inner_product_param {
    num_output: 512
    weight_filler {
      type: "gaussian"
      std: 0.005
    }
    bias_filler {
      type: "constant"
      value: 1
    }
  }
}
layers {
  bottom: "fc8"
  top: "fc8"
  name: "relu8"
  type: RELU
}
layers {
  bottom: "fc8"
  top: "fc8"
  name: "drop8"
  type: DROPOUT
  dropout_param {
    dropout_ratio: 0.5
  }
}
layers {
  bottom: "fc8"
  top: "fc9"
  name: "fc9"
  type: INNER_PRODUCT
  blobs_lr: 1
  blobs_lr: 2
  weight_decay: 1
  weight_decay: 0
  inner_product_param {
    num_output: 24
    weight_filler {
      type: "gaussian"
      std: 0.01
    }
    bias_filler {
      type: "constant"
      value: 0
    }
  }
}
layers {
  bottom: "fc9"
  top: "fc10"
  name: "fc10"
  type: INNER_PRODUCT
  blobs_lr: 1
  blobs_lr: 2
  weight_decay: 1
  weight_decay: 0
  inner_product_param {
    num_output: 2
    weight_filler {
      type: "gaussian"
      std: 0.01
    }
    bias_filler {
      type: "constant"
      value: 0
    }
  }
}
layers {
  bottom: "fc10"
  top: "prob"
  name: "prob"
  type: SOFTMAX
}
input: "data"
input_dim: 10
input_dim: 3
input_dim: 227
input_dim: 227
I0930 11:14:08.443380 15251 net.cpp:292] Input 0 -> data
I0930 11:14:08.443423 15251 net.cpp:66] Creating Layer conv1
I0930 11:14:08.443433 15251 net.cpp:329] conv1 <- data
I0930 11:14:08.443442 15251 net.cpp:290] conv1 -> conv1
I0930 11:14:08.464658 15251 net.cpp:83] Top shape: 10 96 55 55 (2904000)
I0930 11:14:08.464709 15251 net.cpp:125] conv1 needs backward computation.
I0930 11:14:08.464730 15251 net.cpp:66] Creating Layer relu1
I0930 11:14:08.464738 15251 net.cpp:329] relu1 <- conv1
I0930 11:14:08.464747 15251 net.cpp:280] relu1 -> conv1 (in-place)
I0930 11:14:08.464759 15251 net.cpp:83] Top shape: 10 96 55 55 (2904000)
I0930 11:14:08.464766 15251 net.cpp:125] relu1 needs backward computation.
I0930 11:14:08.464774 15251 net.cpp:66] Creating Layer pool1
I0930 11:14:08.464781 15251 net.cpp:329] pool1 <- conv1
I0930 11:14:08.464788 15251 net.cpp:290] pool1 -> pool1
I0930 11:14:08.464800 15251 net.cpp:83] Top shape: 10 96 27 27 (699840)
I0930 11:14:08.464807 15251 net.cpp:125] pool1 needs backward computation.
I0930 11:14:08.464814 15251 net.cpp:66] Creating Layer norm1
I0930 11:14:08.464820 15251 net.cpp:329] norm1 <- pool1
I0930 11:14:08.464828 15251 net.cpp:290] norm1 -> norm1
I0930 11:14:08.464838 15251 net.cpp:83] Top shape: 10 96 27 27 (699840)
I0930 11:14:08.464844 15251 net.cpp:125] norm1 needs backward computation.
I0930 11:14:08.464854 15251 net.cpp:66] Creating Layer conv2
I0930 11:14:08.464859 15251 net.cpp:329] conv2 <- norm1
I0930 11:14:08.464867 15251 net.cpp:290] conv2 -> conv2
I0930 11:14:08.475765 15251 net.cpp:83] Top shape: 10 256 27 27 (1866240)
I0930 11:14:08.475811 15251 net.cpp:125] conv2 needs backward computation.
I0930 11:14:08.475821 15251 net.cpp:66] Creating Layer relu2
I0930 11:14:08.475829 15251 net.cpp:329] relu2 <- conv2
I0930 11:14:08.475837 15251 net.cpp:280] relu2 -> conv2 (in-place)
I0930 11:14:08.475847 15251 net.cpp:83] Top shape: 10 256 27 27 (1866240)
I0930 11:14:08.475854 15251 net.cpp:125] relu2 needs backward computation.
I0930 11:14:08.475862 15251 net.cpp:66] Creating Layer pool2
I0930 11:14:08.475868 15251 net.cpp:329] pool2 <- conv2
I0930 11:14:08.475875 15251 net.cpp:290] pool2 -> pool2
I0930 11:14:08.475885 15251 net.cpp:83] Top shape: 10 256 13 13 (432640)
I0930 11:14:08.475893 15251 net.cpp:125] pool2 needs backward computation.
I0930 11:14:08.475901 15251 net.cpp:66] Creating Layer fc7
I0930 11:14:08.475908 15251 net.cpp:329] fc7 <- pool2
I0930 11:14:08.475915 15251 net.cpp:290] fc7 -> fc7
I0930 11:14:09.157078 15251 net.cpp:83] Top shape: 10 512 1 1 (5120)
I0930 11:14:09.157122 15251 net.cpp:125] fc7 needs backward computation.
I0930 11:14:09.157135 15251 net.cpp:66] Creating Layer relu7
I0930 11:14:09.157143 15251 net.cpp:329] relu7 <- fc7
I0930 11:14:09.157151 15251 net.cpp:280] relu7 -> fc7 (in-place)
I0930 11:14:09.157161 15251 net.cpp:83] Top shape: 10 512 1 1 (5120)
I0930 11:14:09.157168 15251 net.cpp:125] relu7 needs backward computation.
I0930 11:14:09.157176 15251 net.cpp:66] Creating Layer drop7
I0930 11:14:09.157181 15251 net.cpp:329] drop7 <- fc7
I0930 11:14:09.157192 15251 net.cpp:280] drop7 -> fc7 (in-place)
I0930 11:14:09.157203 15251 net.cpp:83] Top shape: 10 512 1 1 (5120)
I0930 11:14:09.157209 15251 net.cpp:125] drop7 needs backward computation.
I0930 11:14:09.157218 15251 net.cpp:66] Creating Layer fc8
I0930 11:14:09.157224 15251 net.cpp:329] fc8 <- fc7
I0930 11:14:09.157234 15251 net.cpp:290] fc8 -> fc8
I0930 11:14:09.165113 15251 net.cpp:83] Top shape: 10 512 1 1 (5120)
I0930 11:14:09.165132 15251 net.cpp:125] fc8 needs backward computation.
I0930 11:14:09.165139 15251 net.cpp:66] Creating Layer relu8
I0930 11:14:09.165146 15251 net.cpp:329] relu8 <- fc8
I0930 11:14:09.165155 15251 net.cpp:280] relu8 -> fc8 (in-place)
I0930 11:14:09.165163 15251 net.cpp:83] Top shape: 10 512 1 1 (5120)
I0930 11:14:09.165169 15251 net.cpp:125] relu8 needs backward computation.
I0930 11:14:09.165177 15251 net.cpp:66] Creating Layer drop8
I0930 11:14:09.165190 15251 net.cpp:329] drop8 <- fc8
I0930 11:14:09.165197 15251 net.cpp:280] drop8 -> fc8 (in-place)
I0930 11:14:09.165205 15251 net.cpp:83] Top shape: 10 512 1 1 (5120)
I0930 11:14:09.165211 15251 net.cpp:125] drop8 needs backward computation.
I0930 11:14:09.165220 15251 net.cpp:66] Creating Layer fc9
I0930 11:14:09.165225 15251 net.cpp:329] fc9 <- fc8
I0930 11:14:09.165235 15251 net.cpp:290] fc9 -> fc9
I0930 11:14:09.165628 15251 net.cpp:83] Top shape: 10 24 1 1 (240)
I0930 11:14:09.165652 15251 net.cpp:125] fc9 needs backward computation.
I0930 11:14:09.165662 15251 net.cpp:66] Creating Layer fc10
I0930 11:14:09.165668 15251 net.cpp:329] fc10 <- fc9
I0930 11:14:09.165675 15251 net.cpp:290] fc10 -> fc10
I0930 11:14:09.165689 15251 net.cpp:83] Top shape: 10 2 1 1 (20)
I0930 11:14:09.165699 15251 net.cpp:125] fc10 needs backward computation.
I0930 11:14:09.165705 15251 net.cpp:66] Creating Layer prob
I0930 11:14:09.165711 15251 net.cpp:329] prob <- fc10
I0930 11:14:09.165719 15251 net.cpp:290] prob -> prob
I0930 11:14:09.165729 15251 net.cpp:83] Top shape: 10 2 1 1 (20)
I0930 11:14:09.165737 15251 net.cpp:125] prob needs backward computation.
I0930 11:14:09.165742 15251 net.cpp:156] This network produces output prob
I0930 11:14:09.165755 15251 net.cpp:402] Collecting Learning Rate and Weight Decay.
I0930 11:14:09.165763 15251 net.cpp:167] Network initialization done.
I0930 11:14:09.165776 15251 net.cpp:168] Memory required for data: 6183480
E0930 11:14:10.313062 15251 upgrade_proto.cpp:598] Attempting to upgrade input file specified using deprecated V0LayerParameter: /home/jack/Documents/caffe/testmine/feature_extract/senti/pretrained_model
…
