…
E1001 20:10:02.372978 21907 upgrade_proto.cpp:575] Attempting to upgrade input file specified using deprecated V0LayerParameter: /home/jack/Documents/caffe/testmine/feature_extract/senti/model_new.prototxt
I1001 20:10:02.373141 21907 upgrade_proto.cpp:582] Successfully upgraded file specified using deprecated V0LayerParameter
E1001 20:10:02.373150 21907 upgrade_proto.cpp:585] Note that future Caffe releases will not support V0NetParameter; use ./build/tools/upgrade_net_proto_text.bin to upgrade this and any other network proto files to the new format.
I1001 20:10:02.373306 21907 net.cpp:38] Initializing net from parameters: 
layers {
  bottom: "data"
  top: "conv1"
  name: "conv1"
  type: CONVOLUTION
  blobs_lr: 1
  blobs_lr: 2
  weight_decay: 1
  weight_decay: 0
  convolution_param {
    num_output: 96
    kernel_size: 11
    stride: 4
    weight_filler {
      type: "gaussian"
      std: 0.01
    }
    bias_filler {
      type: "constant"
      value: 0
    }
  }
}
layers {
  bottom: "conv1"
  top: "conv1"
  name: "relu1"
  type: RELU
}
layers {
  bottom: "conv1"
  top: "pool1"
  name: "pool1"
  type: POOLING
  pooling_param {
    pool: MAX
    kernel_size: 3
    stride: 2
  }
}
layers {
  bottom: "pool1"
  top: "norm1"
  name: "norm1"
  type: LRN
  lrn_param {
    local_size: 5
    alpha: 0.0001
    beta: 0.75
  }
}
layers {
  bottom: "norm1"
  top: "conv2"
  name: "conv2"
  type: CONVOLUTION
  blobs_lr: 1
  blobs_lr: 2
  weight_decay: 1
  weight_decay: 0
  convolution_param {
    num_output: 256
    pad: 2
    kernel_size: 5
    group: 2
    weight_filler {
      type: "gaussian"
      std: 0.01
    }
    bias_filler {
      type: "constant"
      value: 1
    }
  }
}
layers {
  bottom: "conv2"
  top: "conv2"
  name: "relu2"
  type: RELU
}
layers {
  bottom: "conv2"
  top: "pool2"
  name: "pool2"
  type: POOLING
  pooling_param {
    pool: MAX
    kernel_size: 3
    stride: 2
  }
}
layers {
  bottom: "pool2"
  top: "fc7"
  name: "fc7"
  type: INNER_PRODUCT
  blobs_lr: 1
  blobs_lr: 2
  weight_decay: 1
  weight_decay: 0
  inner_product_param {
    num_output: 512
    weight_filler {
      type: "gaussian"
      std: 0.005
    }
    bias_filler {
      type: "constant"
      value: 1
    }
  }
}
layers {
  bottom: "fc7"
  top: "fc7"
  name: "relu7"
  type: RELU
}
layers {
  bottom: "fc7"
  top: "fc7"
  name: "drop7"
  type: DROPOUT
  dropout_param {
    dropout_ratio: 0.5
  }
}
layers {
  bottom: "fc7"
  top: "fc8"
  name: "fc8"
  type: INNER_PRODUCT
  blobs_lr: 1
  blobs_lr: 2
  weight_decay: 1
  weight_decay: 0
  inner_product_param {
    num_output: 512
    weight_filler {
      type: "gaussian"
      std: 0.005
    }
    bias_filler {
      type: "constant"
      value: 1
    }
  }
}
layers {
  bottom: "fc8"
  top: "fc8"
  name: "relu8"
  type: RELU
}
layers {
  bottom: "fc8"
  top: "fc8"
  name: "drop8"
  type: DROPOUT
  dropout_param {
    dropout_ratio: 0.5
  }
}
layers {
  bottom: "fc8"
  top: "fc9"
  name: "fc9"
  type: INNER_PRODUCT
  blobs_lr: 1
  blobs_lr: 2
  weight_decay: 1
  weight_decay: 0
  inner_product_param {
    num_output: 24
    weight_filler {
      type: "gaussian"
      std: 0.01
    }
    bias_filler {
      type: "constant"
      value: 0
    }
  }
}
layers {
  bottom: "fc9"
  top: "fc10"
  name: "fc10"
  type: INNER_PRODUCT
  blobs_lr: 1
  blobs_lr: 2
  weight_decay: 1
  weight_decay: 0
  inner_product_param {
    num_output: 2
    weight_filler {
      type: "gaussian"
      std: 0.01
    }
    bias_filler {
      type: "constant"
      value: 0
    }
  }
}
layers {
  bottom: "fc10"
  top: "prob"
  name: "prob"
  type: SOFTMAX
}
input: "data"
input_dim: 10
input_dim: 3
input_dim: 227
input_dim: 227
I1001 20:10:02.373358 21907 net.cpp:292] Input 0 -> data
I1001 20:10:02.373384 21907 net.cpp:66] Creating Layer conv1
I1001 20:10:02.373391 21907 net.cpp:329] conv1 <- data
I1001 20:10:02.373399 21907 net.cpp:290] conv1 -> conv1
I1001 20:10:02.374815 21907 net.cpp:83] Top shape: 10 96 55 55 (2904000)
I1001 20:10:02.374842 21907 net.cpp:125] conv1 needs backward computation.
I1001 20:10:02.374861 21907 net.cpp:66] Creating Layer relu1
I1001 20:10:02.374866 21907 net.cpp:329] relu1 <- conv1
I1001 20:10:02.374873 21907 net.cpp:280] relu1 -> conv1 (in-place)
I1001 20:10:02.374882 21907 net.cpp:83] Top shape: 10 96 55 55 (2904000)
I1001 20:10:02.374888 21907 net.cpp:125] relu1 needs backward computation.
I1001 20:10:02.374896 21907 net.cpp:66] Creating Layer pool1
I1001 20:10:02.374900 21907 net.cpp:329] pool1 <- conv1
I1001 20:10:02.374907 21907 net.cpp:290] pool1 -> pool1
I1001 20:10:02.374918 21907 net.cpp:83] Top shape: 10 96 27 27 (699840)
I1001 20:10:02.374924 21907 net.cpp:125] pool1 needs backward computation.
I1001 20:10:02.374932 21907 net.cpp:66] Creating Layer norm1
I1001 20:10:02.374936 21907 net.cpp:329] norm1 <- pool1
I1001 20:10:02.374943 21907 net.cpp:290] norm1 -> norm1
I1001 20:10:02.374953 21907 net.cpp:83] Top shape: 10 96 27 27 (699840)
I1001 20:10:02.374958 21907 net.cpp:125] norm1 needs backward computation.
I1001 20:10:02.374966 21907 net.cpp:66] Creating Layer conv2
I1001 20:10:02.374971 21907 net.cpp:329] conv2 <- norm1
I1001 20:10:02.374979 21907 net.cpp:290] conv2 -> conv2
I1001 20:10:02.384076 21907 net.cpp:83] Top shape: 10 256 27 27 (1866240)
I1001 20:10:02.384106 21907 net.cpp:125] conv2 needs backward computation.
I1001 20:10:02.384115 21907 net.cpp:66] Creating Layer relu2
I1001 20:10:02.384121 21907 net.cpp:329] relu2 <- conv2
I1001 20:10:02.384129 21907 net.cpp:280] relu2 -> conv2 (in-place)
I1001 20:10:02.384136 21907 net.cpp:83] Top shape: 10 256 27 27 (1866240)
I1001 20:10:02.384142 21907 net.cpp:125] relu2 needs backward computation.
I1001 20:10:02.384148 21907 net.cpp:66] Creating Layer pool2
I1001 20:10:02.384155 21907 net.cpp:329] pool2 <- conv2
I1001 20:10:02.384160 21907 net.cpp:290] pool2 -> pool2
I1001 20:10:02.384169 21907 net.cpp:83] Top shape: 10 256 13 13 (432640)
I1001 20:10:02.384174 21907 net.cpp:125] pool2 needs backward computation.
I1001 20:10:02.384182 21907 net.cpp:66] Creating Layer fc7
I1001 20:10:02.384193 21907 net.cpp:329] fc7 <- pool2
I1001 20:10:02.384201 21907 net.cpp:290] fc7 -> fc7
I1001 20:10:03.074110 21907 net.cpp:83] Top shape: 10 512 1 1 (5120)
I1001 20:10:03.074161 21907 net.cpp:125] fc7 needs backward computation.
I1001 20:10:03.074177 21907 net.cpp:66] Creating Layer relu7
I1001 20:10:03.074184 21907 net.cpp:329] relu7 <- fc7
I1001 20:10:03.074193 21907 net.cpp:280] relu7 -> fc7 (in-place)
I1001 20:10:03.074203 21907 net.cpp:83] Top shape: 10 512 1 1 (5120)
I1001 20:10:03.074209 21907 net.cpp:125] relu7 needs backward computation.
I1001 20:10:03.074216 21907 net.cpp:66] Creating Layer drop7
I1001 20:10:03.074221 21907 net.cpp:329] drop7 <- fc7
I1001 20:10:03.074228 21907 net.cpp:280] drop7 -> fc7 (in-place)
I1001 20:10:03.074239 21907 net.cpp:83] Top shape: 10 512 1 1 (5120)
I1001 20:10:03.074244 21907 net.cpp:125] drop7 needs backward computation.
I1001 20:10:03.074256 21907 net.cpp:66] Creating Layer fc8
I1001 20:10:03.074262 21907 net.cpp:329] fc8 <- fc7
I1001 20:10:03.074270 21907 net.cpp:290] fc8 -> fc8
I1001 20:10:03.082120 21907 net.cpp:83] Top shape: 10 512 1 1 (5120)
I1001 20:10:03.082162 21907 net.cpp:125] fc8 needs backward computation.
I1001 20:10:03.082175 21907 net.cpp:66] Creating Layer relu8
I1001 20:10:03.082182 21907 net.cpp:329] relu8 <- fc8
I1001 20:10:03.082190 21907 net.cpp:280] relu8 -> fc8 (in-place)
I1001 20:10:03.082200 21907 net.cpp:83] Top shape: 10 512 1 1 (5120)
I1001 20:10:03.082204 21907 net.cpp:125] relu8 needs backward computation.
I1001 20:10:03.082211 21907 net.cpp:66] Creating Layer drop8
I1001 20:10:03.082216 21907 net.cpp:329] drop8 <- fc8
I1001 20:10:03.082224 21907 net.cpp:280] drop8 -> fc8 (in-place)
I1001 20:10:03.082232 21907 net.cpp:83] Top shape: 10 512 1 1 (5120)
I1001 20:10:03.082237 21907 net.cpp:125] drop8 needs backward computation.
I1001 20:10:03.082247 21907 net.cpp:66] Creating Layer fc9
I1001 20:10:03.082252 21907 net.cpp:329] fc9 <- fc8
I1001 20:10:03.082258 21907 net.cpp:290] fc9 -> fc9
I1001 20:10:03.082639 21907 net.cpp:83] Top shape: 10 24 1 1 (240)
I1001 20:10:03.082661 21907 net.cpp:125] fc9 needs backward computation.
I1001 20:10:03.082671 21907 net.cpp:66] Creating Layer fc10
I1001 20:10:03.082677 21907 net.cpp:329] fc10 <- fc9
I1001 20:10:03.082684 21907 net.cpp:290] fc10 -> fc10
I1001 20:10:03.082696 21907 net.cpp:83] Top shape: 10 2 1 1 (20)
I1001 20:10:03.082705 21907 net.cpp:125] fc10 needs backward computation.
I1001 20:10:03.082712 21907 net.cpp:66] Creating Layer prob
I1001 20:10:03.082717 21907 net.cpp:329] prob <- fc10
I1001 20:10:03.082725 21907 net.cpp:290] prob -> prob
I1001 20:10:03.082734 21907 net.cpp:83] Top shape: 10 2 1 1 (20)
I1001 20:10:03.082741 21907 net.cpp:125] prob needs backward computation.
I1001 20:10:03.082744 21907 net.cpp:156] This network produces output prob
I1001 20:10:03.082758 21907 net.cpp:402] Collecting Learning Rate and Weight Decay.
I1001 20:10:03.082767 21907 net.cpp:167] Network initialization done.
I1001 20:10:03.082772 21907 net.cpp:168] Memory required for data: 6183480
E1001 20:10:03.266532 21907 upgrade_proto.cpp:598] Attempting to upgrade input file specified using deprecated V0LayerParameter: /home/jack/Documents/caffe/testmine/feature_extract/senti/pretrained_model
…
