…
E1001 20:20:03.721091 21941 upgrade_proto.cpp:575] Attempting to upgrade input file specified using deprecated V0LayerParameter: /home/jack/Documents/caffe/testmine/feature_extract/senti/model_new.prototxt
I1001 20:20:03.721251 21941 upgrade_proto.cpp:582] Successfully upgraded file specified using deprecated V0LayerParameter
E1001 20:20:03.721261 21941 upgrade_proto.cpp:585] Note that future Caffe releases will not support V0NetParameter; use ./build/tools/upgrade_net_proto_text.bin to upgrade this and any other network proto files to the new format.
I1001 20:20:03.721423 21941 net.cpp:38] Initializing net from parameters: 
layers {
  bottom: "data"
  top: "conv1"
  name: "conv1"
  type: CONVOLUTION
  blobs_lr: 1
  blobs_lr: 2
  weight_decay: 1
  weight_decay: 0
  convolution_param {
    num_output: 96
    kernel_size: 11
    stride: 4
    weight_filler {
      type: "gaussian"
      std: 0.01
    }
    bias_filler {
      type: "constant"
      value: 0
    }
  }
}
layers {
  bottom: "conv1"
  top: "conv1"
  name: "relu1"
  type: RELU
}
layers {
  bottom: "conv1"
  top: "pool1"
  name: "pool1"
  type: POOLING
  pooling_param {
    pool: MAX
    kernel_size: 3
    stride: 2
  }
}
layers {
  bottom: "pool1"
  top: "norm1"
  name: "norm1"
  type: LRN
  lrn_param {
    local_size: 5
    alpha: 0.0001
    beta: 0.75
  }
}
layers {
  bottom: "norm1"
  top: "conv2"
  name: "conv2"
  type: CONVOLUTION
  blobs_lr: 1
  blobs_lr: 2
  weight_decay: 1
  weight_decay: 0
  convolution_param {
    num_output: 256
    pad: 2
    kernel_size: 5
    group: 2
    weight_filler {
      type: "gaussian"
      std: 0.01
    }
    bias_filler {
      type: "constant"
      value: 1
    }
  }
}
layers {
  bottom: "conv2"
  top: "conv2"
  name: "relu2"
  type: RELU
}
layers {
  bottom: "conv2"
  top: "pool2"
  name: "pool2"
  type: POOLING
  pooling_param {
    pool: MAX
    kernel_size: 3
    stride: 2
  }
}
layers {
  bottom: "pool2"
  top: "fc7"
  name: "fc7"
  type: INNER_PRODUCT
  blobs_lr: 1
  blobs_lr: 2
  weight_decay: 1
  weight_decay: 0
  inner_product_param {
    num_output: 512
    weight_filler {
      type: "gaussian"
      std: 0.005
    }
    bias_filler {
      type: "constant"
      value: 1
    }
  }
}
layers {
  bottom: "fc7"
  top: "fc7"
  name: "relu7"
  type: RELU
}
layers {
  bottom: "fc7"
  top: "fc7"
  name: "drop7"
  type: DROPOUT
  dropout_param {
    dropout_ratio: 0.5
  }
}
layers {
  bottom: "fc7"
  top: "fc8"
  name: "fc8"
  type: INNER_PRODUCT
  blobs_lr: 1
  blobs_lr: 2
  weight_decay: 1
  weight_decay: 0
  inner_product_param {
    num_output: 512
    weight_filler {
      type: "gaussian"
      std: 0.005
    }
    bias_filler {
      type: "constant"
      value: 1
    }
  }
}
layers {
  bottom: "fc8"
  top: "fc8"
  name: "relu8"
  type: RELU
}
layers {
  bottom: "fc8"
  top: "fc8"
  name: "drop8"
  type: DROPOUT
  dropout_param {
    dropout_ratio: 0.5
  }
}
layers {
  bottom: "fc8"
  top: "fc9"
  name: "fc9"
  type: INNER_PRODUCT
  blobs_lr: 1
  blobs_lr: 2
  weight_decay: 1
  weight_decay: 0
  inner_product_param {
    num_output: 24
    weight_filler {
      type: "gaussian"
      std: 0.01
    }
    bias_filler {
      type: "constant"
      value: 0
    }
  }
}
layers {
  bottom: "fc9"
  top: "fc10"
  name: "fc10"
  type: INNER_PRODUCT
  blobs_lr: 1
  blobs_lr: 2
  weight_decay: 1
  weight_decay: 0
  inner_product_param {
    num_output: 2
    weight_filler {
      type: "gaussian"
      std: 0.01
    }
    bias_filler {
      type: "constant"
      value: 0
    }
  }
}
layers {
  bottom: "fc10"
  top: "prob"
  name: "prob"
  type: SOFTMAX
}
input: "data"
input_dim: 10
input_dim: 3
input_dim: 227
input_dim: 227
I1001 20:20:03.721511 21941 net.cpp:292] Input 0 -> data
I1001 20:20:03.721540 21941 net.cpp:66] Creating Layer conv1
I1001 20:20:03.721549 21941 net.cpp:329] conv1 <- data
I1001 20:20:03.721557 21941 net.cpp:290] conv1 -> conv1
I1001 20:20:03.723028 21941 net.cpp:83] Top shape: 10 96 55 55 (2904000)
I1001 20:20:03.723078 21941 net.cpp:125] conv1 needs backward computation.
I1001 20:20:03.723103 21941 net.cpp:66] Creating Layer relu1
I1001 20:20:03.723110 21941 net.cpp:329] relu1 <- conv1
I1001 20:20:03.723119 21941 net.cpp:280] relu1 -> conv1 (in-place)
I1001 20:20:03.723129 21941 net.cpp:83] Top shape: 10 96 55 55 (2904000)
I1001 20:20:03.723135 21941 net.cpp:125] relu1 needs backward computation.
I1001 20:20:03.723144 21941 net.cpp:66] Creating Layer pool1
I1001 20:20:03.723150 21941 net.cpp:329] pool1 <- conv1
I1001 20:20:03.723156 21941 net.cpp:290] pool1 -> pool1
I1001 20:20:03.723170 21941 net.cpp:83] Top shape: 10 96 27 27 (699840)
I1001 20:20:03.723176 21941 net.cpp:125] pool1 needs backward computation.
I1001 20:20:03.723184 21941 net.cpp:66] Creating Layer norm1
I1001 20:20:03.723189 21941 net.cpp:329] norm1 <- pool1
I1001 20:20:03.723196 21941 net.cpp:290] norm1 -> norm1
I1001 20:20:03.723206 21941 net.cpp:83] Top shape: 10 96 27 27 (699840)
I1001 20:20:03.723212 21941 net.cpp:125] norm1 needs backward computation.
I1001 20:20:03.723222 21941 net.cpp:66] Creating Layer conv2
I1001 20:20:03.723228 21941 net.cpp:329] conv2 <- norm1
I1001 20:20:03.723235 21941 net.cpp:290] conv2 -> conv2
I1001 20:20:03.732487 21941 net.cpp:83] Top shape: 10 256 27 27 (1866240)
I1001 20:20:03.732533 21941 net.cpp:125] conv2 needs backward computation.
I1001 20:20:03.732544 21941 net.cpp:66] Creating Layer relu2
I1001 20:20:03.732552 21941 net.cpp:329] relu2 <- conv2
I1001 20:20:03.732560 21941 net.cpp:280] relu2 -> conv2 (in-place)
I1001 20:20:03.732569 21941 net.cpp:83] Top shape: 10 256 27 27 (1866240)
I1001 20:20:03.732575 21941 net.cpp:125] relu2 needs backward computation.
I1001 20:20:03.732583 21941 net.cpp:66] Creating Layer pool2
I1001 20:20:03.732589 21941 net.cpp:329] pool2 <- conv2
I1001 20:20:03.732596 21941 net.cpp:290] pool2 -> pool2
I1001 20:20:03.732605 21941 net.cpp:83] Top shape: 10 256 13 13 (432640)
I1001 20:20:03.732611 21941 net.cpp:125] pool2 needs backward computation.
I1001 20:20:03.732620 21941 net.cpp:66] Creating Layer fc7
I1001 20:20:03.732635 21941 net.cpp:329] fc7 <- pool2
I1001 20:20:03.732641 21941 net.cpp:290] fc7 -> fc7
I1001 20:20:04.410781 21941 net.cpp:83] Top shape: 10 512 1 1 (5120)
I1001 20:20:04.410830 21941 net.cpp:125] fc7 needs backward computation.
I1001 20:20:04.410843 21941 net.cpp:66] Creating Layer relu7
I1001 20:20:04.410851 21941 net.cpp:329] relu7 <- fc7
I1001 20:20:04.410861 21941 net.cpp:280] relu7 -> fc7 (in-place)
I1001 20:20:04.410871 21941 net.cpp:83] Top shape: 10 512 1 1 (5120)
I1001 20:20:04.410877 21941 net.cpp:125] relu7 needs backward computation.
I1001 20:20:04.410884 21941 net.cpp:66] Creating Layer drop7
I1001 20:20:04.410890 21941 net.cpp:329] drop7 <- fc7
I1001 20:20:04.410897 21941 net.cpp:280] drop7 -> fc7 (in-place)
I1001 20:20:04.410907 21941 net.cpp:83] Top shape: 10 512 1 1 (5120)
I1001 20:20:04.410913 21941 net.cpp:125] drop7 needs backward computation.
I1001 20:20:04.410924 21941 net.cpp:66] Creating Layer fc8
I1001 20:20:04.410930 21941 net.cpp:329] fc8 <- fc7
I1001 20:20:04.410938 21941 net.cpp:290] fc8 -> fc8
I1001 20:20:04.418989 21941 net.cpp:83] Top shape: 10 512 1 1 (5120)
I1001 20:20:04.419034 21941 net.cpp:125] fc8 needs backward computation.
I1001 20:20:04.419046 21941 net.cpp:66] Creating Layer relu8
I1001 20:20:04.419054 21941 net.cpp:329] relu8 <- fc8
I1001 20:20:04.419062 21941 net.cpp:280] relu8 -> fc8 (in-place)
I1001 20:20:04.419072 21941 net.cpp:83] Top shape: 10 512 1 1 (5120)
I1001 20:20:04.419078 21941 net.cpp:125] relu8 needs backward computation.
I1001 20:20:04.419086 21941 net.cpp:66] Creating Layer drop8
I1001 20:20:04.419092 21941 net.cpp:329] drop8 <- fc8
I1001 20:20:04.419101 21941 net.cpp:280] drop8 -> fc8 (in-place)
I1001 20:20:04.419111 21941 net.cpp:83] Top shape: 10 512 1 1 (5120)
I1001 20:20:04.419116 21941 net.cpp:125] drop8 needs backward computation.
I1001 20:20:04.419124 21941 net.cpp:66] Creating Layer fc9
I1001 20:20:04.419131 21941 net.cpp:329] fc9 <- fc8
I1001 20:20:04.419138 21941 net.cpp:290] fc9 -> fc9
I1001 20:20:04.419530 21941 net.cpp:83] Top shape: 10 24 1 1 (240)
I1001 20:20:04.419554 21941 net.cpp:125] fc9 needs backward computation.
I1001 20:20:04.419564 21941 net.cpp:66] Creating Layer fc10
I1001 20:20:04.419571 21941 net.cpp:329] fc10 <- fc9
I1001 20:20:04.419579 21941 net.cpp:290] fc10 -> fc10
I1001 20:20:04.419590 21941 net.cpp:83] Top shape: 10 2 1 1 (20)
I1001 20:20:04.419600 21941 net.cpp:125] fc10 needs backward computation.
I1001 20:20:04.419607 21941 net.cpp:66] Creating Layer prob
I1001 20:20:04.419613 21941 net.cpp:329] prob <- fc10
I1001 20:20:04.419620 21941 net.cpp:290] prob -> prob
I1001 20:20:04.419631 21941 net.cpp:83] Top shape: 10 2 1 1 (20)
I1001 20:20:04.419637 21941 net.cpp:125] prob needs backward computation.
I1001 20:20:04.419642 21941 net.cpp:156] This network produces output prob
I1001 20:20:04.419657 21941 net.cpp:402] Collecting Learning Rate and Weight Decay.
I1001 20:20:04.419667 21941 net.cpp:167] Network initialization done.
I1001 20:20:04.419673 21941 net.cpp:168] Memory required for data: 6183480
E1001 20:20:04.631558 21941 upgrade_proto.cpp:598] Attempting to upgrade input file specified using deprecated V0LayerParameter: /home/jack/Documents/caffe/testmine/feature_extract/senti/pretrained_model
…
