…
E1001 20:30:05.919261 21977 upgrade_proto.cpp:575] Attempting to upgrade input file specified using deprecated V0LayerParameter: /home/jack/Documents/caffe/testmine/feature_extract/senti/model_new.prototxt
I1001 20:30:05.919440 21977 upgrade_proto.cpp:582] Successfully upgraded file specified using deprecated V0LayerParameter
E1001 20:30:05.919448 21977 upgrade_proto.cpp:585] Note that future Caffe releases will not support V0NetParameter; use ./build/tools/upgrade_net_proto_text.bin to upgrade this and any other network proto files to the new format.
I1001 20:30:05.919613 21977 net.cpp:38] Initializing net from parameters: 
layers {
  bottom: "data"
  top: "conv1"
  name: "conv1"
  type: CONVOLUTION
  blobs_lr: 1
  blobs_lr: 2
  weight_decay: 1
  weight_decay: 0
  convolution_param {
    num_output: 96
    kernel_size: 11
    stride: 4
    weight_filler {
      type: "gaussian"
      std: 0.01
    }
    bias_filler {
      type: "constant"
      value: 0
    }
  }
}
layers {
  bottom: "conv1"
  top: "conv1"
  name: "relu1"
  type: RELU
}
layers {
  bottom: "conv1"
  top: "pool1"
  name: "pool1"
  type: POOLING
  pooling_param {
    pool: MAX
    kernel_size: 3
    stride: 2
  }
}
layers {
  bottom: "pool1"
  top: "norm1"
  name: "norm1"
  type: LRN
  lrn_param {
    local_size: 5
    alpha: 0.0001
    beta: 0.75
  }
}
layers {
  bottom: "norm1"
  top: "conv2"
  name: "conv2"
  type: CONVOLUTION
  blobs_lr: 1
  blobs_lr: 2
  weight_decay: 1
  weight_decay: 0
  convolution_param {
    num_output: 256
    pad: 2
    kernel_size: 5
    group: 2
    weight_filler {
      type: "gaussian"
      std: 0.01
    }
    bias_filler {
      type: "constant"
      value: 1
    }
  }
}
layers {
  bottom: "conv2"
  top: "conv2"
  name: "relu2"
  type: RELU
}
layers {
  bottom: "conv2"
  top: "pool2"
  name: "pool2"
  type: POOLING
  pooling_param {
    pool: MAX
    kernel_size: 3
    stride: 2
  }
}
layers {
  bottom: "pool2"
  top: "fc7"
  name: "fc7"
  type: INNER_PRODUCT
  blobs_lr: 1
  blobs_lr: 2
  weight_decay: 1
  weight_decay: 0
  inner_product_param {
    num_output: 512
    weight_filler {
      type: "gaussian"
      std: 0.005
    }
    bias_filler {
      type: "constant"
      value: 1
    }
  }
}
layers {
  bottom: "fc7"
  top: "fc7"
  name: "relu7"
  type: RELU
}
layers {
  bottom: "fc7"
  top: "fc7"
  name: "drop7"
  type: DROPOUT
  dropout_param {
    dropout_ratio: 0.5
  }
}
layers {
  bottom: "fc7"
  top: "fc8"
  name: "fc8"
  type: INNER_PRODUCT
  blobs_lr: 1
  blobs_lr: 2
  weight_decay: 1
  weight_decay: 0
  inner_product_param {
    num_output: 512
    weight_filler {
      type: "gaussian"
      std: 0.005
    }
    bias_filler {
      type: "constant"
      value: 1
    }
  }
}
layers {
  bottom: "fc8"
  top: "fc8"
  name: "relu8"
  type: RELU
}
layers {
  bottom: "fc8"
  top: "fc8"
  name: "drop8"
  type: DROPOUT
  dropout_param {
    dropout_ratio: 0.5
  }
}
layers {
  bottom: "fc8"
  top: "fc9"
  name: "fc9"
  type: INNER_PRODUCT
  blobs_lr: 1
  blobs_lr: 2
  weight_decay: 1
  weight_decay: 0
  inner_product_param {
    num_output: 24
    weight_filler {
      type: "gaussian"
      std: 0.01
    }
    bias_filler {
      type: "constant"
      value: 0
    }
  }
}
layers {
  bottom: "fc9"
  top: "fc10"
  name: "fc10"
  type: INNER_PRODUCT
  blobs_lr: 1
  blobs_lr: 2
  weight_decay: 1
  weight_decay: 0
  inner_product_param {
    num_output: 2
    weight_filler {
      type: "gaussian"
      std: 0.01
    }
    bias_filler {
      type: "constant"
      value: 0
    }
  }
}
layers {
  bottom: "fc10"
  top: "prob"
  name: "prob"
  type: SOFTMAX
}
input: "data"
input_dim: 10
input_dim: 3
input_dim: 227
input_dim: 227
I1001 20:30:05.919669 21977 net.cpp:292] Input 0 -> data
I1001 20:30:05.919697 21977 net.cpp:66] Creating Layer conv1
I1001 20:30:05.919703 21977 net.cpp:329] conv1 <- data
I1001 20:30:05.919711 21977 net.cpp:290] conv1 -> conv1
I1001 20:30:05.921192 21977 net.cpp:83] Top shape: 10 96 55 55 (2904000)
I1001 20:30:05.921257 21977 net.cpp:125] conv1 needs backward computation.
I1001 20:30:05.921291 21977 net.cpp:66] Creating Layer relu1
I1001 20:30:05.921299 21977 net.cpp:329] relu1 <- conv1
I1001 20:30:05.921308 21977 net.cpp:280] relu1 -> conv1 (in-place)
I1001 20:30:05.921320 21977 net.cpp:83] Top shape: 10 96 55 55 (2904000)
I1001 20:30:05.921326 21977 net.cpp:125] relu1 needs backward computation.
I1001 20:30:05.921335 21977 net.cpp:66] Creating Layer pool1
I1001 20:30:05.921341 21977 net.cpp:329] pool1 <- conv1
I1001 20:30:05.921349 21977 net.cpp:290] pool1 -> pool1
I1001 20:30:05.921361 21977 net.cpp:83] Top shape: 10 96 27 27 (699840)
I1001 20:30:05.921367 21977 net.cpp:125] pool1 needs backward computation.
I1001 20:30:05.921375 21977 net.cpp:66] Creating Layer norm1
I1001 20:30:05.921380 21977 net.cpp:329] norm1 <- pool1
I1001 20:30:05.921387 21977 net.cpp:290] norm1 -> norm1
I1001 20:30:05.921398 21977 net.cpp:83] Top shape: 10 96 27 27 (699840)
I1001 20:30:05.921404 21977 net.cpp:125] norm1 needs backward computation.
I1001 20:30:05.921414 21977 net.cpp:66] Creating Layer conv2
I1001 20:30:05.921421 21977 net.cpp:329] conv2 <- norm1
I1001 20:30:05.921428 21977 net.cpp:290] conv2 -> conv2
I1001 20:30:05.940968 21977 net.cpp:83] Top shape: 10 256 27 27 (1866240)
I1001 20:30:05.941030 21977 net.cpp:125] conv2 needs backward computation.
I1001 20:30:05.941043 21977 net.cpp:66] Creating Layer relu2
I1001 20:30:05.941051 21977 net.cpp:329] relu2 <- conv2
I1001 20:30:05.941059 21977 net.cpp:280] relu2 -> conv2 (in-place)
I1001 20:30:05.941069 21977 net.cpp:83] Top shape: 10 256 27 27 (1866240)
I1001 20:30:05.941076 21977 net.cpp:125] relu2 needs backward computation.
I1001 20:30:05.941083 21977 net.cpp:66] Creating Layer pool2
I1001 20:30:05.941089 21977 net.cpp:329] pool2 <- conv2
I1001 20:30:05.941097 21977 net.cpp:290] pool2 -> pool2
I1001 20:30:05.941107 21977 net.cpp:83] Top shape: 10 256 13 13 (432640)
I1001 20:30:05.941113 21977 net.cpp:125] pool2 needs backward computation.
I1001 20:30:05.941123 21977 net.cpp:66] Creating Layer fc7
I1001 20:30:05.941128 21977 net.cpp:329] fc7 <- pool2
I1001 20:30:05.941135 21977 net.cpp:290] fc7 -> fc7
I1001 20:30:06.667405 21977 net.cpp:83] Top shape: 10 512 1 1 (5120)
I1001 20:30:06.667474 21977 net.cpp:125] fc7 needs backward computation.
I1001 20:30:06.667489 21977 net.cpp:66] Creating Layer relu7
I1001 20:30:06.667495 21977 net.cpp:329] relu7 <- fc7
I1001 20:30:06.667505 21977 net.cpp:280] relu7 -> fc7 (in-place)
I1001 20:30:06.667515 21977 net.cpp:83] Top shape: 10 512 1 1 (5120)
I1001 20:30:06.667521 21977 net.cpp:125] relu7 needs backward computation.
I1001 20:30:06.667529 21977 net.cpp:66] Creating Layer drop7
I1001 20:30:06.667536 21977 net.cpp:329] drop7 <- fc7
I1001 20:30:06.667543 21977 net.cpp:280] drop7 -> fc7 (in-place)
I1001 20:30:06.667556 21977 net.cpp:83] Top shape: 10 512 1 1 (5120)
I1001 20:30:06.667562 21977 net.cpp:125] drop7 needs backward computation.
I1001 20:30:06.667572 21977 net.cpp:66] Creating Layer fc8
I1001 20:30:06.667577 21977 net.cpp:329] fc8 <- fc7
I1001 20:30:06.667587 21977 net.cpp:290] fc8 -> fc8
I1001 20:30:06.676206 21977 net.cpp:83] Top shape: 10 512 1 1 (5120)
I1001 20:30:06.676262 21977 net.cpp:125] fc8 needs backward computation.
I1001 20:30:06.676275 21977 net.cpp:66] Creating Layer relu8
I1001 20:30:06.676283 21977 net.cpp:329] relu8 <- fc8
I1001 20:30:06.676293 21977 net.cpp:280] relu8 -> fc8 (in-place)
I1001 20:30:06.676304 21977 net.cpp:83] Top shape: 10 512 1 1 (5120)
I1001 20:30:06.676311 21977 net.cpp:125] relu8 needs backward computation.
I1001 20:30:06.676318 21977 net.cpp:66] Creating Layer drop8
I1001 20:30:06.676323 21977 net.cpp:329] drop8 <- fc8
I1001 20:30:06.676331 21977 net.cpp:280] drop8 -> fc8 (in-place)
I1001 20:30:06.676338 21977 net.cpp:83] Top shape: 10 512 1 1 (5120)
I1001 20:30:06.676344 21977 net.cpp:125] drop8 needs backward computation.
I1001 20:30:06.676353 21977 net.cpp:66] Creating Layer fc9
I1001 20:30:06.676359 21977 net.cpp:329] fc9 <- fc8
I1001 20:30:06.676368 21977 net.cpp:290] fc9 -> fc9
I1001 20:30:06.676913 21977 net.cpp:83] Top shape: 10 24 1 1 (240)
I1001 20:30:06.677001 21977 net.cpp:125] fc9 needs backward computation.
I1001 20:30:06.677023 21977 net.cpp:66] Creating Layer fc10
I1001 20:30:06.677032 21977 net.cpp:329] fc10 <- fc9
I1001 20:30:06.677044 21977 net.cpp:290] fc10 -> fc10
I1001 20:30:06.677078 21977 net.cpp:83] Top shape: 10 2 1 1 (20)
I1001 20:30:06.677088 21977 net.cpp:125] fc10 needs backward computation.
I1001 20:30:06.677098 21977 net.cpp:66] Creating Layer prob
I1001 20:30:06.677103 21977 net.cpp:329] prob <- fc10
I1001 20:30:06.677112 21977 net.cpp:290] prob -> prob
I1001 20:30:06.677129 21977 net.cpp:83] Top shape: 10 2 1 1 (20)
I1001 20:30:06.677145 21977 net.cpp:125] prob needs backward computation.
I1001 20:30:06.677150 21977 net.cpp:156] This network produces output prob
I1001 20:30:06.677167 21977 net.cpp:402] Collecting Learning Rate and Weight Decay.
I1001 20:30:06.677181 21977 net.cpp:167] Network initialization done.
I1001 20:30:06.677187 21977 net.cpp:168] Memory required for data: 6183480
E1001 20:30:07.617002 21977 upgrade_proto.cpp:598] Attempting to upgrade input file specified using deprecated V0LayerParameter: /home/jack/Documents/caffe/testmine/feature_extract/senti/pretrained_model
…
